app/src/main/ml/brain_tumor.tflite (tflite, 709292 bytes, 10 tensors)

sequential/conv2d/BiasAdd/ReadVariableOp f4 [32]
000000 5f e4 3d 3d f5 57 49 3c f9 87 c6 bb 14 69 c7 3c
       0.04636037 0.012289037 -0.0060586897 0.024342097
000010 19 d7 88 bd a7 d3 24 bd 6b 5f 52 bc 25 95 f9 bc
       -0.066816516 -0.04024091 -0.012840132 -0.030466625
000020 6d 3f ea 3b 06 d9 2a 3d 35 91 7b bd fe 1e c5 3c
       0.007148674 0.041710876 -0.061417777 0.02406263
000030 e8 d3 39 3c 6d 98 19 3d 3f f3 bc bc 4c 59 97 3d
       0.011342026 0.03749888 -0.023065208 0.07390079
000040 90 58 fd 3c b5 93 32 bd 6b a3 62 bc 25 c3 c3 3c
       0.030926019 -0.043597896 -0.013832907 0.023896763
000050 c6 ce ea 3c b8 ad 17 bd c9 16 07 3c 7e 7f af 3b
       0.02866305 -0.037030905 0.0082451785 0.0053557744
000060 02 32 61 bc 1a 81 b9 3c 6e d2 2f bd ee 9d d0 3c
       -0.013744833 0.022644568 -0.04292529 0.025465932
000070 15 90 99 bd ba c8 45 bb 8c 53 4b 3d 07 fb 9d bd
       -0.074981846 -0.0030179457 0.049640223 -0.07713895

sequential/conv2d_1/BiasAdd/ReadVariableOp f4 [32]
000000 52 80 e6 3b 9c 8e 2c bd 97 d4 6b 3c b6 9f b2 bc
       0.00703434 -0.04212819 0.014393947 -0.021804672
000010 70 d0 6d 3b f0 93 01 3d 42 29 7f bc 99 33 ab bc
       0.0036287569 0.031635225 -0.0155738015 -0.020898627
000020 31 4b 5e 3d a8 0a 8a bc 0a b9 9c bc 7f 4f ee 3c
       0.054270927 -0.016850784 -0.019131202 0.029090641
000030 17 e7 32 3c dc 97 d3 bc e7 3a 7f 3c 4c dd ac 3b
       0.010919354 -0.025829248 0.015578008 0.005275404
000040 98 5b d5 ba c2 2b 4a bd 3b 7c 85 3c 06 2e 3a 3d
       -0.0016277907 -0.049358137 0.01629459 0.045454048
000050 e3 f0 01 bd ad 08 19 3d ba 32 60 bc 59 1b 01 bd
       -0.031723868 0.03736179 -0.013683969 -0.03152022
000060 25 06 80 bc 2e 03 6c bc f1 cb 02 3d 48 15 46 3c
       -0.01562793 -0.014405055 0.031932775 0.012090035
000070 4f d3 38 3c 0e 9d e4 bc 67 71 f0 bc 63 18 1a bd
       0.011280849 -0.02790692 -0.02935095 -0.037620913

sequential/conv2d_2/BiasAdd/ReadVariableOp f4 [64]
000000 64 09 1a 3a 58 bc e2 3c c9 38 f0 3a d8 c6 57 bc
       0.0005876033 0.0276777 0.001832747 -0.013169967
000010 3a 67 45 bc 32 a7 c4 3c 33 a0 5d 3d 46 d6 b6 3b
       -0.012048537 0.024005506 0.054107856 0.0055797426
000020 33 44 20 3d 90 6a 8c bc 5b f8 2f 3c 4a ee ac bc
       0.03912754 -0.017140657 0.010740365 -0.021109719
000030 50 93 99 3b 2b 56 47 bc ce fe 77 bc ba ee 1e 3d
       0.0046867505 -0.01216654 -0.015136434 0.038801886
000040 cc 1b 3c 3c 90 61 c1 3b 5e f5 e4 3b 4a e7 38 3d
       0.011481237 0.005901523 0.006987258 0.04514245
000050 79 1c 4f 3b a4 81 5a bc 99 93 22 bc 67 ae e5 3c
       0.0031602664 -0.013336573 -0.009922885 0.028037263
000060 19 b6 0d ba 7e 8e 5d bc a7 13 d9 3c 49 4c 0a 3d
       -0.0005405858 -0.013522742 0.026498629 0.033764157
000070 b3 9c 18 3c de 92 ac bc f6 22 95 3c 7e a7 bf 3c
       0.009314704 -0.021066125 0.018205147 0.023395296
000080 7c 5b 94 3b e5 eb 8f ba 56 6d ad bc 15 c9 01 bd
       0.0045275073 -0.0010980336 -0.0211703 -0.031685907
000090 b3 b6 dd 3c 90 6c 4a bb f4 37 05 bc e6 3d af 3a
       0.027064657 -0.0030887462 -0.008131016 0.0013369888
0000a0 9c aa 9b 3c 16 70 9e 3c 44 90 59 3d 6e bb d2 3b
       0.019002251 0.019340556 0.053116098 0.0064310348
0000b0 1a 12 17 3d db cb 04 3d 9d ff af 3b 23 3d ef bb
       0.036882497 0.032420974 0.0053710476 -0.0073009892
0000c0 71 04 95 bc 8f 2c 9c 3b 0a 62 c1 bc 91 7e b3 3c
       -0.018190594 0.004766054 -0.023606319 0.021910938
0000d0 57 42 a2 bc 30 68 59 3d 01 7d b6 bb f0 72 d6 3a
       -0.019807024 0.053077877 -0.005569101 0.0016361158
0000e0 5a 5f a9 ba 6d 8a 8c bc 9b 69 c2 ba 49 91 a6 bb
       -0.0012922094 -0.01715585 -0.0014832498 -0.0050832373
0000f0 54 e9 d7 3b 8b 40 3b bd 19 25 b2 bb 58 40 f1 3c
       0.006589094 -0.04571585 -0.0054365513 0.029449627

sequential/conv2d/Conv2D f4 [32, 3, 3, 3]
000000 df 24 fb 3d df 5a 19 3e 8d 01 9e 3d 28 dd b0 3d
       0.12262892 0.14976071 0.077151395 0.08635932
000010 81 0e 91 bc 95 8c 11 3e 4f 42 66 3d cf ec 1a 3e
       -0.017707111 0.14213784 0.05621558 0.15129398
000020 09 c9 90 bd 21 e9 11 bd 82 7b d5 bd 36 e8 00 3e
       -0.070695944 -0.03562272 -0.10423948 0.12588581
000030 f8 c8 4d be bf 3f 90 bc 36 a7 fe bd e1 d3 d6 bd
       -0.20096195 -0.017608522 -0.12434237 -0.104896314
000040 a3 2a aa bd 63 db 9b 3b 5a e8 0b be b7 e9 3d 3d
       -0.083089136 0.0047563775 -0.13662854 0.046365466
000050 15 4f 44 3d c7 6b 44 3c 5e 93 96 bd d7 96 5f be
       0.04792698 0.011988587 -0.07352327 -0.21834885
000060 ff 17 2e be a7 c9 08 be c6 b5 68 3b dd 49 99 3d
       -0.17001341 -0.13358174 0.0035508736 0.074847914
000070 74 38 4f bd 70 b9 16 be 58 4d fa bd 7c 2b 9f 3d
       -0.050590947 -0.14719176 -0.122217834 0.07771966
000080 35 e5 03 be a8 71 5d be 22 e4 58 be d0 bc 27 3c
       -0.12880404 -0.21625388 -0.21180776 0.0102378875
000090 7a 5d 8e 3a 3a 36 a7 3d eb c0 f5 bd 08 c5 12 3e
       0.0010861598 0.0816464 -0.11999687 0.14332974
0000a0 ca 9e 9e bd 95 5f fb bd 57 fb f7 3b 8b 2e fc bd
       -0.0774513 -0.1227409 0.007567804 -0.12313565
0000b0 dc ab 0f be b4 53 aa 3c c4 21 e7 3d ea 8e b8 3b
       -0.14030403 0.020791866 0.11285737 0.005632271
0000c0 89 88 28 3e 2b f9 27 3e d8 06 38 3e c3 e4 c4 3d
       0.16458334 0.16403644 0.1797136 0.09613945
0000d0 aa 37 d9 3c 4c 66 3e 3e 13 6c 7a 3d b9 6b 98 bd
       0.0265158 0.1859371 0.061138224 -0.074424215
0000e0 78 68 0f 3e f6 48 01 3e 7e 6e 31 bd a3 0f 19 3e
       0.14004695 0.12625489 -0.043318264 0.14947371
0000f0 92 f6 d5 3d f4 17 0a 3d 5f e4 dc 3d 05 c3 f0 3d
       0.1044742 0.03371425 0.10785746 0.11755947
000100 13 8a 09 be d6 ca 00 be f5 a6 07 be 22 14 e0 3d
       -0.13431577 -0.12577376 -0.13247283 0.1094134
000110 f2 f8 1a bc 2e 8e 40 bd f2 66 ce bc 89 b4 f3 bd
       -0.009458767 -0.047010593 -0.025195573 -0.11899669
000120 07 b0 80 bc cf 78 13 3e fe cf c4 3d ce 53 17 bd
       -0.015708936 0.14401554 0.09609984 -0.036945157
000130 e2 0c 5d be a8 cd e1 bd 0f c0 af bd 88 8d 98 3d
       -0.21586946 -0.11025554 -0.08581554 0.0744887
000140 8b 48 8f bd 06 7e 52 3e ce 19 09 3e 04 9a 68 3e
       -0.06996258 0.20555887 0.1338875 0.22715002
000150 0a 18 32 3e 1e 05 18 3d 43 c1 b4 3d cc 11 2d 3d
       0.17391983 0.037114255 0.08825924 0.0422533
000160 be 5a c0 3d c2 63 23 3e 37 f9 88 bc 89 39 f8 bd
       0.09392308 0.15956023 -0.016720397 -0.12120349
000170 02 37 ed 3d 5a 82 80 bd 6f 8e 4c be 91 86 1d be
       0.115827575 -0.062748626 -0.19976209 -0.15383364
000180 ae f9 10 be 51 87 24 be 75 1c 86 bd de 36 10 be
       -0.14157745 -0.16067244 -0.065483965 -0.1408343
000190 74 db 07 be 95 ab a9 bd 35 12 d3 3c 3b 5b 04 be
       -0.13267308 -0.0828468 0.025765518 -0.12925427
0001a0 09 9c 05 be 6f 91 dc bd 7b 43 c6 3c 6e a8 f3 38
       -0.13047804 -0.10769927 0.0242021 0.000116185154
0001b0 57 de 4b be f4 fa ca bd f3 09 a9 3c f1 31 54 bd
       -0.19909035 -0.09911147 0.020634627 -0.05180544
0001c0 7e d6 d1 3d 01 f6 42 bd 86 6c 19 3e cc 06 d6 3d
       0.10245989 -0.04759789 0.14982805 0.10450515
0001d0 8c bb 14 3c a3 2a fc 3d ef 2e ca 3c ae 24 f7 3d
       0.009077918 0.1231282 0.024680583 0.12067543
0001e0 3c 32 ad bc 55 a5 14 3e 1d ed b0 3c 70 0e 23 3d
       -0.021142118 0.14516194 0.02159744 0.03980869
0001f0 54 0a f0 3c c4 10 a5 bd 85 7f 54 bd ed 7c 8c 3b
       0.0293018 -0.080598384 -0.051879425 0.0042873533
000200 68 54 cd 3c 36 81 28 3d a7 ae ff 3d 58 22 1c 3e
       0.025064662 0.04113885 0.12484484 0.15247476
000210 f8 91 28 3e 89 89 56 bd d2 c7 30 3e 02 ec 96 3d
       0.16461933 -0.052377257 0.17263725 0.07369234
000220 d3 4c d4 ba dd 0d 81 bd 71 44 fd 3d 01 6b 57 3e
       -0.0016197212 -0.06301472 0.1236657 0.21036913
000230 e6 c7 b0 bc aa 3c d4 3d 1d 60 41 bd 9a 0e 9c bd
       -0.021579694 0.10363133 -0.0472108 -0.076199725
000240 0a 9a 55 bd 58 f9 2c 3e 1f 2f 2c 3e a7 99 7d bc
       -0.052148856 0.16891992 0.1681485 -0.015478528
000250 ee b7 06 3e 4c ca af 3d aa 3a c9 3c c7 91 28 be
       0.13156101 0.08583507 0.024564106 -0.1646186
000260 2f 8e 34 be 07 20 d8 bc 39 ff aa bc d0 8c 0c 3d
       -0.17632364 -0.02638246 -0.020873653 0.034313977
000270 4a 76 f7 3d 65 7c 0c bd c2 a2 16 3e cf e8 88 bd
       0.12083109 -0.03429832 0.14710525 -0.0668503
000280 b3 26 aa 3d 3d db 8f bc 44 ec 4e 3c 3e de 0d 3b
       0.083081625 -0.017560596 0.012629572 0.002164736
000290 8e 4f 91 bc c6 1e f3 bd 75 9c d4 3d 9f 6e b3 3c
       -0.01773813 -0.11871104 0.10381404 0.021903334
0002a0 f8 b0 12 bd 85 d1 9c bd 4e 85 fa bc 81 1e 0d be
       -0.0358133 -0.0765715 -0.030581143 -0.13781168
0002b0 3f b1 cb bd 32 50 e4 bd e8 90 ae 3c a6 a6 b1 bd
       -0.099459164 -0.111481085 0.021309331 -0.08674364
0002c0 e5 81 ec bd 7e 7c 49 bc 2b 5c f4 bd 9f fa 8f bd
       -0.11548213 -0.012297748 -0.11931642 -0.07030224
0002d0 56 90 86 bc 0c 62 27 bd 7d d0 48 3d a0 ff 0b 3e
       -0.016426247 -0.04086499 0.049026955 0.13671732
0002e0 9c 71 c1 bd c9 ec dc bd b0 f1 8a bd 01 91 38 bd
       -0.094454974 -0.10787351 -0.067843795 -0.04506016
0002f0 a5 9d 8a 3a 3b dc f8 3d 7c 10 03 3e be 24 2f bd
       0.0010575546 0.12151381 0.12799257 -0.04275965
000300 e8 31 80 3d b9 eb 87 3d 33 01 25 3d 31 3b f9 bc
       0.06259519 0.066367574 0.040284347 -0.030423732
000310 63 a5 23 bd 4c fd 3e 3d 76 e7 03 bd 6f 1e 54 bc
       -0.039952647 0.04662828 -0.03220316 -0.012946709
000320 3c b9 0f be 7a 96 64 3d 10 2e ad 3d 65 34 24 3e
       -0.14035505 0.055807568 0.08456051 0.16035612
000330 66 96 08 be db 80 2c bd fe 42 07 be 98 a7 d0 3d
       -0.13338622 -0.042115074 -0.13209149 0.10188216
000340 c1 9d 05 3d 87 8c 41 bc 5a 1f 22 3e a0 59 ee 3d
       0.03262115 -0.0118132895 0.15832272 0.11638188
000350 59 da 38 3c 7c ed 77 3d 21 bf 3e bc 45 3b 04 bd
       0.011282527 0.060529217 -0.011642248 -0.032283086
000360 66 6d 8b bc bb 07 f6 bc 11 4a c3 bc c2 63 2a 3e
       -0.017019939 -0.030032983 -0.023839029 0.16639617
000370 f8 55 3b 3e 10 c3 1e 3e 6f 3f 0c 3e 1c a2 3c bb
       0.18294513 0.15504098 0.13696073 -0.0028783148
000380 38 2b 46 bd 5e 80 c1 bc 1a 48 15 be a6 50 ae 3d
       -0.04838106 -0.02362078 -0.14578286 0.08511476
000390 e5 e0 66 3d 48 e1 0d bd d6 79 a8 3d a5 c1 33 be
       0.05636682 -0.034638673 0.08226363 -0.17554338
0003a0 62 95 d3 bd f8 86 0e be 5c 53 1c 3d 3b 1b cb 3d
       -0.10331227 -0.13918674 0.038165435 0.09917303
0003b0 08 71 fe bd 23 93 c5 bd 67 33 c3 bd eb 1a 55 bd
       -0.12423903 -0.09647205 -0.095312886 -0.052027624
0003c0 e3 67 0b be 35 4b 98 3d 79 dc 99 3d b7 f7 dc bd
       -0.13613848 0.074362196 0.07512755 -0.10789435
0003d0 d8 33 6e bd 7e 9c b3 3d e2 3a 24 b9 ea 76 07 3e
       -0.05815491 0.08770083 -0.00015662194 0.13228956
0003e0 d9 ce 85 bc ff ba b0 3d 8f 8e 49 3e b8 b9 d3 3d
       -0.016333984 0.08629417 0.19683288 0.103381574
0003f0 ed 59 e4 bb 11 dd ce bc 93 48 71 bd 23 26 64 be
       -0.006968728 -0.025251897 -0.058907103 -0.22280173

sequential/conv2d_1/Conv2D f4 [32, 3, 3, 32]
000000 5c 7e 16 be 7c f8 f4 3b b9 74 de 3d bc 55 0a 3d
       -0.1469664 0.0074759107 0.10862107 0.03377317
000010 e2 e0 71 3d 5b 8a 0e be af 25 70 3d df dd f9 3c
       0.059052356 -0.13919966 0.058629688 0.030501304
000020 8c 82 29 be 64 c1 56 3e 0c be 59 3e 34 0a 35 3e
       -0.16553706 0.2097221 0.21263903 0.17679673
000030 69 dc 70 bd 41 c5 16 bd 3d 08 0e be ef ad c6 bd
       -0.05880395 -0.03680921 -0.1387033 -0.09701144
000040 47 05 c8 3d a1 29 29 3e 93 9a df 3d 5c 68 c4 3d
       0.097666316 0.16519786 0.109181546 0.095902175
000050 ca 6f 5f 3e 30 bd 14 3e 2f e5 88 bc a1 54 5f 3d
       0.21819988 0.14525294 -0.016710846 0.054524068
000060 ed 10 8b 3d ad 4a 8e bd 8b 6b cc 3c a6 e7 84 3d
       0.06790338 -0.06947837 0.024953624 0.06489496
000070 a8 6b 41 3d 0c 38 34 be bf 1a 0b 3e 2e 01 0c bd
       0.04722181 -0.17599505 0.13584422 -0.034180813
000080 57 21 d5 3d 59 9b 00 3c 8e 74 04 3e cd e8 0b 3e
       0.1040675 0.007849538 0.12935087 0.13663025
000090 06 56 49 3e 6e 64 31 3e 43 ee bd bc 4d 7d a9 bd
       0.19661722 0.17323467 -0.023184901 -0.08275852
0000a0 ab c2 9c bc a0 a3 80 bd d3 c6 0b bd ba c8 e1 bd
       -0.019135794 -0.06281209 -0.03412516 -0.11024614
0000b0 87 f7 ba 3d ff b0 7b 3d 66 30 e3 3d d0 7f f6 3d
       0.09129243 0.061448094 0.11093216 0.12036097
0000c0 87 4d 16 3e 18 80 1e 3e a5 70 42 3d e6 12 67 bd
       0.14678012 0.15478551 0.047470707 -0.056414507
0000d0 31 97 31 be 23 e5 f2 3d 95 9f 44 3b 4b 0f 63 3e
       -0.17342831 0.118601106 0.0030002345 0.22173803
0000e0 1d 33 6a 3c 49 41 b6 3c 57 7b 47 3e a4 ea 8f 3d
       0.014294413 0.022247927 0.19480644 0.07027176
0000f0 5e 39 5a 3c 60 11 10 3e 9f 58 89 bd e6 20 e5 bc
       0.0133193415 0.14069128 -0.06706356 -0.027969789
000100 37 9d 35 3e f3 92 13 3a 17 9e 25 be cf c3 18 bd
       0.17735754 0.0005629502 -0.16173588 -0.037296113
000110 02 42 15 be 95 57 20 be 52 6e 94 3c dd bb 87 bd
       -0.14575961 -0.1565841 0.018119011 -0.06627629
000120 32 52 53 be 9c a8 27 bc 59 6d 1f 3c c3 fa bc bd
       -0.20636824 -0.010233071 0.00973066 -0.092275165
000130 d8 b5 10 3e e5 dc c0 3c 94 4f 35 bd 82 4f 69 3e
       0.14131868 0.02354283 -0.044265345 0.22784236
000140 e7 04 d1 3d 52 4c ba 3d ff 01 55 3e 95 a0 dc bd
       0.10206013 0.09096588 0.20801543 -0.10772816
000150 30 0b c7 bd 22 44 b1 3d f6 b0 95 3c bb a9 04 3d
       -0.09718931 0.086555734 0.018272858 0.03238843
000160 47 34 8b 3d f3 ca e9 b8 c6 40 9c 3d 9b 72 25 be
       0.067970805 -0.00011148108 0.07629542 -0.16157
000170 f6 f2 1f be 4f 22 3f be ef 75 28 bd 3b ca ee bc
       -0.15620026 -0.18665431 -0.041128095 -0.029149165
000180 9a 24 20 3d 6e 6c 06 be 30 cf ca bd 7b db 63 3e
       0.039097406 -0.131273 -0.09902799 0.22251694
000190 3c e6 e6 3d 14 bd 44 bd 27 af 1e bd b5 85 11 be
       0.112743825 -0.04803188 -0.038741257 -0.14211161
0001a0 5c 1b 9c 3d 6d 01 84 3e d5 9b 16 be 19 72 e5 3d
       0.07622406 0.25782338 -0.14707883 0.11203403
0001b0 41 02 8b bd 00 28 60 3d 9b c9 bf 3c 59 d2 23 3e
       -0.06787539 0.054725647 0.023411563 0.1599821
0001c0 09 18 40 3e 1a 69 b8 3d 2d 76 b0 bd c7 8e 8b bd
       0.18759169 0.090044215 -0.0861629 -0.06814342
0001d0 48 47 67 bd a2 ce 09 bd 71 53 0b 3d 9b 74 39 3d
       -0.056464463 -0.033644326 0.034015123 0.04527722
0001e0 15 7f 07 3d a6 07 43 bc 0e a2 af 3d 0d 92 05 be
       0.03308018 -0.011903679 0.08575831 -0.13043995
0001f0 d8 62 9f 3d 31 61 fb 3c 05 a2 02 be 2e 9d f7 bd
       0.07782525 0.030685993 -0.12757118 -0.120905265
000200 fd fe 4b 3e ea 23 99 bc 71 a3 87 3e df 6e fd 3b
       0.19921489 -0.018693883 0.26491883 0.007734164
000210 8f 35 05 be a3 ef 30 3e b2 db 82 bd cf 88 33 3e
       -0.13008712 0.17278914 -0.0638956 0.17532657
000220 71 c3 87 3e 88 40 11 bd ad 08 4e 3d 57 93 63 be
       0.26516297 -0.035461932 0.050301243 -0.22224174
000230 ce 28 40 bd f5 0b 27 3c 04 a0 9f 3d b0 33 ae 3d
       -0.046913914 0.010195722 0.077941924 0.08505952
000240 48 9e e5 bc 42 b5 37 be 2d 5b 11 3d b3 54 91 3d
       -0.028029576 -0.17940238 0.035487343 0.07096233
000250 49 22 ae bd dd b3 26 be 12 d7 a1 3d a3 55 9f 3d
       -0.08502633 -0.1627955 0.079023495 0.07780006
000260 79 3d 14 bd a0 cb 19 3e 67 61 3c 3d d6 63 d0 3c
       -0.036191437 0.15019083 0.045991328 0.02543823
000270 f5 be fe bd eb c9 0d 3e 53 26 c6 bd 7b fd 3d 3d
       -0.12438766 0.13846557 -0.096752785 0.046384316
000280 42 be 01 3e 30 3e c4 bd de 40 1a be 8f c4 b9 3d
       0.12670234 -0.09582174 -0.15063807 0.09070694
000290 30 f1 9e 3c b9 e2 d3 bd c5 88 61 3b 47 4a 01 be
       0.019402117 -0.10345978 0.0034413796 -0.12625991
0002a0 24 61 89 bd 4c 1f 21 3e d5 89 aa 3d d8 34 bf 3d
       -0.06707981 0.15734595 0.083270706 0.09336251
0002b0 c0 76 99 bd 05 33 cf bb dc bf f6 3c 13 8d 8e bd
       -0.07493353 -0.0063232207 0.030120783 -0.069605015
0002c0 4c 9e 16 be 63 64 c7 3d 9f 15 12 be 62 47 36 3c
       -0.14708823 0.09735944 -0.1426606 0.011125417
0002d0 15 48 14 3d 40 22 47 3d d1 5c 7c 3d b3 57 5a be
       0.036201555 0.048616648 0.061611954 -0.21322517
0002e0 4d ae 97 bd b2 b6 96 bc 20 bd b8 bd 49 a7 12 be
       -0.07406292 -0.018397663 -0.09020448 -0.14321627
0002f0 3f 2a 78 3d 4b b4 8f be a8 e0 b3 bd 05 cf a4 3d
       0.060587164 -0.2806724 -0.08783084 0.08047298
000300 7f 7b 28 bd 90 6b 64 3d ed c2 ef bd 4f 33 37 be
       -0.0411334 0.055766642 -0.11707101 -0.17890666
000310 43 6b 82 bd 93 cc 87 bd 06 81 76 3d 3c 53 e7 bd
       -0.06368115 -0.06630816 0.06018164 -0.112951726
000320 45 25 0a be 0a 3a 59 3d ba ef 4d bc 4e 93 84 3d
       -0.1349078 0.053033866 -0.012569362 0.06473409
000330 0e 3d d0 3c 5b 5d e8 bc 97 55 27 bd 64 54 10 3c
       0.025419738 -0.028364828 -0.04085311 0.008809183
000340 96 d2 6d bd 74 7b b5 3d 62 ff 37 be b1 9a 2b 3e
       -0.05806216 0.088614374 -0.17968515 0.16758229
000350 68 f5 19 3d 9b e4 d4 bd 85 01 13 3d 05 e3 67 bd
       0.037587553 -0.103951655 0.03589012 -0.056612987
000360 ba 84 05 bc 8b b1 39 be 42 5b 0e bc da 91 08 3e
       -0.00814932 -0.18134134 -0.00868875 0.13336888
000370 85 be ca 3d a8 73 08 3d ef b0 c7 3d d9 05 26 be
       0.0989962 0.033313423 0.09750544 -0.16213168
000380 d7 8a 87 3b 5d d9 eb 3d 1b 86 f4 3d d4 63 ca bd
       0.004136424 0.11516068 0.11939641 -0.09882322
000390 b0 0d f8 bd b9 c5 fd 3c 2b 7a d5 3d cb f1 2e bd
       -0.12111986 0.03097807 0.10423692 -0.04271106
0003a0 db 0e 5e 3e db f1 2b bd 78 82 3c 3d 18 b4 90 3a
       0.21685354 -0.0419787 0.046022862 0.001104
0003b0 07 ad a2 3c a2 7c 6f bd 49 20 a0 bb 1c 0f f8 bd
       0.019857896 -0.05846847 -0.004886661 -0.12112257
0003c0 12 bc 3b 3e c6 08 02 be 28 28 19 bd 7f 99 f1 bd
       0.18333462 -0.1269866 -0.03739181 -0.11796855
0003d0 11 e1 7c be b8 19 f8 3d cb b0 92 bd 2e 11 c3 bd
       -0.24695231 0.121142805 -0.07162627 -0.09524761
0003e0 b7 dc 0d 3d ae 7b 5a 3c a3 cc 9c 3a be 44 a9 bd
       0.03463432 0.013335152 0.0011962842 -0.08265065
0003f0 7a a4 66 bc fa 45 0c 3d ab 6a 0b be 59 90 df 3d
       -0.0140773 0.034246422 -0.1361491 0.10916204

sequential/conv2d_2/Conv2D f4 [64, 3, 3, 32]
000000 bc cd 8e 3c cb 08 03 3e 49 93 cb 3d eb 8c 8d 3d
       0.017432086 0.12796323 0.09940202 0.069116436
000010 e5 4c d5 bb df ab 9d bd d5 aa c3 3d 94 61 6f bd
       -0.0065094107 -0.076987974 0.09554068 -0.058442667
000020 46 08 c6 3d 2d 86 f9 3d 9c b3 6c bc 4f 9d 2d 3e
       0.09669547 0.12183795 -0.014447119 0.1695454
000030 2a d4 ea bd bf 2b a8 bd 23 a3 3d bd 62 f9 0f 3e
       -0.11466248 -0.08211469 -0.046298157 0.14059976
000040 1b 9e ca bc 22 77 aa 3d d6 c2 be 3d 09 84 02 bd
       -0.024733594 0.08323504 0.09314506 -0.0318642
000050 61 b9 10 be 54 64 46 3d cc bc 48 bd 44 f6 01 be
       -0.14133216 0.048435524 -0.049008176 -0.12691599
000060 8e c6 c4 bb 4c c1 d3 3d 0c c4 fa bc a9 4f 0e 3d
       -0.006005115 0.10339603 -0.03061106 0.03474394
000070 61 73 5d 3d b4 2f 1e be 53 35 15 3e ef b7 12 be
       0.054065112 -0.15447885 0.14571123 -0.14327978
000080 80 b4 b1 bc 53 a7 20 be b5 e9 11 bc 12 b5 34 3d
       -0.021692514 -0.15688829 -0.008905818 0.044117995
000090 38 a6 ec bd da b1 fe 3b e6 66 b7 3d a6 69 e6 bc
       -0.11555141 0.0077726664 0.08955173 -0.028126549
0000a0 c2 68 4c be b0 61 38 3e 61 c3 85 3d a1 6e df bb
       -0.19961837 0.18006015 0.06531406 -0.006818608
0000b0 77 6a 05 3e 7c 6d 2a 3c 33 74 3a be 45 a3 ee 3c
       0.13028894 0.01040208 -0.18208389 0.029130587
0000c0 54 b2 b7 bd 17 6b d8 3d a8 85 40 3e 0b 41 27 be
       -0.0896956 0.10567301 0.18800986 -0.16333406
0000d0 f4 90 0c 3e 81 3b 3d 3e 93 c7 98 bb 2c a2 a0 3d
       0.1372717 0.1847973 -0.004662463 0.07843432
0000e0 81 9e c4 3d f5 e7 83 3d 73 ce 0f 3d b5 df 8b 3e
       0.09600545 0.06440727 0.035108995 0.27319112
0000f0 ce 35 d2 bd a2 a7 80 3d 22 dc 29 be ad ab 30 3d
       -0.10264169 0.062819734 -0.1658788 0.043132473
000100 68 95 ab bd fe f9 b5 3c 02 03 53 3c 68 0e b0 3c
       -0.08378106 0.022213932 0.012879135 0.021491244
000110 c9 72 05 3e fd 41 31 3e 35 a9 5e bd 2c 14 99 3d
       0.13032068 0.17310329 -0.054360587 0.074745506
000120 54 64 1d be b3 df b9 bd b7 ec 68 3d 3c 9b d1 bd
       -0.15370303 -0.0907587 0.056866374 -0.10234687
000130 8a 7a cd bd 2a 82 8e bb ee 3c a5 be d1 a8 53 be
       -0.10033138 -0.004349013 -0.32273048 -0.20669867
000140 73 a4 ce bd d5 bd c6 3d c9 9b 93 bc a4 46 d0 3b
       -0.1008996 0.09704176 -0.01801862 0.0063560773
000150 87 10 f8 3d 76 df a4 bc a7 c5 9f bd ca c9 58 3d
       0.12112527 -0.020126086 -0.07801371 0.052926816
000160 4b c1 88 3d 26 11 0e be b3 62 2a 3c a0 b8 ac bc
       0.06677493 -0.13873729 0.010399508 -0.02108413
000170 40 ce 39 3e 25 82 09 3e 69 a9 9a bd 56 51 35 3e
       0.18145084 0.13428552 -0.07551844 0.17706808
000180 1b c9 f3 3d 17 7b de bb 16 e5 15 3e f3 56 36 be
       0.11903592 -0.006789576 0.1463817 -0.17806606
000190 96 02 c7 bd 0f cb fe bd 6d d7 58 bd 00 df ef bd
       -0.0971729 -0.12441074 -0.05293982 -0.11712456
0001a0 2e d3 5d 3e f1 18 f2 bc c9 19 fa bd 39 7d 69 3d
       0.2166259 -0.029552909 -0.122119494 0.057004187
0001b0 53 81 b7 3b 02 23 4c 3b 2e 82 4a bd 98 60 a7 bc
       0.0056001334 0.0031148796 -0.049440555 -0.020431802
0001c0 b2 9d 7b ba 8e b8 03 be be 48 d2 3b 4d 87 9e 3d
       -0.00095983886 -0.12863371 0.006417363 0.0774065
0001d0 e8 5c cf 3d 36 80 6e be 24 d7 e8 3d 2a b7 01 3e
       0.10125142 -0.23291096 0.1136916 0.12667528
0001e0 05 82 81 3a a2 3a 57 bd 70 e9 46 be a0 78 20 be
       0.0009880668 -0.05254615 -0.19424987 -0.15671015
0001f0 0a ab cd 3c e6 37 0d 3d 04 91 4b bd 28 1d ab 3d
       0.025105972 0.034477137 -0.049698845 0.083551705
000200 67 19 6a bd f9 b6 94 3d 17 72 b4 bb 36 b7 f4 3d
       -0.05715313 0.07261462 -0.0055067646 0.11949007
000210 ef 11 4c 3e ac 73 dd bd b2 83 ad 3d 20 31 34 3e
       0.19928716 -0.10813078 0.084723845 0.17596865
000220 b9 f3 2c be 35 7b 02 bd cf 94 bd bd 81 de be bd
       -0.16889848 -0.03185578 -0.092568986 -0.09319783
000230 c3 e3 b4 bd 91 20 85 bc c3 3d 43 be c3 f2 0e 3e
       -0.088325046 -0.01625088 -0.19066529 0.13959794
000240 db bb 90 3d 1c 7a b4 bc 92 c0 10 3e 10 3d 85 3d
       0.070670806 -0.022030883 0.1413596 0.065057874
000250 c3 be 26 bc c0 bf d0 bd f0 05 3f 3c ce 6b f1 3d
       -0.010177317 -0.101928234 0.01165913 0.1178814
000260 a8 41 5c bb 6a bc 05 be 90 7a ab 3d bb 9f 30 3e
       -0.003360847 -0.13060156 0.08372986 0.17248432
000270 c2 16 fd bd dc 34 9f bc aa a1 c0 bd f7 af 58 3c
       -0.12357856 -0.019434385 -0.09405835 0.013225547
000280 a1 8e 9a bd 59 19 0b 3e 48 51 17 bd de 57 4e bd
       -0.075467356 0.13583888 -0.03694275 -0.050376765
000290 f4 81 cf 3d 67 74 3e 3d a8 74 23 bd e7 29 40 be
       0.101322085 0.04649773 -0.039906174 -0.18765984
0002a0 ba 37 60 3d 76 e5 3e be 54 16 e7 3d ae 45 c3 3b
       0.054740645 -0.1864222 0.112835556 0.005959234
0002b0 1e 88 49 bc fd a1 b9 bc 44 73 e8 bd 3f 18 57 3d
       -0.012300519 -0.02266025 -0.1135011 0.052513357
0002c0 5a 3e 4a 3d 75 5a 3d 3e d9 e9 4f bd 3a 0f 83 be
       0.04937587 0.18491538 -0.050760124 -0.25597554
0002d0 5f 6d 8f 3d 83 ac 60 3c 8b f4 e7 3d 4f d5 c4 3d
       0.07003283 0.013713005 0.1132594 0.09610998
0002e0 aa 2c e5 3d 45 0b f2 3d 35 39 3b be b0 b4 64 be
       0.111901596 0.11818556 -0.18283542 -0.22334552
0002f0 36 73 07 3e 2f dc 8c 3d da 00 10 3b 66 e0 2e 3e
       0.13227543 0.06877934 0.0021973164 0.17077789
000300 36 17 36 3c 11 ca 38 3d 84 fb 21 ba d1 7b 54 be
       0.011113932 0.04511458 -0.00061791413 -0.20750357
000310 46 49 26 be 7b 6a 49 3c d7 a1 5a be 53 32 5b be
       -0.16238889 0.012293453 -0.213508 -0.21405916
000320 11 cd 26 3d c9 e9 bc 3d 54 dd fb 3d 17 ce 0e 3e
       0.04072291 0.092242785 0.12298074 0.13945805
000330 a8 eb 05 3d 47 d8 15 be 99 e0 92 3c fa e3 1b be
       0.032695442 -0.14633285 0.017929362 -0.15223685
000340 09 df 32 3d fc ef 4c 3b be b9 87 3d f3 78 bf bd
       0.043669734 0.0031270972 0.066272244 -0.09349241
000350 21 f3 fa bd ec e2 21 be 3b 62 e9 3d 89 45 b5 bd
       -0.122534044 -0.1580922 0.11395689 -0.088511534
000360 54 38 bc 3d 80 47 eb bd 5a ce 47 be bb 03 b2 bd
       0.09190431 -0.11488247 -0.1951231 -0.08692118
000370 58 18 3a be 68 39 da 3b b2 62 c5 3d fa f1 78 bd
       -0.18173349 0.0066596754 0.09637965 -0.06077764
000380 46 3d 11 be a9 2e 42 be a7 17 01 bd 71 e7 2e bd
       -0.1418353 -0.18963112 -0.031516697 -0.04270119
000390 b4 1a 22 3e 82 84 1d bd fb fc 39 bd 14 5a 13 3d
       0.15830499 -0.038456447 -0.045407277 0.035974577
0003a0 52 7c 3b bd a4 13 52 bd b6 cf 0c be d4 a1 e2 3c
       -0.045772858 -0.051288262 -0.1375111 0.027665056
0003b0 0c f7 7c bc 87 6b d0 3d 84 b7 ec 3c 3e e4 0f 3e
       -0.01543976 0.10176759 0.0288961 0.14051911
0003c0 15 a7 fa 3d e1 f5 01 3d e4 54 29 3d bf 14 1b be
       0.122388996 0.03172863 0.041340724 -0.15144633
0003d0 26 8a cb 3d c0 74 87 3c 69 bc c9 3d 49 37 f9 bc
       0.09938459 0.016535163 0.098503895 -0.03042187
0003e0 7f 5f 38 bd fa d8 ee bc 00 91 3a be cb 6d 50 bd
       -0.045012947 -0.029156197 -0.18219376 -0.050885957
0003f0 a5 24 11 be 28 4f 56 3a 39 fb e4 bb 4c 1f e6 3d
       -0.14174135 0.00081752473 -0.006987956 0.11236438

sequential/dense/BiasAdd/ReadVariableOp f4 [64]
000000 b0 c5 c4 bb 06 06 33 bc 0c ea a8 3c f3 8e 26 bc
       -0.0060050115 -0.010926729 0.020619415 -0.010165918
000010 1b 44 22 3b 10 20 f3 bb d1 9a 1f bc a3 b2 24 3b
       0.0024759832 -0.0074195936 -0.009741501 0.002513089
000020 1d 8a 06 bc ed 9f 0e bc ce a4 f6 bb 79 c6 c4 bb
       -0.00821164 -0.008705121 -0.0075269705 -0.006005105
000030 d6 45 05 bc 32 bb d3 bc 6d 0f f3 bb fc 7c a2 bb
       -0.008134326 -0.025846098 -0.0074176104 -0.004958747
000040 d0 b6 1a bc 66 1b 5d 3c ca 62 c7 bc b6 4c 3e bb
       -0.009443 0.013495302 -0.024339098 -0.0029037423
000050 75 58 8f bc a2 21 95 b9 20 80 b9 3c e7 bf cb bb
       -0.017498234 -0.00028444553 0.022644103 -0.006217945
000060 05 5c 34 bc 96 96 59 bc ba 4a a2 3c e4 99 b1 bb
       -0.011008267 -0.013280531 0.019811023 -0.0054199565
000070 58 10 e9 bc 62 ed de 3c d5 97 89 3c 36 c4 8d 3c
       -0.028450176 0.027212802 0.016796032 0.017305475
000080 b0 a7 f7 bb 83 06 cd bb 92 5b 9d bc 1d 9f ef bb
       -0.0075578317 -0.00625688 -0.019208703 -0.007312669
000090 12 08 e0 bb f5 e0 27 3a 51 da 80 bc 29 15 92 bb
       -0.0068368996 0.00064040656 -0.015729101 -0.004458089
0000a0 65 a8 24 bc 42 8c c7 3c 32 bc 0a bc ac 36 1a bd
       -0.010049914 0.024358872 -0.008467721 -0.037649795
0000b0 c0 91 a0 bb 38 2d 32 bc 84 6e 19 bc d7 73 11 bc
       -0.0049001873 -0.010875039 -0.009364728 -0.008877716
0000c0 a1 ff 1e bb 8a c4 c4 bb b4 5c c9 ba b8 32 d6 3a
       -0.0024261253 -0.0060048746 -0.0015362711 0.001634202
0000d0 16 e7 0e bd 6b 64 da bb af c7 c4 bb 09 ae 0c 3d
       -0.03488835 -0.006664803 -0.0060052495 0.03434566
0000e0 2c e5 37 3c 3e 01 85 3c ec 3c d3 bb 84 cd af 3c
       0.011224072 0.016235944 -0.0064464714 0.021460302
0000f0 c0 c7 85 bc b1 96 30 bc f9 26 d1 bc 8a d0 59 bc
       -0.0163306 -0.010778115 -0.025531279 -0.0132943485

sequential/dense_1/BiasAdd/ReadVariableOp f4 [2]
000000 4a 2e 9d bd 49 2e 9d 3d
       -0.076748446 0.07674844

sequential/dense/MatMul f4 [64, 2304]
000000 fb 21 64 bb a9 c3 5a bd f7 54 79 bc 5a ae 14 3d
       -0.0034810293 -0.053409252 -0.015218011 0.036299087
000010 d6 3e 71 3c ec 79 15 bd 50 82 89 bb b8 28 24 bd
       0.014724454 -0.036493227 -0.0041964427 -0.040077895
000020 2f 4a 3d bd 36 49 dd bc b6 13 a5 3c 0d 47 27 3d
       -0.046213325 -0.027012449 0.020151 0.040839244
000030 59 26 3a 3c d9 2f 14 bd 1f de b6 3c 77 f2 02 bd
       0.011361682 -0.036178444 0.022322712 -0.031969514
000040 64 d5 66 bc 50 00 9a bb a0 4e bf bc 07 b4 99 bc
       -0.014088962 -0.0046997443 -0.023352921 -0.018762602
000050 69 ee eb ba 29 1c 27 3c c2 b2 02 3d 57 6f 80 3c
       -0.0018000129 0.010199585 0.031908758 0.015678091
000060 20 6c 12 3c 9d 69 2d bc 2e 83 20 bd 7a 86 2a bd
       0.008936912 -0.010584262 -0.039187603 -0.041632153
000070 93 f5 95 3c 94 64 88 bc 8a e0 49 3d 5f a9 f6 3c
       0.018305575 -0.016649522 0.049286403 0.03011006
000080 1a e0 40 3c af 15 23 3c cb 8e 53 bd 50 1f c9 bb
       0.01177218 0.0099539 -0.05164985 -0.006137766
000090 16 90 e3 3c 42 43 07 3d 18 41 1f 3d 17 86 be bb
       0.027778666 0.033023126 0.038880438 -0.0058143246
0000a0 1e 0a d1 3c f8 3e 31 3d dd 8f 55 3c ef a7 b0 3a
       0.02551752 0.043272942 0.013034788 0.0013477782
0000b0 96 3a 41 bd f4 08 b7 3b d5 26 0d bd 22 0a 37 bd
       -0.047175013 0.005585784 -0.03446086 -0.044687398
0000c0 5b a4 35 3d 30 20 53 bd d6 a6 1a bd 05 7c 2f 3d
       0.044346195 -0.05154437 -0.037756763 0.042842884
0000d0 42 8a 2c bd 5a 2e 1a 3d 6f 35 30 3d 56 c9 26 3d
       -0.04212404 0.03764186 0.04301971 0.040719353
0000e0 c5 e3 4a bc ab 33 3b 3b 78 a4 18 bc a4 e0 4e bd
       -0.012383406 0.0028564732 -0.009316556 -0.050507203
0000f0 ef 00 1c 3d 75 61 a8 bb e6 86 dc 3c c2 f9 82 3c
       0.038086828 -0.005138571 0.026919793 0.015988234
000100 1e 20 f4 3c d0 5d 60 bd 5d 0e 15 3d 0b a6 47 3c
       0.02980047 -0.054776967 0.03639065 0.012185584
000110 49 ec e0 bc e8 5c 20 bd ad ef 19 3c f8 08 0e bc
       -0.02745642 -0.039151102 0.009395522 -0.0086691305
000120 00 3a 5b 3b 77 32 55 bc 4e 8e 3c 3d 38 01 9b bb
       0.0033451319 -0.01301252 0.04603415 -0.00473037
000130 22 61 4a bd bc e6 4a bd 32 d6 91 3c 7f c8 74 bc
       -0.04940904 -0.04953645 0.017802332 -0.01494038
000140 6d 8e 10 bd 8a 28 2f bd 18 fe ef 3c ed 1d 03 3d
       -0.035292078 -0.04276327 0.029295966 0.03201096
000150 13 46 31 bd 57 6e b1 bb 15 d8 16 bd 42 55 0f bd
       -0.04327972 -0.005414765 -0.036827166 -0.034993418
000160 01 8e 0f 3d 06 dd f9 3c 0e 44 09 bd b1 26 8c 3a
       0.035047535 0.0305009 -0.033512168 0.0010692683
000170 ee 73 2a 3d 1c 77 01 3c 04 ad 67 bc 4d 79 8e 3c
       0.041614465 0.007901933 -0.014140371 0.017391825
000180 4d 04 08 3d a1 3c ce bc a7 0e 53 bd b0 06 5f 3b
       0.033207227 -0.025175394 -0.051527645 0.0034031086
000190 01 12 a4 ba 34 46 8a 3c c8 29 a1 3b dc a6 e0 3c
       -0.0012517573 0.016879179 0.004918311 0.027423315
0001a0 b2 c3 dd bb 6d ab 66 3c cf 49 89 bc 6d da e5 3c
       -0.0067677135 0.014078957 -0.016758827 0.028058255
0001b0 4b 0b 36 bd 67 fd c6 3c 86 d2 a0 3c 26 55 78 3c
       -0.044444364 0.024290754 0.019631635 0.01515702
0001c0 8b 3b 1b 3d 3e 5d b5 3b d6 3c 48 3d 2a d0 7a 3a
       0.03789858 0.005534797 0.048886143 0.0009567762
0001d0 ca e1 27 3c 75 f1 42 bd d8 15 02 3d c0 50 05 3d
       0.010246703 -0.047593553 0.031759113 0.032547712
0001e0 4a 2f 30 bd 99 d7 15 3d 86 74 36 bc a1 ec 2c bd
       -0.04301385 0.036582563 -0.01113618 -0.042217854
0001f0 94 39 a3 bc 87 a4 ae 3c 8c 76 d7 bb 7c 96 9b ba
       -0.019924916 0.021318687 -0.006575411 -0.0011870409
000200 24 b7 21 3c 68 64 99 3c 0c 00 05 bd 78 e6 51 bc
       0.009870324 0.018724635 -0.032470748 -0.012811296
000210 67 95 33 3c 01 4b 0a 3d 94 69 f2 3c c0 ef 47 bb
       0.010960913 0.033762936 0.02959136 -0.0030507892
000220 84 b7 7d bc ff 1a 87 3c 80 64 c8 bc 69 10 86 3b
       -0.015485648 0.016492365 -0.024461985 0.0040913117
000230 6a 62 82 bc 64 35 a0 bc ad dc dd bc 08 25 72 3c
       -0.015916068 -0.019556709 -0.027082765 0.014779337
000240 60 40 35 3d b0 fd b8 3b 93 56 0d bd cb b6 11 3d
       0.044250846 0.0056454763 -0.03450639 0.035574716
000250 f2 43 28 bc 13 a6 1e 3d 14 4a 1e 3d 26 9e 46 3d
       -0.010270106 0.0387326 0.038644865 0.048490666
000260 70 8d ca bb 17 a7 a6 3b 32 f6 b6 bc d4 8f 04 bd
       -0.0061814114 0.0050858366 -0.022334192 -0.032363728
000270 cd 93 3c bd a8 9c 30 bd 70 66 f8 3c 92 44 b1 bc
       -0.04603939 -0.04311815 0.030322284 -0.021639142
000280 b7 82 25 bd 52 c6 45 3d 1f f8 fb bc ec b1 ae bc
       -0.040407863 0.048284836 -0.030757962 -0.021325074
000290 52 0c 9a 3c cd 13 a8 3c 02 23 09 3d a2 a0 a7 bc
       0.018804703 0.020517254 0.03348065 -0.020462338
0002a0 4d c6 19 bd 69 bc 13 3d 17 aa 47 bd 91 fc b5 3c
       -0.03754263 0.036068354 -0.048746195 0.02221516
0002b0 fc df f1 bc f9 b8 e0 3c 00 23 0d bd b8 7e ee 3c
       -0.02952575 0.027431952 -0.034457207 0.029113159
0002c0 b0 3b fc 3c 93 2d 2f 3d 78 69 d9 3c 28 55 d1 3b
       0.03079018 0.042768072 0.02653955 0.0063883252
0002d0 f4 01 8b bc e2 b5 5d bd 23 24 8d 3c a2 8d 0a 3d
       -0.016968705 -0.054128535 0.017229145 0.033826478
0002e0 6a f0 dc 3c c1 f5 59 bc ca 04 60 3d 11 52 99 3c
       0.026970107 -0.013303221 0.054692067 0.01871589
0002f0 b3 61 a7 bc c4 88 71 ba af f4 44 bd 47 82 e2 3c
       -0.020432329 -0.00092138 -0.04808491 0.027650012
000300 de 66 24 bd 00 f0 37 bd b3 11 e3 b9 80 fb 90 39
       -0.040137164 -0.044906616 -0.0004331 0.00027653202
000310 bb 92 b0 bc 59 8a fe bc 2c 46 8b 3c a6 25 18 bd
       -0.021554342 -0.031071829 0.017001234 -0.03714528
000320 e8 ae 8d 3b b9 a6 d7 bb aa 4d 97 bc a4 82 4a bd
       0.004323829 -0.006581154 -0.01846965 -0.049440995
000330 e6 b4 1c bc 8f fc 1c bd 76 68 2c bd 3c c5 c3 3c
       -0.009564614 -0.038326796 -0.04209181 0.02389776
000340 08 c8 30 bd e4 df 8f 3c 4d 52 de 3b aa 1c 8e 3c
       -0.043159515 0.017562814 0.0067847134 0.017347652
000350 ac 6b ea 3c 19 b8 22 3d 28 f1 25 3c 04 74 df 3c
       0.028615795 0.03972635 0.010128297 0.027277
000360 91 7c 05 bd ea 75 5e bd f1 2d 06 bd f4 a7 ca bb
       -0.0325895 -0.05431167 -0.032758657 -0.0061845724
000370 8b ab ff 3c f9 65 75 3c a6 65 31 bd 82 cc 06 3d
       0.031209728 0.014977925 -0.04330983 0.032909878
000380 52 70 73 3b a0 ce be 3b 90 b8 bb ba 35 56 42 bd
       0.0037145806 0.0058229715 -0.0014321972 -0.047445495
000390 9d 62 8e ba 50 57 38 bc bb e6 f9 bc ac d8 a9 bc
       -0.0010863129 -0.011251286 -0.030505529 -0.0207332
0003a0 31 eb 32 3d ad 1d 8a 3c 05 f9 1a 3d 7f 68 50 bd
       0.043681327 0.016859854 0.03783514 -0.050880905
0003b0 8e 46 27 3d 0d fd 12 3d a3 3b c6 bc 7e 59 ee bc
       0.04083877 0.03588586 -0.024198359 -0.029095408
0003c0 78 e9 8b bc 52 0f 98 3c 7e eb 1a 3d cd 46 e2 bc
       -0.0170791 0.018561993 0.03782224 -0.027621651
0003d0 76 22 ff 3c 1b 06 48 bd 3d 23 04 3d 6a 22 22 3d
       0.031144362 -0.048833948 0.03226017 0.0395836
0003e0 0c 0a 30 3d 30 40 32 3c 31 ea 56 bb f6 4f 52 bd
       0.04297833 0.010879561 -0.0032793398 -0.051345788
0003f0 a8 d3 7a 3c 2f cc e7 3c 7d 33 e3 3c 7f 98 df bc
       0.015309252 0.028295605 0.027734512 -0.027294395

sequential/dense_1/MatMul f4 [2, 64]
000000 fc 03 7c be 83 64 3d bd 07 f2 b2 be f7 a4 88 3e
       -0.24610895 -0.046238434 -0.34950277 0.26688358
000010 3b 13 33 3e 51 57 01 bd 92 5c 18 3d 3b 49 c2 3e
       0.17487805 -0.031577412 0.037197657 0.37946495
000020 94 ae 9b bc fc f9 66 bd 62 1e 93 3d 3a a3 08 be
       -0.019004144 -0.056390747 0.071835294 -0.13343516
000030 7a c1 b7 3d c1 33 32 be 5f 91 85 3e d8 3a 3d 3e
       0.089724496 -0.17402555 0.26087472 0.18479478
000040 0b 43 d3 3c be 88 aa be f2 33 89 be ba 11 b5 3d
       0.025788805 -0.3330745 -0.26797444 0.08841272
000050 f0 f8 65 3e f5 a9 b8 3e 3b 8e 5a 3c d5 62 32 3c
       0.22458243 0.36067167 0.013339574 0.010887821
000060 8f ff 69 be 82 8d 1f be 1a 8c af be b3 90 f7 3d
       -0.22851394 -0.15581325 -0.34286577 0.12088146
000070 48 e3 21 3d 85 f0 48 be b5 15 8e bd 02 9e ed 3d
       0.039523393 -0.19623001 -0.06937734 0.11602403
000080 7a 7e 5d 3e e3 97 4a 3d c5 dd 12 be d9 fd 6c bd
       0.21630278 0.049461257 -0.14342411 -0.057859275
000090 e2 0d 25 3d 38 ea cf 3e 8b 62 7d be 3d 14 17 3d
       0.040296443 0.40608382 -0.24744622 0.036884535
0000a0 e4 aa 64 be e0 16 32 bc dd 03 67 3d e1 64 6e 3e
       -0.22330815 -0.010869712 0.05640017 0.2328067
0000b0 56 5c 8a be 36 10 03 bb 7c 30 0f be c6 ae 72 3c
       -0.27023572 -0.0019998676 -0.13983339 0.014812177
0000c0 26 bf 1d 3e 30 c9 26 be de 5f 2f 3e 60 84 be 3e
       0.15404949 -0.16287684 0.17126414 0.3721037
0000d0 ce 74 a8 bc 4b 01 8c 3e 03 58 8b be 2d ec 3f be
       -0.02056351 0.27344736 -0.27215585 -0.18742438
0000e0 1f 37 46 3b ed bf b9 be c5 e8 b3 bb b7 f7 a9 bd
       0.0030245257 -0.3627924 -0.005490395 -0.08299201
0000f0 40 1a 29 3e 05 da b0 3e b9 19 10 bd 17 c0 34 3e
       0.1651392 0.34541336 -0.03518078 0.17651401
000100 b1 2d 33 3e 76 c4 8b bd 81 34 ac 3d 96 c9 bf be
       0.17497899 -0.06824581 0.08408452 -0.37458485
000110 26 a1 c5 be 42 ce c2 be d2 53 7f bd 93 8e 3f be
       -0.3859951 -0.38047987 -0.062335797 -0.18706731
000120 5d 05 b4 bd 27 ff 7d be bc 07 0e 3e 56 fa 0d 3e
       -0.087900855 -0.24804364 0.13870138 0.13865027
000130 51 7a 42 bd 25 14 75 3e b8 f8 0a 3e 76 d8 04 be
       -0.04747993 0.23933466 0.13571441 -0.12973198
000140 b2 24 83 be 4a 56 0f 3e 89 2a 81 3e a1 e4 19 3e
       -0.25613934 0.1399776 0.25227764 0.15028621
000150 09 40 7d be fa 43 88 bc 8b e4 7a 3e ec 11 91 be
       -0.24731459 -0.016633976 0.24501245 -0.28333986
000160 68 99 07 be fe e0 72 be ad a2 57 3e bb 21 fe bd
       -0.13242114 -0.2371864 0.2105815 -0.12408777
000170 f6 c9 28 be d6 34 ec 3d aa bf 92 3e a1 34 d5 3e
       -0.16483292 0.11533515 0.28661853 0.41641715
000180 42 08 88 bd 24 75 94 bd a4 70 84 be cd 1c 1a be
       -0.066422 -0.07248905 -0.25867188 -0.15050049
000190 9d 11 79 3e 4b 85 9d be 4b d4 8b be da 2a 2e 3c
       0.24323125 -0.30765757 -0.27310404 0.010630334
0001a0 b6 05 60 be 02 2f c4 3e 68 7e 4c 3c 5b e7 85 bb
       -0.21877179 0.38317114 0.0124813095 -0.0040864176
0001b0 21 a3 b7 3d 65 43 73 be bf 6c 91 be f7 7f 02 3d
       0.08966661 -0.23756178 -0.2840328 0.031860318
0001c0 56 ff c3 3d 83 0d a7 3d a9 41 9f be a5 48 8e be
       0.09570186 0.08156874 -0.31104782 -0.27789798
0001d0 f6 a7 2b be 43 80 42 bd 95 44 7a 3e 6c bd 94 3d
       -0.16763291 -0.0474856 0.24440224 0.07262692
0001e0 ac 84 b2 3e 3b 63 0e 3e 29 53 d0 be ae 0c b6 3e
       0.34866846 0.13905041 -0.40688446 0.3555655
0001f0 37 be 10 3e cf c6 a5 3d 20 d4 1d bd 77 86 51 be
       0.14135061 0.0809456 -0.038532376 -0.2046145
