app/src/main/ml/breast_cancer_disease.tflite (tflite, 21696 bytes, 5 tensors)

sequential_2/dense_8/MatMul;sequential_2/dense_8/BiasAdd f4 [2]
00000000: 5ab8 a440 8459 a4c0
5.147504 -5.135927

sequential_2/dense_6/BiasAdd/ReadVariableOp f4 [64]
00000000: bc1c 9abf 9f35 afbe 0000 0000 bb91 a1bd
00000010: a019 953e 0000 0000 0696 803e 0000 0000
00000020: 0000 0000 0000 0000 a381 d1be d587 cabf
00000030: 0000 0000 0000 0000 0000 0000 8a10 293a
00000040: 0000 0000 0000 0000 0000 0000 0000 0000
00000050: 0000 0000 0000 0000 5ff7 75bd c32d 00be
00000060: 0000 0000 82fc a638 0000 0000 0000 0000
00000070: 0000 0000 ebb8 063e 0e80 f43d d4bd 59bf
00000080: 0000 0000 c079 0bbf 0000 0000 0000 0000
00000090: 73c6 75bd 0000 0000 0000 0000 0000 0000
000000a0: 3ac5 cbbe 3c2d 4ebe f30e 98bd 62bb 42be
000000b0: 0000 0000 0000 0000 0000 0000 0000 0000
000000c0: 0000 0000 dd91 52bd 2c94 04be 0000 0000
000000d0: 0000 0000 0000 0000 0000 0000 eb98 da3e
000000e0: 0000 0000 0000 0000 0000 0000 0000 0000
000000f0: dc51 65bd 0000 0000 5d4d a83d 0000 0000
-1.2040019 -0.34220597 0.0 -0.07889124 0.29121113 0.0 0.2511446 0.0
0.0 0.0 -0.40919217 -1.5822703 0.0 0.0 0.0 0.0006449303
0.0 0.0 0.0 0.0 0.0 0.0 -0.060050365 -0.12517457
0.0 7.96253e-05 0.0 0.0 0.0 0.13156478 0.11938487 -0.8505528
0.0 -0.5448265 0.0 0.0 -0.06000371 0.0 0.0 0.0
-0.3979891 -0.20134443 -0.07424726 -0.19016793 0.0 0.0 0.0 0.0
0.0 -0.051408637 -0.12947148 0.0 0.0 0.0 0.0 0.42694792
0.0 0.0 0.0 0.0 -0.05598627 0.0 0.08217881 0.0

sequential_2/dense_6/MatMul f4 [64, 10]
00000000: a12b 82bf 49ad 5c3e 1c30 35be 3647 e1bb
00000010: f185 a140 d921 5841 d862 aa41 9663 9941
00000020: 7774 5640 f8e5 0f40 949a b4be 1b89 5f3c
00000030: acba 1ebe e05e 033c 2875 c13e df9b c73f
00000040: 506e 4040 a327 0e40 f973 963e a029 7d3e
00000050: 025b 763e 70f5 a0bd e1de 02be 301d 54bd
00000060: 9a00 693e 3862 443d b177 8c3e 38d8 9abd
00000070: 1527 8bbe ae3c 5fbe 3738 be3d eb5e 34bd
00000080: 0763 9ebe 0a71 45bc a99f 86be 0d46 54be
00000090: 7a1d 7abe aaaa 0dbe c4d3 2dbd 49e9 073e
000000a0: 19d1 16be e28d ee3e 611d 153e 56b5 15be
000000b0: 82d6 3dbf 28d2 45c0 d392 73c0 db1b 4ac0
000000c0: d551 40be 41e2 0cbf 664f 5c3e 9032 3bbd
000000d0: 28fd 25be 7455 82be c03f 91bc d60a e4bd
000000e0: a0d2 013c 9ed8 02be 6aad e5bd 70a2 c6bd
000000f0: 86c8 91bd 42ba 2ebf 72ea 913d 356d 4dbc
00000100: 5ef5 8cbf cd0d 63c0 6fe7 a5c0 dc91 88c0
00000110: 8fc7 23bf 8973 51bf 37c4 893e 7c64 e53d
00000120: 0603 aebd 6b25 5cbe a830 89be 84ab 1a3e
00000130: 40e6 e63b 46dd 8ebe f218 793e 341d 8f3d
00000140: fac4 88be 8e2d 1e3e f0cb 9a3d 4aaf 2abe
00000150: b06f a03c c284 56be 6e22 a1bd ded2 593e
00000160: 81e3 75be 5f11 61be 38cd 853d 2537 8d3e
00000170: c08a 7d3c 5947 86be 2ad9 4d3e 336c 853e
00000180: a941 86be b7ca 1bbe 6622 bbbd d031 733d
00000190: 9f1a eebd 13e8 25bd ffa8 21be a13c 5d3c
000001a0: e057 023e bee1 313f 570c f33f aa9f c13f
000001b0: 3ec6 96bc 6d29 39be a543 5abf f0f6 f13e
000001c0: 1293 bbbe e079 803d c6c1 1541 c155 a941
000001d0: c8d8 0842 1f0b 0242 28c8 bf40 04e4 5e40
000001e0: e0a5 99bc c7fa 863e a665 8dbe 1ec9 cabd
000001f0: 1a9d 723e 284a 61bd c45d 223e 6606 b7bd
00000200: c1e3 78be f076 933c 5863 933d 0c8b fe3d
00000210: b001 87be d0bd 8d3c 00ef 1abe d40b 47be
00000220: 2c9b 8bbe d854 febd 60c1 82bd 60ae 023c
00000230: 957b 8d3e c1bb 873e b8ff 52bd 90c6 52be
00000240: 801e 34be 80fa 29bc 0020 573a b415 c93d
00000250: 9ada 5c3e 10ed 2a3d 3d38 58bd 8471 243d
00000260: 151b abbd 05e3 853b 2da6 bc3d 35fd 1c3e
00000270: 1dd7 763c 9ee4 d0be e32b a1bc 82f4 3e3e
00000280: d41c 8e3d 308a e23c d6f6 dabd d7ee 0ebe
00000290: 2601 343e 44a2 e3bd f0ed 093e 6c35 153e
000002a0: 0088 9c3b fc72 e7bd 97aa 913e a82e 17bd
000002b0: 9fc1 833e 3b49 8cbe a2f8 673e d001 2bbe
000002c0: 52db 3a3e 701a 363e e04e 433d 9e98 85be
000002d0: c098 79bd c6b5 3bbe 19cf 5dbe b945 79be
000002e0: 0a38 89be c52e 7dbe dd34 14be 8e45 783e
000002f0: 18ae 5d3d 401a cd3d fcc9 a93d 96fa 4cbe
00000300: c0b1 4dbe c15d 1cbe 26ef 88bd e561 843e
00000310: ed1a 843e e84a 64bd a86a 943d 2e0c 2d3e
00000320: ab53 7ebe bc6f aa3d 658f 803e a435 88be
00000330: b041 193e ee1e 6b3e 944a 273e 90a0 9a3c
00000340: 90a2 39bd 68f7 4e3e eb57 5bbe cc26 bfbd
00000350: a174 33be cdca 68be c639 1a3e 4f69 8a3e
00000360: 305e cfbc ec6e 18bd c2d5 b8bd 5033 1abe
00000370: 7960 303d 545a 45be dae2 68be ebc7 09bd
00000380: 6bc4 5bbe 56ab 813d f02b 5abc e5b5 d23c
00000390: 52b2 9bbe bd1c 493d 58eb fa3d 8e09 343c
000003a0: 8029 42be bcd1 6cbd b43d 063e a99d 56be
000003b0: 06bb aabd f1dd 71be 6c89 adbe ea10 9cbe
000003c0: 7699 293e e821 bb3d 60fa a03c 0fe8 17be
000003d0: 9729 823e 36ec 86bd 8b36 76be 107a 123e
000003e0: 9381 79be 806a 7e3c 837d 5cbe 4e77 503d
000003f0: 358c bdbd 7797 313c af05 08be bdd9 18bf
-1.0169564 0.21550478 -0.17694134 -0.006874944 5.0476003 13.508264 21.298264 19.173626
3.3508584 2.2484112 -0.35274184 0.013643528 -0.15500897 0.008018225 0.37784696 1.5594443
3.006733 2.2211692 0.29385355 0.2472291 0.24058154 -0.078593135 -0.12780334 -0.051785648
0.22754136 0.04794523 0.27435067 -0.07560772 -0.27178255 -0.21800491 0.09288066 -0.044035833
-0.30934927 -0.012050876 -0.26293686 -0.20729847 -0.24425307 -0.13834634 -0.042438284 0.13272585
-0.14728202 0.46592623 0.14561988 -0.14619955 -0.7415544 -3.090952 -3.8058364 -3.1579502
-0.18781216 -0.55032736 0.21514663 -0.045702517 -0.16209853 -0.2545582 -0.017730594 -0.11134879
0.007923752 -0.12777945 -0.11214717 -0.09698951 -0.07118325 -0.68252957 0.07124795 -0.012538244
-1.101238 -3.5477173 -5.184501 -4.267805 -0.6397638 -0.8181692 0.26907513 0.112008065
-0.084966704 -0.21498649 -0.26794934 0.1510449 0.007046491 -0.27903193 0.24325922 0.06987992
-0.2671278 0.15447065 0.07558429 -0.1666843 0.019584507 -0.2094908 -0.07867895 0.21271846
-0.24012567 -0.21979283 0.06533283 0.27581134 0.015474975 -0.2622631 0.20102373 0.26059112
-0.2622197 -0.15214048 -0.0913742 0.059373677 -0.11626171 -0.040504526 -0.15787123 0.013503225
0.12728834 0.6948508 1.8988141 1.5126851 -0.018405076 -0.18082209 -0.8525947 0.4725871
-0.36635643 0.06273246 9.359808 21.166872 34.2117 32.51086 5.993183 3.482667
-0.018755853 0.26363203 -0.27616614 -0.09901641 0.23692742 -0.05500236 0.15856081 -0.08936767
-0.24305631 0.01800105 0.07196683 0.12428865 -0.26368475 0.017302424 -0.15130234 -0.19438106
-0.27266824 -0.124185264 -0.063845396 0.007976145 0.27633348 0.26510432 -0.051513404 -0.20583558
-0.1758976 -0.010374665 0.00082063675 0.09818593 0.21567765 0.041729987 -0.052788008 0.04014732
-0.08354775 0.0040859007 0.09211383 0.15330966 0.015065935 -0.4079942 -0.019674247 0.1864796
0.06939092 0.027653784 -0.106916115 -0.13958298 0.17578563 -0.11114934 0.13469672 0.1457116
0.0047769547 -0.113012284 0.28450462 -0.03690973 0.2573366 -0.2739962 0.2265344 -0.1669991
0.18247727 0.17783523 0.047682643 -0.26093 -0.06093669 -0.1833106 -0.21661033 -0.24343003
-0.26800567 -0.24724872 -0.1447329 0.24245283 0.054121107 0.100147724 0.082904786 -0.20017466
-0.20087337 -0.1527014 -0.06686239 0.25855938 0.25801793 -0.0557355 0.072469056 0.16899177
-0.24836604 0.08322093 0.251094 -0.26603425 0.14966464 0.22961017 0.16337043 0.01887539
-0.045321047 0.20211565 -0.21420257 -0.09333572 -0.17524959 -0.22733612 0.15061101 0.2703347
-0.025313467 -0.03721516 -0.09025146 -0.15058637 0.043060753 -0.19272739 -0.22742787 -0.033637922
-0.21461646 0.06331508 -0.01331614 0.0257215 -0.30409485 0.049099673 0.122519195 0.010988606
-0.18961143 -0.057817206 0.13109475 -0.2095858 -0.08336453 -0.2361982 -0.33893907 -0.30481654
0.16562447 0.091373265 0.019650638 -0.14834617 0.25422356 -0.065880224 -0.24044244 0.14304376
-0.24365835 0.015528321 -0.21532254 0.050895028 -0.09255258 0.010839335 -0.13283418 -0.5970724

sequential_2/dense_7/MatMul f4 [64, 64]
00000000: 25a5 093e c6de 033e b3ee 423e 330d b43d
00000010: d895 df3c add5 5b3e 2cd3 4e3e 2de4 173e
00000020: 640d 10be 067b dbbd 6686 9ebd 9613 59be
00000030: 94bb a9bd 561a a03d ec72 6a3d 35bb a33d
00000040: fe1f f7bd 3888 07bd 4e40 d13d 08f0 7abd
00000050: dd85 003e c37b 243e 473c d73d 341c 27be
00000060: 36d3 81bd cf9b 8bbd 4b95 283e 2fed 40be
00000070: d8f7 02bd 8170 363e 5f2d 3ebb d70a 3c3e
00000080: a9f8 c0bd 447a 55be 5ca4 31be 1fd6 3d3e
00000090: 1b86 eebd ee08 f73d ee79 ab3d b68f 8c3d
000000a0: 15a4 043e d459 263e 86f7 fbbd f81d 523d
000000b0: f05c 13bc b56c 313e e9ef 583e 8739 073e
000000c0: 728d 47be 5283 87bd d212 e03c 01de 193e
000000d0: 04fc 47bd 8fb9 333e 40aa 5bbe 0c5e ef3d
000000e0: 8074 20bd 6c18 513d 0637 99bd ddf5 3c3e
000000f0: 8edf 033e 86b3 8d3d bd7d 97bc 4bcf 093e
00000100: e736 03be 8c5e 00be b5f3 21be 2045 883d
00000110: 7072 313d 66ae cc3d 844c 3b3e de30 f63d
00000120: 3011 4fbc 3803 40bd 3c30 0a3d c8a3 94be
00000130: 7a8b e13d 16ab f63d c8c5 5ebd d763 9e3d
00000140: 0192 203e 48df 95bd 2043 13be 0180 1dbe
00000150: 8f9d 513e 22bd bbbd e510 c23d fd3d 19be
00000160: da1d 02be 9c85 91bd 673d debd e424 9cbd
00000170: f5ec 363e 4935 313e 7bef 043e 300b 41be
00000180: 1710 423e 4607 3e3e 1872 59be 80ce c13c
00000190: e3bf 0fbe 4c42 10bd 36f5 bb3d d4a5 01be
000001a0: 2641 623e 8751 4bbd 9deb aabc e1d9 bd3d
000001b0: c28b 5dbe d997 44be 00ea da3a e08b aebb
000001c0: d6ee a3bd 02f4 e33d c89e 3fbe 0096 0dbc
000001d0: b42b b7bd 1cb7 75bd 8a2c c1bd aafb 68be
000001e0: 34df 353d 702a 25bd 71ba ddbd 4a06 afbd
000001f0: efd0 b93c 404a bfbb c2ef 883d aa55 cf3d
00000200: b0cf cebc dbbc 983d e784 353e ff74 54bd
00000210: 58ff adbd 6615 31be a894 8cbd e8d7 34be
00000220: d664 ee3d 7830 adbd d6ea be3d d071 893d
00000230: 2465 693d c83b 1ebe 20d9 723c ca94 6fbc
00000240: d05e db3c 5254 cbbd 4c4b 53be 24d0 23be
00000250: bc14 a2bd 8b18 4c3e 9cd3 1d3e bbef 01bd
00000260: b4f9 76bd 5994 163e 86c1 d13d d27c a03d
00000270: 7c20 81bd 409f c33d 09fa 5bbe 1971 9bbd
00000280: 1a36 d43d d704 fbbd 0037 0cbb 26a7 edbd
00000290: 2939 1c3d d80d bebc e247 d43d f7b9 203e
000002a0: c539 033e f115 02be 0f4a 153e bb2a 3c3e
000002b0: d0f3 d23c a17a c6bd dadf f63d 8e9e 8e3d
000002c0: 7254 d03d cb85 01be 9786 2a3e 14d6 5b3d
000002d0: de38 f13d 81b1 0bbe cd69 153e 4311 92bd
000002e0: 102c 22bd adfd 4d3e dfd0 153e 4081 38bc
000002f0: 2b31 153e 306e 953c 969d ba3d 77a0 493e
00000300: 837b 2c3d c056 14bd b06c 39bd 88e2 d73d
00000310: 1d25 22bd 9040 6f3c b7c7 2fbd 80f1 ecbd
00000320: c06f 10be d7b6 0a3e ab1a 363c de50 b4bd
00000330: b254 af3d 22e0 20be 0c10 293d 92ae 263e
00000340: cc4e 723d 20b7 84bd b9be 053e 1a41 903d
00000350: d0ba 71bd 8eff aabd 57e8 3fbe 2d03 8c3d
00000360: ca50 f03d e4b8 f7bc 46c7 31be e4c1 95bd
00000370: a86c b0bd 52a9 aebd 7849 0bbd c8bd d03c
00000380: 8993 483e 1647 143e c427 d6bd 4069 d1bc
00000390: 8de0 833d 2c3f 24be c845 2bbe d59e 0b3e
000003a0: 14d2 5ebb 532a 2bbe 8271 43be 248a 053e
000003b0: dd73 58be c068 70bc 55c2 333e 3ac2 fe3d
000003c0: b4f1 5c3d 7cbd 63be 2b8c 69bd de24 c33d
000003d0: 8b2b cabd b825 30bd aea5 b13d dd25 f03d
000003e0: bf60 debd 09b2 38be ec53 313d 487a d43c
000003f0: 4969 163d 89f6 173e e6ac 553e e110 0f3e
0.13441904 0.1287795 0.19036369 0.0879158 0.02729313 0.2146823 0.20197743 0.14833136
-0.14067608 -0.10716824 -0.07740478 -0.21198878 -0.08287731 0.07817523 0.057238504 0.07994691
-0.12066649 -0.033088893 0.10217343 -0.061264068 0.12551065 0.16062836 0.10509544 -0.16319352
-0.063391134 -0.068168275 0.16463201 -0.18840478 -0.031974643 0.17816354 -0.0029018742 0.1836351
-0.09422428 -0.20847422 -0.17347854 0.18538712 -0.11646672 0.1206225 0.083728656 0.06863348
0.12953217 0.16245204 -0.12303071 0.05129811 -0.008994326 0.17326625 0.21185268 0.13205539
-0.19487551 -0.06616844 0.027352724 0.15026094 -0.048824325 0.17551254 -0.21451664 0.1168786
-0.039173603 0.05104868 -0.07481198 0.18453164 0.12878248 0.06919007 -0.018492574 0.13457982
-0.12813912 -0.12536067 -0.15815623 0.066538095 0.043322027 0.09994201 0.18290907 0.120210394
-0.012638375 -0.04687807 0.033737406 -0.29031205 0.11012931 0.12044351 -0.054387838 0.07733887
0.15680696 -0.07317978 -0.14381075 -0.15380861 0.2047026 -0.091669336 0.094758786 -0.14965053
-0.127067 -0.07105562 -0.10851555 -0.07624224 0.1786383 0.17305483 0.1298198 -0.18851924
0.1895145 0.18557462 -0.2123493 0.023658037 -0.14038043 -0.035219476 0.0917763 -0.12660915
0.22095165 -0.049638297 -0.020864302 0.09270073 -0.21635345 -0.1919855 0.0016701818 -0.005326733
-0.08004539 0.11130525 -0.18712914 -0.00864172 -0.089438826 -0.05998908 -0.09432323 -0.22752252
0.044402316 -0.040323675 -0.108265765 -0.085461214 0.022682635 -0.0058377087 0.06686355 0.10123761
-0.025245517 0.07457896 0.1772648 -0.05186939 -0.084959686 -0.17293319 -0.068642914 -0.17660487
0.11640327 -0.0845651 0.09322135 0.06711161 0.05698122 -0.15452492 0.014822274 -0.014622876
0.026778609 -0.09928192 -0.20634192 -0.15997368 -0.07914111 0.19931237 0.15412754 -0.031722765
-0.06029673 0.14705028 0.1024199 0.078363076 -0.06305024 0.09551859 -0.214821 -0.07589931
0.103618816 -0.122567825 -0.0021395087 -0.11604147 0.03814045 -0.02319996 0.10365273 0.1569594
0.12815006 -0.12703682 0.14579032 0.18375675 0.025751024 -0.09691358 0.12054415 0.06963836
0.10172357 -0.12648694 0.16652904 0.053670958 0.11778425 -0.13641931 0.14591141 -0.07132199
-0.039592803 0.20116301 0.14630459 -0.011261284 0.14569537 0.018241018 0.091120884 0.19690119
0.042109977 -0.036215544 -0.045269668 0.10541254 -0.039586175 0.014602795 -0.042915072 -0.115695
-0.14105129 0.1354631 0.011114757 -0.08804487 0.08561076 -0.157105 0.04127507 0.16277531
0.059157178 -0.06480241 0.13061036 0.07043667 -0.05901605 -0.083495244 -0.18740974 0.06836543
0.11734159 -0.03023953 -0.17361173 -0.07312372 -0.086144745 -0.08528389 -0.034005612 0.02548112
0.1958753 0.14480242 -0.104568034 -0.025562882 0.06439314 -0.16039723 -0.16725838 0.13634808
-0.0033999728 -0.16715364 -0.19086269 0.13040978 -0.21137948 -0.014673412 0.175546 0.124393895
0.053941444 -0.22240251 -0.05701844 0.09528516 -0.098715864 -0.04300472 0.08674179 0.11725972
-0.108582966 -0.18036665 0.043292925 0.025937214 0.0367215 0.1484014 0.20866737 0.13971283

sequential_2/dense_8/MatMul f4 [2, 64]
00000000: ba60 4f3e 94dd 313e fbe6 073d d4f1 433d
00000010: 2a4f abbb ee89 b93d f83e 07be 8d32 85bd
00000020: dde8 9bbd f75c afbc 068d b7bc d0af 4d3d
00000030: 23b4 f1bd 8259 a2bd 8bee 38be b19f 94bd
00000040: 03fa d13b e5b5 6c3d aaa2 833c fc37 97bd
00000050: e4cd 3b3d efcc 7f3d b9b4 113e 8afd 92bb
00000060: 580e f6bd 9362 333e 15bc 81bd f3c4 a6bd
00000070: 128f 483d d7e3 5a3d bb95 39bd 047a fc3d
00000080: 72fe 0ebd 0c54 d03d e832 723d e562 613c
00000090: 99db 8f3e 1bbe 37bb 4ff5 723d ca04 32bc
000000a0: 161d 323c fb43 803e 48b1 61bc 74c6 1bbc
000000b0: 5faa 373e 686c c93b 0f7a 16be ce3e f2bd
000000c0: d577 59bd 1f97 1cbe 7c4d fb3d 6b8c 193d
000000d0: 18c7 09bb 7f49 febd 4636 a73d e9cf dcbd
000000e0: eaf2 673e 5120 183e a743 5b3e c0e4 2f3e
000000f0: 579d 45bc 8726 9c3d d31d 43bc 21d6 ad3c
00000100: acef c3bc 2008 9fbe 0aaa 893d e007 793c
00000110: 20d1 f9bb 5646 e2bd 8ab4 f0bc 7a02 6ebc
00000120: 109d 90bd ce59 c33b 6291 2d3c c31d 1d3d
00000130: a033 04be 6849 193e 5aca 3e3d db38 c8bc
00000140: 68c3 933b 88ca 4cbd e61e 803c 78b6 d03d
00000150: 04cf 453d 1ea3 8e3d 5d86 523e 4cd0 b8ba
00000160: f1f2 f7bd be53 093e d924 a93d 524f 9cbd
00000170: 039c 493d 4430 ac3d 1bab f9bc c666 69be
00000180: d3da 98bd 32bc 7dbd 05a9 80bd 553a 873d
00000190: 7383 33be 3352 baba 277f ff3d 1270 4fbd
000001a0: ff08 5a3c 3aae 6fbe 9616 d23b dcfe db3c
000001b0: 08ab ddbc f3a0 e63c 5b91 d4bc 482f f5bd
000001c0: 7fe1 9cbd 2eb0 33be 89f7 04be ba24 c93c
000001d0: 7bca 1a3b 2752 523d 2efd cebd cee5 b3bd
000001e0: f62b 753e 8f98 1e3e 06e5 583e a7b8 2f3e
000001f0: c181 8fbc a014 4b3a 4e50 14bc 51e4 253d
0.20251742 0.17369682 0.033179265 0.047838047 -0.005227943 0.09059511 -0.13207614 -0.065037824
-0.076127745 -0.021406634 -0.022406112 0.050216496 -0.118019365 -0.079272285 -0.18059747 -0.07257021
0.0064079775 0.057790656 0.016068775 -0.07383725 0.04585065 0.0624513 0.14229096 -0.0044857906
-0.120144546 0.17518072 -0.06334702 -0.08143034 0.048964567 0.05343994 -0.04530881 0.1232796
-0.034910627 0.10172281 0.05913058 0.013756488 0.28097227 -0.0028036896 0.059315976 -0.0108654
0.010871192 0.25051865 -0.013775177 -0.009507764 0.17936085 0.0061469562 -0.14694999 -0.11828385
-0.053092796 -0.15292023 0.12270638 0.03748743 -0.002102321 -0.12416362 0.08164649 -0.10781843
0.22651258 0.14856078 0.21412526 0.17177105 -0.0120614385 0.07624536 -0.011908966 0.021220269
-0.023917995 -0.31060886 0.067218855 0.015199631 -0.0076238066 -0.11048572 -0.029382963 -0.014526958
-0.07061207 0.0059616333 0.010593744 0.03835846 -0.12910318 0.14969409 0.046579696 -0.024441173
0.004509378 -0.049997836 0.015639734 0.10191053 0.04829313 0.06964706 0.20559068 -0.0014100163
-0.12106884 0.13410851 0.08258981 -0.07632317 0.04922105 0.084076434 -0.030477097 -0.22793111
-0.074636124 -0.061947055 -0.06282238 0.06602923 -0.17530613 -0.0014215171 0.12475424 -0.050643988
0.013307809 -0.23406306 0.006411384 0.026854925 -0.027059093 0.028152918 -0.025948217 -0.11971909
-0.076601975 -0.17547676 -0.12985052 0.024553645 0.0023619223 0.051347878 -0.10106884 -0.08784066
0.23942551 0.15487884 0.21181116 0.17160283 -0.017517926 0.0007746909 -0.009052349 0.040500943
