app/src/main/ml/breast_cancer_mammography.tflite (tflite, 709392 bytes, 10 tensors)

sequential_1/conv2d_3/BiasAdd/ReadVariableOp f4 [32]
-0.00550269 -0.032874465 -0.0044851727 -0.030489985 -0.0063524344 0.0009630024 -0.06931449 -0.04804607
-0.0118931625 -0.032856375 -0.056139704 -0.0005100529 -0.020272855 -0.0042120353 -0.008648821 0.0026028934
-0.04545552 0.0057011633 -0.007405953 -0.0189325 -0.0037582887 -0.0060654697 -0.015594452 -0.0055902605
-0.030297646 -0.00015246321 -0.032026175 -0.0016886197 -0.0034758418 -0.04200053 -0.012094344 -0.0564795
00000000: e94f b4bb 60a7 06bd 5bf8 92bb 22c6 f9bc
00000010: 1528 d0bb ff71 7c3a c1f4 8dbd f5cb 44bd
00000020: 8adb 42bc 6894 06bd bff2 65bd 12b5 05ba
00000030: 4213 a6bc 1d05 8abb c9b3 0dbc 4e95 2a3b
00000040: 912f 3abd d3d0 ba3b a3ad f2bb 5518 9bbc
00000050: 9f4d 76bb d9c0 c6bb df7f 7fbc 812e b7bb
00000060: c532 f8bc 88de 1fb9 e12d 03bd ad54 ddba
00000070: f3ca 63bb bf08 2cbd 5b27 46bc 0c57 67bd

sequential_1/conv2d_4/BiasAdd/ReadVariableOp f4 [32]
-0.02079182 -0.024040775 -0.0059979213 -0.030687395 0.026085375 -0.024110017 -0.0008021714 -0.0135905305
-0.03355838 0.020520197 0.0029838576 -0.05783899 -0.0051640533 -0.009995246 -0.019085055 -0.0066782213
-0.014478067 0.012495054 -0.020077493 -0.030355936 0.0020360425 -0.006129149 -0.011120556 -0.07069011
-0.0075326907 -0.05028076 -0.016576927 0.046287943 -0.030885937 -0.0435787 -0.01797311 -0.007951636
00000000: 9b53 aabc 29f1 c4bc 368a c4bb 2264 fbbc
00000010: ffb0 d53c 5f82 c5bc d048 52ba d1aa 5ebc
00000020: 8374 09bd f919 a83c d38c 433b 94e8 6cbd
00000030: 3837 a9bb 1ac3 23bc 4358 9cbc fbd4 dabb
00000040: 6a35 6dbc 0eb8 4c3c 8e79 a4bc 03ad f8bc
00000050: 206f 053b 07d7 c8bb fe32 36bc fac5 90bd
00000060: cad4 f6bb 33f3 4dbd 56cc 87bc 6d98 3d3d
00000070: 8104 fdbc 947f 32bd 583c 93bc 9447 02bc

sequential_1/conv2d_5/BiasAdd/ReadVariableOp f4 [64]
0.0058242655 -0.02635846 -0.010463512 -0.0031781506 -0.017276963 -0.0005277635 -0.036631204 0.016686814
-0.051944684 0.020900017 -0.004829217 -0.03877057 -0.009560013 0.08046123 0.06951465 -0.015432471
-0.030638242 0.001355119 0.02175192 -0.02903326 -0.0034412101 -0.0027849847 0.028709978 -0.01999027
0.017111324 -0.0087243775 -0.021801166 -0.04866585 0.006931066 -0.03163933 -0.0017752912 -0.017837122
0.022384414 -0.024859577 -0.009225483 -0.056721646 0.0054876776 -0.0065620164 0.02796447 -0.017750602
0.012179439 -0.05587466 -0.0550162 -0.039378043 0.001425832 0.031710576 0.013131137 -0.028303025
-0.0012923228 0.0020746293 0.010033291 -0.014271601 -0.01761062 0.016426997 0.027588774 0.00060029794
-0.014673692 2.1426851e-05 -0.011603055 -0.010544425 0.0036107241 -0.014249359 0.030419607 0.024729367
00000000: 7bd9 be3b b2ed d7bc 266f 2bbc 8548 50bb
00000010: 6b88 8dbc 9c59 0aba 9a0a 16bd c9b2 883c
00000020: f3c3 54bd 8336 ab3c 693e 9ebb e4cd 1ebd
00000030: 9aa1 1cbc dbc8 a43d b25d 8e3d 7ad8 7cbc
00000040: 0dfd fabc 409e b13a 1531 b23c 29d7 edbc
00000050: ed85 61bb 4a84 36bb 3031 eb3c a2c2 a3bc
00000060: 0c2d 8c3c b1f0 0ebc 5c98 b2bc d855 47bd
00000070: ff1d e33b 3e98 01bd e3b0 e8ba 281f 92bc
00000080: 855f b73c 50a6 cbbc 7b26 17bc f554 68bd
00000090: fad1 b33b 2f06 d7bb bf15 e53c b669 91bc
000000a0: 458c 473c d4dc 64bd ab58 61bd df4a 21bd
000000b0: fce2 ba3a f3e2 013d fb23 573c bfdb e7bc
000000c0: 2863 a9ba 81f6 073b ac62 243c 6fd3 69bc
000000d0: 2644 90bc e991 863c da01 e23c 505d 1d3a
000000e0: ed69 70bc d0bd b337 bd1a 3ebc 86c2 2cbc
000000f0: e6a1 6c3b 2576 69bc 8a32 f93c 3e95 ca3c

sequential_1/conv2d_3/Conv2D f4 [32, 3, 3, 3]
-0.14911473 -0.05667228 -0.16594356 -0.004711549 -0.08065795 0.06600682 0.25278977 0.22422557
0.22854124 -0.19290343 -0.056427393 -0.026242735 -0.17097488 -0.00966232 -0.15577753 0.02288436
0.1088883 0.042998813 -0.058762252 -0.14824994 -0.105067305 -0.033956777 -0.052924354 0.06739145
0.04090163 0.04763731 -0.057709195 -0.026134422 0.06748399 0.06659238 0.15434885 0.073708646
-0.021623012 0.107235484 0.062485445 -0.007200681 -0.059891693 -0.04123441 -0.13108294 0.11916838
0.08595443 0.10218829 0.15246947 0.09413913 -0.02084017 -0.08625435 -0.09832512 0.003108831
-0.15418874 -0.124755986 -0.17379619 0.09736724 -0.1452104 -0.051793307 0.00665402 -0.11873483
0.0101521555 -0.07511919 0.03588538 0.10865566 0.15632261 0.15391839 0.24310738 -0.12833348
-0.018824782 0.079848 0.08365276 -0.10085986 0.07993897 -0.17605117 -0.14358169 0.07987121
-0.00016795943 -0.16680427 0.046493825 -0.14888261 -0.09421102 0.093149714 0.053285964 -0.0018993885
-0.13070036 0.117306195 0.06637465 0.19580364 0.19075517 0.1678824 0.11323962 -0.08750022
-0.06332264 -0.09883578 -0.034790676 0.2100531 0.17080002 0.100135595 -0.120815165 0.054555193
0.06783587 -0.17379928 -0.17270753 0.07699039 0.06712622 0.0038806188 -0.029081533 -0.13190025
-0.08795679 0.015093522 -0.18682753 0.06504301 0.14217675 0.20996377 0.16127133 0.10550141
-0.049799632 -0.110068165 -0.11189892 -0.21839483 -0.116878696 0.075233415 0.22151652 0.29533178
-0.03521655 -0.00782413 -0.12438614 -0.17375608 -0.24314952 -0.15650369 0.033657093 0.09295426
0.039832924 -0.18108982 -0.014106427 -0.0715571 -0.0513038 -0.13564727 -0.17913578 -0.06316288
-0.16099754 -0.13842359 -0.15863188 -0.18325178 -0.033088926 -0.14832284 -0.09698235 -0.06754185
0.01891367 -0.028763542 -0.104408465 0.076536655 -0.08403475 0.050821014 0.06742638 -0.11647642
0.058863606 0.20105182 0.13168032 0.08145649 0.1667197 0.15636383 0.041432094 -0.046016704
0.12782149 0.18792509 -0.067840375 0.027614618 0.12489383 0.16382068 -0.013929856 0.13657174
0.008642037 -0.16978662 -0.015652424 0.12924904 0.11172656 0.034892596 0.15654577 0.22094953
0.1289184 -0.051401377 0.11597884 0.03849763 -0.0006712482 0.17480566 0.081817135 0.10451944
0.0020663566 0.0810882 0.06446188 0.015325272 0.037610523 -0.009936282 -0.10282777 -0.007676307
0.1577964 -0.10004401 0.110826835 0.0021977697 0.021471951 0.18344107 0.18589818 0.1675539
-0.004766262 0.12386666 0.08104441 0.17888638 0.23245004 0.013672163 0.19372317 0.02559965
0.08431813 0.13407049 0.17630927 0.15437344 -0.0051532714 0.12876354 0.072611675 0.0741218
-0.12533729 0.049393494 0.12287226 0.13256018 0.12948067 0.1335367 -0.14545615 -0.0945528
-0.037087582 -0.064711265 0.19378482 0.12239954 -0.08375989 0.056944687 0.13617752 -0.17691255
-0.06673446 -0.2797874 0.09192276 0.14549042 -0.03242074 0.012921071 0.04197411 -0.09167877
-0.2055763 -0.11475205 -0.22166562 -0.11690189 -0.027207857 -0.05581232 0.19001937 0.04488597
0.18821901 0.128769 0.02431289 0.02328724 0.1332413 0.14954028 0.114934236 0.0016883229
00000000: 88b1 18be 3121 68bd 1ced 29be 5663 9abb
00000010: ff2f a5bd 952e 873d a96d 813e 639b 653e
00000020: b706 6a3e 7a88 45be 6920 67bd 01fb d6bc
00000030: 0a14 2fbe b54e 1ebc 2584 1fbe fb77 bb3c
00000040: d400 df3d 861f 303d b0b0 70bd d5ce 17be
00000050: 872d d7bd 4316 0bbd 35c7 58bd 8704 8a3d
00000060: 7888 273d 571f 433d 7a60 6cbd db17 d6bc
00000070: 0c35 8a3d 9661 883d a00d 1e3e 8ff4 963d
00000080: be22 b1bc 479e db3d bdf0 7f3d b1f3 ebbb
00000090: fe50 75bd 6ae5 28bd 9b3a 06be 8d0e f43d
000000a0: e008 b03d 1848 d13d f520 1c3e 04cc c03d
000000b0: 01b9 aabc 1fa6 b0bd ae5e c9bd 87bd 4b3b
000000c0: a7e3 1dbe 1180 ffbd a1f7 31be 7a68 c73d
000000d0: 09b2 14be 3825 54bd f709 da3b 3f2b f3bd
000000e0: 3a55 263c 17d8 99bd 8cfc 123d dc86 de3d
000000f0: 0913 203e c89c 1d3e 24f1 783e da69 03be
00000100: 6e36 9abc 5987 a33d 2352 ab3d 9d8f cebd
00000110: 0bb7 a33d c246 34be 1407 13be 8493 a33d
00000120: 441e 30b9 bdce 2abe 4f70 3e3d af74 18be
00000130: b5f1 c0bd 47c5 be3d 6242 5a3d e7f4 f8ba
00000140: 51d6 05be 3b3e f03d 6fef 873d c080 483e
00000150: 5355 433e 5de9 2b3e 2dea e73d 5133 b3bd
00000160: 4daf 81bd 6a6a cabd ab80 0ebd 2918 573e
00000170: 33e6 2e3e e413 cd3d f16d f7bd 4475 5f3d
00000180: 88ed 8a3d 70f8 31be 3eda 30be 23ad 9d3d
00000190: 7979 893d fb51 7e3b 653c eebc dc10 07be
000001a0: b122 b4bd d24a 773c b74f 3fbe 4535 853d
000001b0: c896 113e be00 573e 5024 253e 2011 d83d
000001c0: b3fa 4bbd 6b6b e1bd 432b e5bd e5a2 5fbe
000001d0: 195e efbd fa13 9a3d 3ad5 623e ba35 973e
000001e0: 3b3f 10bd c830 00bc 29be febd 1ded 31be
000001f0: 30fc 78be 8142 20be 05dc 093d ce5e be3d
00000200: d927 233d 9c6f 39be a51e 67bc 878c 92bd
00000210: ef23 52bd 1ee7 0abe 5f6f 37be 8a5b 81bd
00000220: 8adc 24be eabe 0dbe 6570 22be 5ba6 3bbe
00000230: 4188 07bd f1e1 17be af9e c6bd 6253 8abd
00000240: d7f0 9a3c 85a1 ebbc 1bd4 d5bd 40bf 9c3d
00000250: 691a acbd b229 503d d816 8a3d 308b eebd
00000260: f71a 713d 87e0 4d3e 35d7 063e a9d2 a63d
00000270: 92b8 2a3e d71d 203e b3b4 293d 037c 3cbd
00000280: a3e3 023e 6f6f 403e e5ef 8abd 0d38 e23c
00000290: 56c8 ff3d 9cc0 273e 0d3a 64bc 76d9 0b3e
000002a0: 5597 0d3c 8bdc 2dbe 8339 80bc dc59 043e
000002b0: e5d0 e43d 8aeb 0e3d 894d 203e 9840 623e
000002c0: 2f03 043e 408a 52bd 5086 ed3d b1af 1d3d
000002d0: b4f6 2fba 4100 333e be8f a73d 4a0e d63d
000002e0: b66b 073b 9211 a63d 9704 843d da16 7b3c
000002f0: 7e0d 1a3d cacb 22bc 5e97 d2bd 8889 fbbb
00000300: 6195 213e e0e3 ccbd 2ef9 e23d 7508 103b
00000310: f2e5 af3c fad7 3b3e 185c 3e3e 4093 2b3e
00000320: 4e2e 9cbb cead fd3d 9dfa a53d fe2d 373e
00000330: 6207 6e3e 3501 603c 5e5f 463e 5bb6 d13c
00000340: fcae ac3d c649 093e 6b8a 343e 1214 1e3e
00000350: c6dc a8bb 97da 033e 6eb5 943d 2ccd 973d
00000360: 6b58 00be d550 4a3d 74a4 fb3d dbbd 073e
00000370: 9596 043e d8bd 083e 75f2 14be e6a4 c1bd
00000380: 26e9 17bd 5787 84bd 876f 463e 9cac fa3d
00000390: 4e8a abbd d53e 693d 1f72 0b3e 9028 35be
000003a0: 14ac 88bd 4b40 8fbe 0042 bc3d 71fb 143e
000003b0: 9ccb 04bd e6b2 533c 0bed 2b3d 14c2 bbbd
000003c0: 9882 52be 1f03 ebbd 50fc 62be 426a efbd
000003d0: 03e3 debc 769b 64bd 7094 423e 5ada 373d
000003e0: 7cbc 403e 05dc 033e d32b c73c e2c4 be3c
000003f0: 6870 083e 1621 193e a462 eb3d b74a dd3a

sequential_1/conv2d_4/Conv2D f4 [32, 3, 3, 32]
0.07556421 0.18357241 -0.05085569 0.11733328 -0.1003838 0.0010127585 0.11757119 -0.087858275
0.022458645 0.09811748 -0.04249747 -0.010349897 0.15610741 0.038163558 0.012718651 -0.027040565
-0.0671747 -0.21833837 -0.004891719 -0.05786014 -0.27280664 -0.06462821 0.09318366 0.07706309
0.009786538 0.19183129 0.18109275 -0.16020384 -0.05837824 0.14318083 -0.065776885 -0.10012288
0.20842233 0.038482368 0.0858884 0.022175848 -0.19685002 -0.059845682 -0.021900494 -0.054451298
0.032240164 0.09600246 -0.03404769 -0.033227634 0.1411755 0.04534331 -0.051842026 -0.17123814
-0.046658568 -0.20096998 -0.12553714 0.14504085 -0.015245859 -0.048305947 -0.033155605 0.049332306
-0.10347042 0.13424249 0.112781376 -0.03836168 -0.13698037 0.06436969 -0.11130687 0.08725223
0.104450524 0.087766066 0.13488999 -0.07189508 -0.0498425 -0.16487448 0.16262247 0.13477017
-0.10228958 0.18221563 0.14761636 -0.1708352 0.16275439 -0.20264618 -0.23620881 -0.11619599
-0.0022091796 -0.07375745 -0.01525826 0.12125715 -0.087711714 -0.0479733 -0.08561726 -0.16560817
-0.11538271 0.25641182 0.18682139 0.06228395 -0.12847975 0.109143205 -0.14533004 -0.07341724
-0.12395936 -0.043687038 0.08073449 -0.11365003 0.061817266 -0.069044374 -0.044670578 -0.082393914
-0.14881831 0.062165037 0.18506497 -0.1191241 0.07114424 -0.117051445 -0.20457307 -0.15681499
-0.03504426 -0.08104092 0.057182692 -0.07624075 0.016627587 0.057378855 -0.08540463 -0.04986722
-0.11537628 -0.08901524 0.12209934 -0.12013393 -0.17088242 -0.100601524 -0.047230396 0.054077815
-0.14207016 0.045453478 0.041464787 -0.06966001 -0.044216547 -0.05156217 0.10555743 -0.05398194
-0.014544099 0.103308365 -0.08034437 0.055561617 0.096468754 0.09900564 0.07528657 -0.18802828
0.017485278 0.047566287 0.06596495 0.011309004 -0.22866955 -0.0065070395 -0.04716307 -0.06321446
-0.16548318 -0.029700652 -0.012230274 0.020363517 0.03980065 -0.12733778 -0.06933051 0.10257177
-0.12575425 -0.014876845 0.034939997 0.04956259 -0.108835876 0.09641936 -0.012678466 -0.16686672
-0.10740832 0.020532662 -0.11535409 0.13083088 -0.02734343 -0.028967738 -0.09325969 -0.112913765
-0.07485222 -0.020203734 -0.049281508 -0.14559437 0.003953443 -0.15312201 0.06786512 -0.08000065
0.07970918 0.12037124 0.018800039 -0.12304375 -0.054449737 -0.14794384 0.017911108 -0.07370951
-0.051326048 0.0035980209 -0.16650316 -0.06705663 -0.14692077 0.11123263 0.097625464 -0.0984546
-0.033176538 -0.054752972 0.03330713 0.057777148 -0.028338104 0.068732254 -0.117539436 -0.042760644
-0.012395809 -0.18631594 -0.08384636 -0.1591088 -0.035428386 -0.06345849 0.04690154 0.11018084
0.039405156 -0.16930985 -0.07472374 -0.036107715 -0.14265281 -0.029377658 0.089912884 0.004000587
0.07553247 0.043882217 -0.01438579 -0.121827714 0.12599064 0.08629276 -0.11485444 -0.01518752
0.2104408 -0.10715523 -0.004444699 -0.14871436 0.080481604 0.016714688 0.1401955 -0.0002732722
0.032419253 -0.07653323 -0.15115632 -0.022491604 -0.09799525 0.051354907 0.12015183 0.0050693857
-0.14336225 0.036592588 -0.06995568 0.1662771 -0.049859222 0.13706228 0.11090954 -0.108452745
00000000: 69c1 9a3d 68fa 3b3e 0e4e 50bd 6e4c f03d
00000010: 0696 cdbd 89be 843a 2ac9 f03d 0aef b3bd
00000020: 31fb b73c d1f1 c83d d411 2ebd 9d92 29bc
00000030: 9fda 1f3e 6451 1c3d e461 503c 2d84 ddbc
00000040: e492 89bd 1894 5fbe b74a a0bb c1fe 6cbd
00000050: 50ad 8bbe cc5b 84bd 13d7 be3d 41d3 9d3d
00000060: b757 203c 6c6f 443e 6170 393e 7a0c 24be
00000070: 051e 6fbd ff9d 123e 08b6 86bd 390d cdbd
00000080: aa6c 553e b09f 1d3d 42e6 af3d 20aa b53c
00000090: 0d93 49be bf20 75bd aa68 b3bc 5308 5fbd
000000a0: 430e 043d f09c c43d 9775 0bbd b319 08bd
000000b0: 4f90 103e e8b9 393d 4e58 54bd 0d59 2fbe
000000c0: 0e1d 3fbd 13cb 4dbe cf8c 00be 9785 143e
000000d0: c4c9 79bc 75dc 45bd 2cce 07bd ac10 4a3d
000000e0: 4de8 d3bd dd76 093e ecf9 e63d 2321 1dbd
000000f0: 9544 0cbe 42d4 833d dbf4 e3bd 4cb1 b23d
00000100: 28ea d53d b2be b33d 9a20 0a3e ba3d 93bd
00000110: a627 4cbd dbd4 28be 8186 263e 3101 0a3e
00000120: 337d d1bd bc96 3a3e be28 173e 6cef 2ebe
00000130: 16a9 263e 7b82 4fbe b9e0 71be 2af8 edbd
00000140: e2c7 10bb 250e 97bd c8fd 79bc ab55 f83d
00000150: 33a2 b3bd a77f 44bd 1a58 afbd 3095 29be
00000160: c54d ecbd 6948 833e 1b4e 3f3e 751d 7f3d
00000170: 3290 03be 7986 df3d 66d1 14be c75b 96bd
00000180: 68de fdbd 2ef1 32bd 2058 a53d 59c1 e8bd
00000190: 1a34 7d3d 2367 8dbd 7ff8 36bd 24be a8bd
000001a0: d463 18be c4a0 7e3d ac81 3d3e 56f7 f3bd
000001b0: 12b4 913d abb8 efbd 9a7b 51be 1c94 20be
000001c0: 928a 0fbd c8f8 a5bd 6638 6a3d 1c24 9cbd
000001d0: 9436 883c 1706 6b3d 9fe8 aebd 9241 4cbd
000001e0: 664a ecbd 9f4d b6bd 380f fa3d c708 f6bd
000001f0: cdfb 2ebe 2c08 cebd a974 41bd b380 5d3d
00000200: d77a 11be 6d2d 3a3d fbd6 293d e8a9 8ebd
00000210: 691c 35bd db32 53bd 7e2e d83d 2b1c 5dbd
00000220: 5f4a 6ebc 5693 d33d 978b a4bd 9494 633d
00000230: 6991 c53d 78c3 ca3d d82f 9a3d 7c8a 40be
00000240: 493d 8f3c ded4 423d a218 873d 6749 393c
00000250: 5a28 6abe 0139 d5bb 102e 41bd 9576 81bd
00000260: 6c74 29be c84e f3bc 7d61 48bc 64d1 a63c
00000270: 0206 233d d664 02be 28fd 8dbd 2611 d23d
00000280: b9c5 00be 03be 73bc 3e1d 0f3d 2402 4b3d
00000290: 58e5 debd 8377 c53d 57b9 4fbc 1cdf 2abe
000002a0: e5f8 dbbd 1d34 a83c c43e ecbd 88f8 053e
000002b0: 54ff dfbc c04d edbc f0fe bebd 553f e7bd
000002c0: 1f4c 99bd 4d82 a5bc 68db 49bd b116 15be
000002d0: e28b 813b 04cc 1cbe defc 8a3d 61d7 a3bd
000002e0: 913e a33d 3285 f63d 8a02 9a3c 5dfe fbbd
000002f0: b006 5fbd 977e 17be 51ba 923c 03f5 96bd
00000300: 433b 52bd c6cc 6b3b ce7f 2abe fd54 89bd
00000310: 6672 16be efcd e33d dcef c73d 91a2 c9bd
00000320: 1fe4 07bd a744 60bd 0f6d 083d bba7 6c3d
00000330: 5025 e8bc 7fc3 8c3d 84b8 f0bd c925 2fbd
00000340: cb17 4bbc 9bc9 3ebe a4b7 abbd 6bed 22be
00000350: 5b1d 11bd 86f6 81bd d41b 403d 7ea6 e13d
00000360: 4d67 213d 905f 2dbe c308 99bd afe5 13bd
00000370: 9413 12be 6aa9 f0bc 3f24 b83d 5b17 833b
00000380: c5b0 9a3d d7bd 333d 60b2 6bbc cf80 f9bd
00000390: b103 013e 42ba b03d ce38 ebbd 13d5 78bc
000003a0: cb7d 573e 3474 dbbd d6a4 91bb 9448 18be
000003b0: 8ad3 a43d 3eed 883c 698f 0f3e f945 8fb9
000003c0: 0dca 043d 74bd 9cbd b9c8 1abe 5040 b8bc
000003d0: bcb1 c8bd 8659 523d 2a12 f63d 171d a63b
000003e0: 8ecd 12be 1ce2 153d ec44 8fbd 8b44 2a3e
000003f0: 2f39 4cbd 0e5a 0c3e 8a24 e33d 791c debd

sequential_1/conv2d_5/Conv2D f4 [64, 3, 3, 32]
-0.1544692 0.15382066 0.10828747 -0.1464711 -0.037007824 -0.062950596 -0.22640122 0.04794714
-0.043181736 0.04563403 -0.07714097 0.13212328 -0.067681156 0.025350979 0.06035631 -0.026612487
0.00030587552 0.025072904 -0.038253475 -0.008573844 -0.06548724 0.03870682 0.09465395 0.094756044
-0.12067092 -0.17911787 -0.05200704 -0.024993742 -0.084876716 0.061381444 0.009935908 -0.09029643
-0.057189718 0.010422541 -0.06017379 -0.1449222 -0.019137623 -0.05528053 -0.17337142 0.10192684
0.035565306 -0.19115 -0.14477347 0.06197934 0.0034333582 -0.09368388 0.09945038 -0.19706163
-0.033015188 0.12018086 0.030592894 0.1299322 -0.097172484 0.008374332 -0.17396313 0.14485265
0.059355143 0.008883378 0.16494405 -0.15265259 0.060611032 0.0039102742 0.19417174 -0.08205553
0.09227349 0.07978603 -0.080145456 0.08090063 -0.106343165 0.120194755 -0.1259647 -0.06467788
-0.13203979 -0.04132737 -0.15713182 0.117748946 0.08922532 0.05248351 0.20869505 0.052307174
-0.07775766 0.16208144 0.101217486 -0.113928296 -0.00061986607 -0.10404078 0.042281527 -0.048873484
0.054637432 0.07493226 -0.010095749 -0.18506242 0.019881006 -0.008083429 0.013122346 0.15340638
0.2153704 -0.096447356 -0.01646293 0.024145877 0.19052243 0.11855035 -0.12915881 -0.07218319
0.015104389 0.062350214 -0.08976527 -0.019498685 -0.09431425 -0.080255814 0.048954662 -0.16400124
-0.07049345 0.15949139 0.051462706 0.12670515 0.100557365 -0.012533374 0.19399093 0.012167104
-0.01591565 -0.10782373 0.06475326 -0.0065294565 0.029926367 0.018838635 -0.096058324 0.12897968
-0.05018758 -0.1889715 -0.18292378 0.057539936 0.04304844 -0.13162425 0.06970785 -0.05958822
0.020674955 0.13235816 0.05302123 -0.07889178 0.08051931 0.055607647 0.20004566 -0.08474467
-0.018730346 0.012400078 -0.14473185 -0.06270768 0.106336914 -0.15302789 -0.11609512 -0.1530199
0.08299269 -0.21163353 0.15290679 0.122501045 0.08999494 -0.18819106 0.12144324 -0.08252353
-0.01420253 0.033688627 -0.11432516 -0.06904169 -0.11501909 -0.0042992835 0.08843926 -0.18660897
-0.06299398 -0.06652175 -0.07929914 -0.12159744 0.00041790595 0.007833277 -0.09925408 -0.029372543
0.1943579 -0.06580423 0.10786041 0.1240502 0.11141923 -0.13986383 -0.0025347406 -0.16283122
0.08955006 0.09310019 0.13347992 -0.017239472 -0.10753783 -0.09533619 -0.0038330937 -0.2151926
-0.061450724 0.027707106 0.11626391 -0.08896397 -0.0025710987 0.13573271 -0.10114582 0.057489045
0.062301204 0.12928414 0.19820128 -0.04897781 -0.2237384 -0.13602114 -0.024799613 0.05393503
0.08457605 -0.22984882 0.047810618 0.039187215 0.090127304 0.025196303 0.121578306 -0.001948388
-0.013031903 0.23965299 0.02384776 0.07073194 -0.17639396 0.0065982332 -0.1332829 -0.05867632
0.030255996 -0.1300452 -0.14903583 -0.12902887 0.03917841 -0.050104193 0.13045654 -0.004260453
0.16959448 -0.18963319 -0.10278191 -0.20230527 0.17298013 -0.14275034 0.1374289 -0.10147867
-0.14749646 0.12970302 -0.08379269 -0.07479653 0.010260967 -0.09329287 0.027772313 -0.08614638
0.15793572 0.08100129 -0.078722656 -0.017567547 0.051466774 -0.11195224 -0.0042444444 -0.028179564
00000000: 2d2d 1ebe 2a83 1d3e d2c5 dd3d 85fc 15be
00000010: 8495 17bd 3eec 80bd b9d5 67be 3864 443d
00000020: 55df 30bd c0ea 3a3d 16fc 9dbd 534b 073e
00000030: 6b9c 8abd dbac cf3c 2e38 773d 6e02 dabc
00000040: eb5d a039 b165 cd3c adaf 1cbd 4f79 0cbc
00000050: 2d1e 86bd 0b8b 1e3d eed9 c13d 750f c23d
00000060: 5122 f7bd ad6a 37be 5505 55bd adbf ccbc
00000070: d8d3 adbd 1c6b 7b3d 38ca 223c 56ed b8bd
00000080: c43f 6abd 4ec3 2a3c cb78 76bd 7c66 14be
00000090: 81c6 9cbc d66d 62bd 4788 31be 05bf d03d
000000a0: edac 113d d3bc 43be 7f3f 14be 0cde 7d3d
000000b0: 3102 613b 56dd bfbd a4ac cb3d 86ca 49be
000000c0: ef3a 07bd 6221 f63d f39d fa3c f20c 053e
000000d0: 5e02 c7bd 7f34 093c 6423 32be 4154 143e
000000e0: 611e 733d 968b 113c 18e7 283e f650 1cbe
000000f0: 4643 783d c221 803b f5d4 463e bb0c a8bd
00000100: e2f9 bc3d dc66 a33d 4d23 a4bd 3baf a53d
00000110: 72ca d9bd ab28 f63d e4fc 00be d675 84bd
00000120: 7035 07be e346 29bd 2ae7 20be 5c26 f13d
00000130: c4bb b63d f3f8 563d 28b4 553e 0c40 563d
00000140: 683f 9fbd adf8 253e 1d4b cf3d 3d53 e9bd
00000150: 827e 22ba 5513 d5bd 652f 2d3d 902f 48bd
00000160: 80cb 5f3d 1676 993d a468 25bc 0181 3dbe
00000170: 7edd a23c 5c70 04bc 1cff 563c 9016 1d3e
00000180: 0f8a 5c3e 3186 c5bd 44dd 86bc 93cd c53c
00000190: 5018 433e 87ca f23d 3542 04be c8d4 93bd
000001a0: 6678 773c f062 7f3d dbd6 b7bd b5bb 9fbc
000001b0: d427 c1bd 295d a4bd af84 483d f1ef 27be
000001c0: df5e 90bd b651 233e 8fca 523d ffbe 013e
000001d0: 05f1 cd3d c858 4dbc 8fa5 463e 8858 473c
000001e0: 8a61 82bc b0d2 dcbd 5b9d 843d 0df5 d5bb
000001f0: 2428 f53c 7b53 9a3c 3aba c4bd 4013 043e
00000200: 7e91 4dbd bf81 41be 5f50 3bbe ffae 6b3d
00000210: 9053 303d 82c8 06be fdc2 8e3d c712 74bd
00000220: 865e a93c e688 073e ca2c 593d 0392 a1bd
00000230: 4fe7 a43d d8c4 633d c5d8 4c3e 9d8e adbd
00000240: 6270 99bc b229 4b3c 9634 14be e26c 80bd
00000250: 2bc7 d93d 58b3 1cbe 47c3 edbd 40b1 1cbe
00000260: 12f8 a93d 76b6 58be 9993 1c3e d4e1 fa3d
00000270: 444f b83d 28b5 40be 3cb7 f83d 1902 a9bd
00000280: bab1 68bc 16fd 093d 4f23 eabd bb65 8dbd
00000290: 218f ebbd 01e1 8cbb a51f b53d 6c16 3fbe
000002a0: fd02 81bd 8e3c 88bd 9667 a2bd 1408 f9bd
000002b0: 631a db39 2557 003c b945 cbbd b09e f0bc
000002c0: c205 473e 5ec4 86bd ebe5 dc3d 080e fe3d
000002d0: c42f e43d 7738 0fbe e41d 26bb 3abd 26be
000002e0: 0666 b73d 50ab be3d f6ae 083e cb39 8dbc
000002f0: cb3c dcbd 9f3f c3bd a434 7bbb 735b 5cbe
00000300: c1b3 7bbd 03fa e23c c61b ee3d be32 b6bd
00000310: e17f 28bb 84fd 0a3e 8a25 cfbd a279 6b3d
00000320: 8c2f 7f3d 1063 043e 47f5 4a3e f59c 48bd
00000330: ae1b 65be 2049 0bbe 8f28 cbbc faea 5c3d
00000340: 3536 ad3d 7d5d 6bbe 11d5 433d c682 203d
00000350: aa94 b83d 7a68 ce3c 0cfe f83d 0d61 ffba
00000360: c383 55bc 9867 753e 615c c33c e8db 903d
00000370: 9ea0 34be fe35 d83b 507b 08be 9556 70bd
00000380: 6cdb f73c 922a 05be d99c 18be 2520 04be
00000390: 8a79 203d 0e3a 4dbd 6696 053e 459b 8bbb
000003a0: 2daa 2d3e 342f 42be 527f d2bd 1d29 4fbe
000003b0: b421 313e 252d 12be 29ba 0c3e 0dd4 cfbd
000003c0: 5009 17be ded0 043e 809b abbd ec2e 99bd
000003d0: 9d1d 283c 5510 bfbd c382 e33c 836d b0bd
000003e0: e7b9 213e 01e4 a53d 5839 a1bd d1e9 8fbc
000003f0: d3ce 523d 3747 e5bd fb14 8bbb d4d8 e6bc

sequential_1/dense_3/BiasAdd/ReadVariableOp f4 [2]
0.021091148 -0.02109117
00000000: 58c7 ac3c 64c7 acbc

sequential_1/dense_2/BiasAdd/ReadVariableOp f4 [64]
0.018724764 0.054516293 0.033933733 -0.01197137 -0.008849555 -0.05129933 0.04207207 -0.02507342
-0.014502616 0.029030679 -0.01644273 -0.008681025 -0.0076423823 -0.011186475 0.021681547 0.034191243
0.02200679 0.005006893 -0.008829267 -0.020900803 0.03624164 -0.034193438 -0.062062822 -0.024694623
0.040107895 0.00918441 -0.021556916 0.003964489 -0.06492467 0.03743639 0.044275504 -0.038849134
-0.024526043 0.046414804 0.03278417 -0.019410767 0.005399574 0.018072784 -0.014745511 -0.027792491
-0.016573789 -0.023847349 -0.019806031 0.027446372 0.034190614 -0.009944387 -0.025560934 -0.03327915
-0.01451681 -0.061320662 0.013574917 -0.04887985 -0.005889372 0.014780792 -0.028087435 0.035921596
0.0042897332 -0.009048433 -0.016609708 -0.009364875 0.039260067 0.007441358 -0.011317601 -0.0144681875
00000000: ad64 993c 7a4c 5f3d 19fe 0a3d 9123 44bc
00000010: b9fd 10bc 3f1f 52bd c353 2c3d c666 cdbc
00000020: 619c 6dbc bfd1 ed3c e7b2 86bc dc3a 0ebc
00000030: f36c fabb 7a47 37bc 809d b13c 1e0c 0c3d
00000040: 9547 b43c dd10 a43b a1a8 10bc 2938 abbc
00000050: 1d72 143d 6b0e 0cbd 9635 7ebd 614c cabc
00000060: 2d48 243d 357a 163c 2198 b0bc 8be8 813b
00000070: 3af7 84bd e656 193d 3b5a 353d 4520 1fbd
00000080: d7ea c8bc 731d 3e3d b248 063d 5403 9fbc
00000090: e9ee b03b 600d 943c 2897 71bc 14ad e3bc
000000a0: c1c5 87bc 845b c3bc 4240 a2bc 37d7 e03c
000000b0: 750b 0c3d c8ed 22bc 2a65 d1bc b84f 08bd
000000c0: ead7 6dbc 602b 7bbd 5469 5e3c 3d36 48bd
000000d0: a2fb c0bb 232b 723c 9f17 e6bc 8622 133d
000000e0: e490 8c3b e13f 14bc 1511 88bc 226f 19bc
000000f0: 2acf 203d a3d6 f33b 766d 39bc fa0b 6dbc

sequential_1/dense_2/MatMul f4 [64, 2304]
-0.0062556854 -0.001780069 -0.010558401 0.06128299 0.07435711 -0.08801792 0.093120985 0.101417266
-0.01330506 0.028578978 0.12584528 0.04597482 -0.041654862 -0.0666172 0.031775467 -0.051329058
0.03701648 -0.027445273 0.046526495 -0.05960351 0.007668844 -0.017148407 0.1343117 -0.058407247
0.07124508 -0.00053022965 0.038736816 0.090966694 0.056700483 0.11766075 0.051245686 0.09194184
-0.027641214 -0.016854184 0.116342075 -0.04491871 0.0020033864 0.06447737 -0.04392231 -0.14059962
-0.11543379 -0.04045816 0.12948836 0.16351677 0.01822692 -0.018855648 -0.088680245 -0.10501857
-0.01896079 0.09880738 -0.043172013 -0.018365081 0.05999506 -0.057400472 -0.042827997 -0.025536498
-0.056759093 0.11196401 -0.07572954 -0.062568925 0.07387078 0.11020536 0.1119209 -0.030680388
0.06233991 -0.051118005 -0.053364113 0.1534772 0.09469142 -0.037101906 0.014936913 0.019425381
-0.059651203 0.07618454 0.028424952 0.052853897 -0.027063856 -0.054235026 -0.008644513 0.043681666
-0.022282436 0.056582913 0.03023702 -0.017830178 -0.060091306 0.031619694 -0.006081254 0.02735999
0.06769194 -0.01586851 0.10191107 0.04545765 -0.0195818 -0.02362375 -0.010478887 -0.009736967
0.0611932 -0.030054072 0.054285765 0.07489656 -0.13275668 -0.05558633 -0.049446687 0.006207068
0.022120034 0.016958933 0.028754225 0.0030095992 -0.03051827 0.002997092 -0.0660838 0.03247128
-0.07367527 0.03586728 0.005484115 0.007962887 0.047856472 -0.00404374 0.087912 0.01114622
0.018182185 0.091831796 -0.08713182 -0.070641175 -0.09751718 0.0065091206 0.036440276 -0.05187249
-0.02110533 -0.014131761 0.000870041 0.08955433 0.061652172 -0.039622605 -0.02458453 -0.058024596
-0.04757582 0.043177195 0.13288899 0.0370959 -0.048624914 0.0058569764 -0.03701403 0.06912599
-0.057254605 -0.089397535 0.055912685 -0.035453208 0.05900504 -0.025203591 0.046629336 0.026589507
0.06918772 -0.06822894 0.04951158 -0.09088404 -0.0055395043 0.11723654 0.08520609 -0.024511624
-0.0024090838 -0.079289466 0.033024948 -0.011147013 0.034398373 -0.025015462 -0.08200297 -0.08417688
0.07387406 -0.018894602 -0.0066886847 0.1168325 -0.078998044 -0.11517525 -0.0016423243 -0.06999617
-0.034653608 0.07619259 -0.04902445 -0.014516966 -0.0045583947 -0.05374777 -0.01526555 0.028953794
-0.03713904 0.047700893 -0.12235776 -0.028730918 0.11841242 0.061706677 0.10374411 -0.1275821
-0.11635002 0.010393696 0.022333652 0.104357675 -0.076690346 -0.03606272 0.0018317914 0.01297217
-0.0010589907 0.10078492 -0.03946161 0.013895761 -0.011850777 0.09612955 0.06133287 -0.059482906
0.054011144 -0.022835 -0.05398795 -0.023710724 0.027047535 0.027488874 0.0057944166 -0.051611412
-0.047373313 -0.11448115 -0.012786845 -0.099835575 -0.030371334 0.016041907 0.06718771 0.041457284
-0.044591572 -0.0064141024 0.031235112 -0.024847938 -0.086716175 0.053098068 -0.14201993 -0.06631294
-0.022385694 -0.027594699 -0.057631344 0.023488156 -0.046682213 -0.10077482 -0.020938072 -0.048797034
-0.17409633 0.035920635 -0.07809301 -0.0045701633 0.07273374 -0.050082676 0.039221615 0.096322484
-0.005552347 -0.0015683372 -0.15666601 -0.013269633 -0.059883546 0.08340843 0.018161736 -0.122072935
00000000: 7efc ccbb 3451 e9ba 25fd 2cbc df03 7b3d
00000010: 8a48 983d bd42 b4bd 37b6 be3d dbb3 cf3d
00000020: 77fd 59bc 761e ea3c 96dd 003e 1850 3c3d
00000030: 4a9e 2abd 996e 88bd fe26 023d 6b3e 52bd
00000040: 989e 173d e9d4 e0bc 9192 3e3d cf22 74bd
00000050: ed4a fb3b d17a 8cbc 0289 093e 703c 6fbd
00000060: f1e8 913d 1cff 0aba 7faa 1e3d bf4c ba3d
00000070: c43e 683d 1ff8 f03d ffe6 513d 014c bc3d
00000080: d46f e2bc c911 8abc c144 ee3d aefc 37bd
00000090: 3f4b 033b b60c 843d e1e7 33bd 59f9 0fbe
000000a0: 8d68 ecbd 75b7 25bd 9998 043e f170 273e
000000b0: 9f50 953c 2977 9abc fd9d b5bd fa13 d7bd
000000c0: a953 9bbc 865b ca3d 23d5 30bd 5e72 96bc
000000d0: 61bd 753d c21c 6bbd 696c 2fbd eb31 d1bc
000000e0: 397c 68bd 634d e53d 1718 9bbd 2324 80bd
000000f0: 9049 973d 59b3 e13d c936 e53d 7055 fbbc
00000100: 2258 7f3d 1d61 51bd 5494 5abd 2129 1d3e
00000110: 93ed c13d 2bf8 17bd f4b9 743c fa21 9f3c
00000120: d254 74bd a406 9c3d 72db e83c 547d 583d
00000130: 05b5 ddbc 8c25 5ebd b7a1 0dbc 8ceb 323d
00000140: a889 b6bc 7cc3 673d a1b3 f73c 9810 92bc
00000150: 4d22 76bd a783 013d 4245 c7bb 0f22 e03c
00000160: 12a2 8a3d adfe 81bc c0b6 d03d cd31 3a3d
00000170: 036a a0bc 9886 c1bc a3af 2bbc cd87 1fbc
00000180: b9a5 7a3d f533 f6bc c05a 5e3d 5e63 993d
00000190: 5ef1 07be 7eae 63bd 9c88 4abd a964 cb3b
000001a0: 1335 b53c 76ed 8a3c fb8d eb3c b23c 453b
000001b0: 7301 fabc dc6a 443b f156 87bd 9b00 053d
000001c0: 0fe3 96bd 92e9 123d 17b4 b33b c576 023c
000001d0: 2605 443d 5a81 84bb 350b b43d a39e 363c
000001e0: cef2 943c 4f12 bc3d 2b72 b2bd 52ac 90bd
000001f0: 16b7 c7bd 764a d53b 6642 153d 4078 54bd
00000200: 16e5 acbc e788 67bc 7713 643a 4368 b73d
00000210: fd86 7c3d 504b 22bd 7f65 c9bc 33ab 6dbd
00000220: ddde 42bd 92da 303d 0d14 083e dff1 173d
00000230: eb2a 47bd e1eb bf3b 069c 17bd ed91 8d3d
00000240: ce83 6abd 0e16 b7bd b304 653d 6237 11bd
00000250: 45af 713d c377 cebc 67fe 3e3d 3dd2 d93c
00000260: 4bb2 8d3d 9dbb 8bbd a8cc 4a3d 6921 babd
00000270: bb84 b5bb b619 f03d 8880 ae3d 9acc c8bc
00000280: b8e1 1dbb 8462 a2bd 2b45 073d f6a1 36bc
00000290: 4fe5 0c3d 3aed ccbc 2cf1 a7bd ee64 acbd
000002a0: 484b 973d dac8 9abc c12c dbbb e145 ef3d
000002b0: bac9 a1bd 00e1 ebbd 4243 d7ba 275a 8fbd
000002c0: f1f0 0dbd dc0a 9c3d ddcd 48bd 92d8 6dbc
000002d0: 965e 95bb 9f26 5cbd 5c1c 7abc 8230 ed3c
000002e0: 1b1f 18bd 0362 433d b596 fabd 1a5d ebbc
000002f0: 3682 f23d 24c0 7c3d cb77 d43d e2a4 02be
00000300: eb48 eebd 524a 2a3c 10f5 b63c 7ab9 d53d
00000310: d40f 9dbd 81b6 13bd b818 f03a 3989 543c
00000320: d5cd 8aba 5368 ce3d 7fa2 21bd 0cab 633c
00000330: c329 42bc 92df c43d 2d38 7b3d 59a4 73bd
00000340: ca3a 5d3d 7710 bbbc 7822 5dbd fe3c c2bc
00000350: cb92 dd3c 5930 e13c 17df bd3b 7d66 53bd
00000360: 850a 42bd 1875 eabd ea7f 51bc 9876 ccbd
00000370: 4ecd f8bc 516a 833c b699 893d 1dcf 293d
00000380: a7a5 36bd 642d d2bb c7e0 ff3c e78d cbbc
00000390: 4098 b1bd 5c7d 593d ac6d 11be 14cf 87bd
000003a0: 3462 b7bc 470e e2bc d80e 6cbd 3c6a c03c
000003b0: d935 3fbd 0763 cebd 5286 abbc 66df 47bd
000003c0: 4f46 32be 8421 133d 3aef 9fbd 4fc1 95bb
000003d0: 6df5 943d 7e23 4dbd d8a6 203d b944 c53d
000003e0: 76f0 b5bb aa90 cdba 0e6d 20be e068 59bc
000003f0: 7348 75bd 0ad2 aa3d ecc7 943c 6001 fabd

sequential_1/dense_3/MatMul f4 [2, 64]
0.3370454 0.22358942 0.12885498 -0.24979003 -0.008392664 -0.2505746 0.27909756 0.32921034
-0.3066794 -0.10336314 -0.32453936 -0.22347938 -0.1698014 -0.11428851 0.31905025 0.2720249
0.31138843 0.014672814 -0.4409344 -0.13836774 0.31471035 -0.28524718 -0.1157696 -0.2752987
0.11140243 0.10007745 0.095663376 0.32785073 0.04495835 0.37208197 0.26595604 -0.23965126
-0.23729983 0.09900752 0.36007157 -0.040625222 -0.09261704 0.33557275 -0.19511455 -0.18887772
0.1156818 -0.3272634 -0.23052463 0.113037184 -0.017553162 -0.2796661 -0.22460029 0.038011745
-0.11044557 -0.07202975 0.31894147 -0.20156768 -0.28795832 0.18169919 -0.2526901 0.32739195
0.2827704 -0.26128402 -0.28079507 -0.15966627 0.06342204 0.2547257 -0.10925674 0.016992856
0.101338655 -0.04199375 -0.22181502 -0.1629298 0.21973276 0.14588271 -0.032162752 -0.21837229
0.28408724 -0.34177765 0.32243317 -0.046107747 -0.22756794 0.20446955 0.017074572 -0.26428464
0.013501454 -0.12519076 0.32529154 0.08260665 -0.11367156 0.10936844 0.13074817 0.12953348
-0.19427487 -0.2271057 -0.2587029 0.18160383 0.13599922 -0.19056882 0.04997572 0.08015854
-0.11156574 -0.18332213 -0.08795633 0.21314012 0.03753127 -0.3618716 0.2867697 -0.06392733
0.24709238 0.26038083 -0.15026265 -0.12828241 -0.2537892 -0.18727286 0.10192937 0.16102593
0.30171376 0.2602308 0.12319654 0.32942262 0.008693561 -0.28746203 0.26949477 -0.35486317
-0.20516911 -0.29008222 0.08311529 0.18711987 -0.39965436 -0.047232617 0.16882995 0.19135608
00000000: 3791 ac3e a0f4 643e 8ff2 033e f5c8 7fbe
00000010: 6281 09bc 504b 80be e0e5 8e3e 428e a83e
00000020: 1505 9dbe 0eb0 d3bd 062a a6be c7d7 64be
00000030: 6be0 2dbe 1810 eabd 8e5a a33e d946 8b3e
00000040: 4e6e 9f3e 3e66 703c 27c2 e1be 46b0 0dbe
00000050: b721 a13e eb0b 92be 9d18 edbd f4f3 8cbe
00000060: f526 e43d 68f5 cc3d 29eb c33d 0ddc a73e
00000070: 3f26 383d 8781 be3e 642b 883e 2467 75be
00000080: bafe 72be 74c4 ca3d 4d5b b83e a266 26bd
00000090: 01ae bdbd 31d0 ab3e 1ccc 47be 2969 41be
000000a0: 94ea ec3d 128f a7be a60e 6cbe 0a80 e73d
000000b0: a6cb 8fbc 6530 8fbe 9efd 65be 34b2 1b3d
000000c0: 4931 e2bd 5584 93bd 4c4c a33e c267 4ebe
000000d0: 466f 93be 5a0f 3a3e 9960 81be eb9f a73e
000000e0: 48c7 903e 05c7 85be 5fc4 8fbe 8e7f 23be
000000f0: 6ae3 813d 686b 823e ffc1 dfbd 9a34 8b3c
00000100: a48a cf3d a301 2cbd 7a23 63be 12d7 26be
00000110: a001 613e 4762 153e 17bd 03bd fc9c 5fbe
00000120: e273 913e 7bfd aebe f615 a53e 7adb 3cbd
00000130: 9207 69be 7760 513e f9df 8b3c 5150 87be
00000140: 3435 5d3c 0232 00be 9d8c a63e ad2d a93d
00000150: a3cc e8bd 90fc df3d d9e2 053e 6da4 043e
00000160: feef 46be 668e 68be b574 84be 5bf6 393e
00000170: 6143 0b3e 7924 43be 57b3 4c3d 292a a43d
00000180: 947c e4bd ccb8 3bbe 7322 b4bd 6741 5a3e
00000190: 64ba 193d 3c47 b9be 7ad3 923e 55ec 82bd
000001a0: c905 7d3e a350 853e 74de 19be 775c 03be
000001b0: a8f0 81be 75c4 3fbe 58c0 d03d fbe3 243e
000001c0: 3a7a 9a3e f93c 853e 784e fc3d 15aa a83e
000001d0: 706f 0e3c 392e 93be 38fb 893e a0b0 b5be
000001e0: da17 52be a885 94be 5938 aa3d 5a9c 3f3e
000001f0: 7f9f ccbe fd76 41bd c2e1 2c3e d9f2 433e
