app/src/main/ml/covid_model.tflite (tflite, 708156 bytes, 10 tensors)

sequential_1/conv2d_1/Conv2D/ReadVariableOp f4 [32, 3, 3, 3]
000000 dc 90 2c be 9b a6 85 3c 3c 12 d9 bd a4 37 1c be
       -0.16852134 0.016314795 -0.10599181 -0.152556
000010 12 10 41 be 6a 13 0f be a8 67 89 bd 75 97 f2 bd
       -0.18853787 -0.1397225 -0.06709224 -0.118452944
000020 e8 62 3b bd 39 8d bb bd 84 bb 57 3c 4c 62 bb bb
       -0.04574862 -0.091577955 0.013167266 -0.005718505
000030 9b 65 8a 3d b9 9f f3 bd e7 db cf bd 5a 03 f7 3d
       0.06757661 -0.11895699 -0.10149365 0.12061186
000040 a9 83 61 bd 17 7b c7 3b 31 49 ac 3d 17 f3 d6 3c
       -0.0550572 0.0060876715 0.08412398 0.026238961
000050 2b 35 10 3e 48 c8 51 3e 99 78 86 3d b9 96 eb 3d
       0.14082782 0.20486557 0.06565971 0.115033574
000060 ba 88 07 3e 20 f0 ae bb 5d 5f c1 3d f2 d6 00 be
       0.13235751 -0.0053386837 0.09442017 -0.12581995
000070 86 3a 45 bd 64 66 52 bd 7c 8b 95 3d 24 e3 cb bd
       -0.048151515 -0.05136718 0.07301995 -0.09955433
000080 7b 86 01 3e 70 4f 98 bc 7f e0 2b bd 9c 40 b3 3d
       0.12648956 -0.018592566 -0.041962143 0.08752558
000090 16 53 eb 3d 8f 64 24 3d bf 64 de bd 72 54 8f 3d
       0.11490457 0.040134963 -0.108590595 0.069985285
0000a0 98 78 dd 3d 2b a9 09 3e ac 03 88 3d 16 e9 8f 3d
       0.10814017 0.13443439 0.06641325 0.070268795
0000b0 39 6e fd bb 1d 5a 80 3c 3f 21 61 bd 8d 62 13 3e
       -0.007734087 0.01566797 -0.054963347 0.14393063
0000c0 e9 b0 de 3d 3f ac 02 3e 98 e3 a4 bc 43 99 09 be
       0.10873587 0.12761019 -0.020128056 -0.13437371
0000d0 44 76 cc bd 64 b5 b6 bd d8 2b 93 bd 03 4b 92 3d
       -0.09983495 -0.08921316 -0.07186097 0.071432136
0000e0 43 d4 8d bc 36 b0 40 bb 7d a9 b2 bd c7 d8 7f bd
       -0.017313128 -0.0029401905 -0.087237336 -0.062462594
0000f0 22 12 94 bd 56 25 f9 3d ba db b0 3c a8 03 fc 3d
       -0.07230021 0.121653244 0.021589149 0.12305385
000100 65 5f e1 3d 6b 95 0c be d4 c7 8f bd da b0 d5 bd
       0.11004523 -0.13728873 -0.07020536 -0.104341224
000110 22 ec 86 bd fe ef 0a bd fa e3 5c 3d 9e 34 2a 3e
       -0.065880075 -0.03392028 0.053928353 0.16621634
000120 e2 20 20 be 3a 2c c8 bd 54 30 2a be a6 56 26 3e
       -0.15637544 -0.097740605 -0.16619998 0.16243991
000130 64 d5 c5 bd 5e f4 f6 3d 5a 72 5f 3c 03 d0 2c bc
       -0.09659842 0.12058328 0.013638103 -0.010547641
000140 b8 20 31 3e 6d 13 72 3e 7f b5 4e 3e 65 5a ad 3c
       0.17297637 0.23640223 0.20186423 0.021161268
000150 ed d3 67 3e 21 f0 67 3e ee ab d1 3d 3a 61 dd 3c
       0.22639437 0.22650196 0.10237871 0.0270239
000160 fc 57 67 3d 99 80 fc 3d 64 1a 58 bd 99 a8 eb bd
       0.056480393 0.123292156 -0.052759543 -0.11506767
000170 f8 56 92 bc 97 50 f2 3d ef 90 aa 3d c9 96 ab bd
       -0.017863736 0.118317775 0.08328425 -0.08378369
000180 1b 28 7e 3c 3c bb ce bd d4 1b c8 bd fd 04 53 be
       0.015512492 -0.10094306 -0.09770933 -0.20607372
000190 67 f1 8b bd 51 2a 79 be 7b 1f 77 bc 36 2e 86 3d
       -0.06833153 -0.24332549 -0.015083189 0.06551783
0001a0 70 26 fa bd 8b 6a 9f bd f6 8b 25 be cc 14 5a 3d
       -0.122143626 -0.07783993 -0.16166672 0.05324249
0001b0 2a 26 83 bd 0b cb ac 3d 19 47 5c bc 19 33 98 bd
       -0.064037636 0.08437165 -0.013444685 -0.07431621
0001c0 6f a7 0e be e2 bd 3f be e8 a2 2e 3e 8f 35 2f bd
       -0.13931058 -0.18724778 0.17054331 -0.042775687
0001d0 a3 c2 8d 3b eb 25 5c be 16 b4 e0 bd f3 27 17 3d
       0.004326181 -0.2149884 -0.10971849 0.036903333
0001e0 bf 6e 8d bd 94 08 d2 3c 43 04 0a be 9e b4 53 3e
       -0.06905889 0.025638856 -0.13478188 0.20674369
0001f0 4a 62 41 3e 1e 13 39 3e e1 7b 10 3d 81 54 cf bd
       0.1888515 0.18073699 0.03527439 -0.1012354
000200 03 8e 02 3e ac fe 37 3e f3 ac 03 3e 52 f8 51 3e
       0.12749486 0.17968243 0.12858944 0.20504883
000210 a9 0a 11 be 43 55 30 be ce 1b 4d be 51 6a 8a 3d
       -0.14164223 -0.17220025 -0.20030138 0.067585595
000220 37 b5 2d 3e a7 09 7a 3d 81 dc 98 3d 77 1e ef 3d
       0.16963659 0.06104436 0.07463933 0.116757326
000230 ba 25 1f 3e 2f 12 c6 3d 07 09 95 bd 0f 2e 1c 3e
       0.15541735 0.09671437 -0.072771125 0.15251945
000240 92 10 70 3c 0c f7 b1 3d ed c4 68 bd ab b6 f2 3c
       0.014652388 0.086896986 -0.056828428 0.029628119
000250 70 a1 ae bd d7 21 54 3d 7c f2 ff 3d 59 96 a7 3c
       -0.085268855 0.051790085 0.12497422 0.020457434
000260 52 b6 f3 3d c3 c7 0f 3d 77 22 3b bd 2a c2 9c 3d
       0.11900009 0.035102617 -0.045687165 0.07654221
000270 1f cc 2a bc 21 09 1b 3d 44 3c 7e bd ad 17 13 bd
       -0.010424643 0.037850503 -0.062069193 -0.03591125
000280 67 73 49 bd 8d 24 a9 3d 0b 4b f8 bd ed b7 99 bd
       -0.049182322 0.08258925 -0.12123688 -0.07505784
000290 63 16 99 3d 95 2c 13 be 40 e1 30 bd 7c 56 f2 bd
       0.07474973 -0.14372475 -0.043183565 -0.11832902
0002a0 b1 cf 4f bd 85 5d cd 3d 83 a0 16 3e 99 24 20 3d
       -0.05073518 0.10027603 0.14709668 0.039097402
0002b0 ac d6 31 be a0 6c cc bd b9 99 d6 3d 58 69 b3 bc
       -0.17367047 -0.09981656 0.10478539 -0.021900818
0002c0 09 33 a8 3d 9b 7e 06 be 90 2c 67 3d d8 e3 1c 3c
       0.08212859 -0.13134234 0.056438982 0.009575807
0002d0 51 ac 10 bd 75 3d 44 bb 9e 63 d6 bd a4 1b b0 3d
       -0.035320584 -0.0029943858 -0.10468219 0.08599022
0002e0 55 27 04 be f8 26 2f be 79 99 60 3e 75 e7 68 3e
       -0.12905629 -0.17104709 0.21933545 0.22744544
0002f0 d6 78 7f 3e 5d 86 89 3d a5 14 19 3d 15 5b 9c ba
       0.24948439 0.06715081 0.037373204 -0.0011929
000300 d9 70 b1 bd fb 3f 1e be 9c 55 a8 3d fa 14 2c be
       -0.08664102 -0.15454094 0.08219454 -0.16804877
000310 78 d6 2c 3d ea 8b 4c 3d 54 d2 12 3e da 69 a6 bd
       0.04219672 0.04993812 0.14338046 -0.08125658
000320 f5 ca 10 3e 98 9e 0b bd 42 91 e9 bc 8c 78 ed bd
       0.14139922 -0.034086794 -0.028511647 -0.11595258
000330 d1 8e 03 be c4 19 2b be 10 ab b4 3d 3c f9 07 3e
       -0.12847449 -0.16709048 0.0882169 0.13278669
000340 40 61 3e 3d 2e a9 51 bd 8e 1e 04 3d 04 02 63 3d
       0.046479464 -0.051186733 0.0322557 0.055421844
000350 66 0e be 3d 47 1d 04 bd 1f 6b 11 be 57 03 a4 bb
       0.0928009 -0.032254484 -0.1420102 -0.005005281
000360 d1 6c 77 be 00 ae 98 bd 30 cc 94 bc d5 b4 59 bd
       -0.24162604 -0.07455063 -0.01816377 -0.05315097
000370 fd e5 0b be d5 10 e3 3b 3d 58 e7 3d 13 2c f7 3d
       -0.13661952 0.006929497 0.11296127 0.12068953
000380 a8 95 53 3e 2c a1 54 be 72 40 1c be 6e b4 4b be
       0.20662558 -0.20764607 -0.15258959 -0.19893047
000390 9d 61 09 3d ee d1 d1 bc 10 03 5e bd ec 40 9d bc
       0.033540357 -0.025612798 -0.05420214 -0.019195996
0003a0 c3 7a 44 3e 6b 07 56 3e 55 e2 07 3e f7 d5 bb bd
       0.19187455 0.20901267 0.13269933 -0.0917167
0003b0 a7 9f d7 3d d2 82 87 3d eb 8e 2a be 6f 52 95 3d
       0.10528498 0.06616749 -0.16656081 0.072911136
0003c0 e8 2c 9c bd f0 93 8f 3d 27 c7 82 3c d5 84 ff 3a
       -0.07625753 0.07010639 0.015964104 0.0019494543
0003d0 33 6c 53 bd fc 82 d3 bd a9 3b 5d be e6 36 68 3c
       -0.05161686 -0.10327718 -0.2160479 0.014173245
0003e0 89 2c 53 be d4 19 35 3e 8a 1c 59 3e f4 09 4f 3e
       -0.20622458 0.17685634 0.21202293 0.2021864
0003f0 4b 91 3d 3e cf 45 31 3e 69 8d f9 3d ee 8d c3 bd
       0.18512456 0.17311786 0.12185175 -0.09548555

sequential_1/conv2d_1/Conv2D_bias f4 [32]
000000 12 7a 38 3d 18 4a a4 bd a1 c0 c1 3c e5 db 68 bd
       0.04503829 -0.08021945 0.023651423 -0.056850333
000010 06 d8 d1 3b 00 80 fa bd 7d 26 21 3b 89 1c 14 bd
       0.006403926 -0.12231445 0.0024589591 -0.036160026
000020 7a a2 b0 3c 51 55 0e 3c 12 bb a0 3b 95 33 b0 3c
       0.02156185 0.008687333 0.004905113 0.021508971
000030 79 6b ea bc 66 bb 95 ba 63 ec d1 bb e2 dc a7 bd
       -0.0286157 -0.0011423647 -0.0064063533 -0.08196427
000040 11 54 ab 3c 97 fc e2 bb 53 40 f4 3b a5 0b 68 bb
       0.02091411 -0.0069270837 0.007453957 -0.0035407331
000050 34 7e 97 3b 8f ae 88 bd b3 49 a3 bc 83 45 70 bd
       0.004623199 -0.066739194 -0.019932603 -0.05866004
000060 e3 dd 49 bc 5a aa 5b bc 97 f4 c1 3d d5 4e ae bd
       -0.012320968 -0.013407314 0.0947048 -0.0851113
000070 ea e9 04 3c ce f1 dc 3c 80 81 9e bc a0 63 91 3d
       0.00811241 0.02697077 -0.01934886 0.0709908

sequential_1/conv2d_2/Conv2D/ReadVariableOp f4 [32, 3, 3, 32]
000000 ac e9 0b be ad 3a 8c 3d 40 16 c0 bd ff ad c5 bd
       -0.13663357 0.06847129 -0.09379244 -0.09652328
000010 ca ec 05 3e 05 73 a8 bd 93 21 c9 3d 8e 30 e4 3d
       0.13078609 -0.08225063 0.09820857 0.111420736
000020 a1 08 b0 bd da 76 d1 3b e2 d9 de bd 0a 1e 55 3d
       -0.08595396 0.006392342 -0.108814016 0.0520306
000030 d9 23 02 be 09 43 a6 3d fc 26 89 bd 83 d7 97 bb
       -0.12708987 0.08118255 -0.06696889 -0.0046338453
000040 6c ba d1 bd d3 8a dd bd 0c e9 bf bb 62 4b aa 3d
       -0.10240635 -0.10817494 -0.005856639 0.083151594
000050 a0 b3 b6 bd ca ef 06 3d 19 16 33 3c e5 0b b7 3d
       -0.089209795 0.032943524 0.010930561 0.089378156
000060 22 3b 4d bc 71 0e d7 bd 95 6f b1 bd 4a c2 96 3d
       -0.012526305 -0.10500801 -0.08663861 0.073612764
000070 76 83 23 3d 22 84 09 be 35 15 6c bd ff 5f 1c bd
       0.039920293 -0.13429311 -0.057637412 -0.038177487
000080 97 94 a4 3d 66 78 cc 3b c6 c7 d9 bd 8c 34 26 3d
       0.08036154 0.0062399385 -0.10633807 0.040577456
000090 23 43 b2 bb a9 4e 44 bd 8f 28 85 bd aa ae df bc
       -0.005440132 -0.04792658 -0.065018766 -0.027304966
0000a0 34 76 a3 3d f5 b6 87 bd b2 ac af 3b eb 03 b3 bd
       0.0798153 -0.06626693 0.005361163 -0.08740982
0000b0 c6 9a fc 3d 5c cd 60 b9 5d b8 31 bc 07 17 c0 bd
       0.12334208 -0.00021438807 -0.010847178 -0.09379392
0000c0 39 51 b2 3d f7 3e d3 bd 51 74 0b be 74 44 4e bd
       0.08706898 -0.10314744 -0.1361859 -0.05035825
0000d0 41 ba a9 3d 33 d4 0b 3e 76 ca c0 bd ee e9 81 3d
       0.08287478 0.13655166 -0.09413616 0.06343447
0000e0 46 57 ae bd f5 5f c0 3d 5c a2 58 3d 12 fa d5 bd
       -0.0851274 0.09393302 0.052889213 -0.10448088
0000f0 47 53 29 bd 18 1b 01 be a2 35 ea bd 12 c9 8e bd
       -0.041339185 -0.12607992 -0.11436011 -0.06971945
000100 0a 45 e7 bd 29 66 f8 3c 34 5f d6 ba 3c cf 9c 3d
       -0.11292465 0.030322151 -0.0016355277 0.07656714
000110 50 51 cc 3c 08 1d 0e be fe cc 24 be cb 95 8a 3c
       0.024941117 -0.13878262 -0.16093823 0.01691713
000120 77 31 28 be a1 df fa 3c 1c ad 8c 3d 45 9d a1 3d
       -0.1642512 0.030624213 0.068689555 0.07891325
000130 61 47 fa bc c4 7b b6 3d 71 1e 25 be 80 d8 80 3d
       -0.030551614 0.08910325 -0.16124894 0.06291294
000140 36 1a b8 3c 6c 6b e0 3d 34 9e 99 3b 21 92 7e bc
       0.022473436 0.10957989 0.0046880487 -0.0155377695
000150 2c d9 5a bd 8d ac 14 be 63 5a 6d bd 41 04 17 be
       -0.053429767 -0.14518948 -0.057947528 -0.14747716
000160 8a 71 7e 3c 5c 8d a1 3d f7 9c df 3c e2 8c 03 3d
       0.0155299995 0.0788829 0.027296526 0.03211678
000170 57 35 ca 3b 1e 8d 86 3b b8 58 e1 3c 0d 21 06 be
       0.0061709094 0.004106178 0.027508125 -0.13098545
000180 d1 86 e7 3d be 44 a6 bd 44 03 1d be 5b 46 98 3c
       0.11305011 -0.0811858 -0.15333277 0.018588236
000190 e1 bc a5 3c 95 2e 65 3b af c8 da 3d 56 33 9f 3c
       0.020231666 0.0034970392 0.106828086 0.019433659
0001a0 ee 09 a9 3a 18 d3 37 3d 20 d2 eb bd f6 00 b3 bd
       0.0012896636 0.04487905 -0.115146875 -0.08740418
0001b0 45 7f e6 3d e4 a8 95 bd dc 57 02 3d 8e 23 4d bd
       0.112547435 -0.07307604 0.03182207 -0.050082736
0001c0 bb 13 8b bd 7e 12 a3 bd e5 b7 a8 3d 47 f1 a0 3d
       -0.06790873 -0.079625115 0.082382 0.0785852
0001d0 7a d9 82 bb b3 50 f2 3c 60 e5 43 bd 60 2b c2 3d
       -0.0039932104 0.029579496 -0.04782617 0.094809294
0001e0 4a ba 19 be 1d 40 06 be a4 a0 7b bd 48 7d 09 be
       -0.1501247 -0.13110395 -0.061432496 -0.13426697
0001f0 d3 83 94 3c 29 3f 9a bd 54 86 64 3d 3a 60 26 bd
       0.018129265 -0.07531578 0.055792168 -0.040619113
000200 a9 e0 97 bd 29 97 0f 3d 9e a6 f5 3d d5 9b a8 3b
       -0.074158974 0.035056267 0.1199467 0.0051455298
000210 7e 32 42 3d f7 8f 2c 3c f9 5b 6e bb 6f 11 ca bd
       0.047411434 0.010532371 -0.0036370738 -0.098666064
000220 92 d9 e5 3c f7 e7 1a bd 86 cc ce bc b8 c9 a7 3d
       0.028057847 -0.037818875 -0.025244009 0.08192772
000230 2f 0b 8b bd 29 a5 08 be 9f 1b ce 3d 47 a5 0c be
       -0.067892425 -0.13344254 0.10063862 -0.13734923
000240 e8 a9 10 be b4 a6 b4 bc 01 0a c8 bc 21 7c e2 3d
       -0.14127314 -0.022052146 -0.024418833 0.11058832
000250 d5 a1 57 3d 2b f3 ea 3d 5c 9a 6b 3c 37 a5 bf bc
       0.05264457 0.11472162 0.014380064 -0.02339421
000260 79 1b b7 3d d5 65 ac bd 9d bc e5 3c 81 90 e6 bd
       0.08940787 -0.084178604 0.02804404 -0.11258031
000270 73 8b 68 bd b6 c4 b3 bc 3d 97 f9 3d c5 4a 95 3d
       -0.056773614 -0.021944385 0.121870495 0.07289652
000280 03 b5 db 3d cb 7b 83 bd 31 64 37 be 0b d0 3b bd
       0.107278846 -0.06420096 -0.17909314 -0.045852702
000290 77 d4 1a be 6a 56 d1 bc 93 33 e6 bb 78 f1 85 bd
       -0.15120111 -0.0255539 -0.007025191 -0.06540197
0002a0 f7 21 be bc 8d f0 8d 3d 02 29 40 bd c4 22 bb bd
       -0.023209555 0.06930647 -0.046914108 -0.091374904
0002b0 a9 99 bd 3d 7a fb bc bd f7 05 bb 3c e4 a9 55 bd
       0.09257824 -0.09227653 0.022829993 -0.052163973
0002c0 8f 43 85 bd fb ff 82 bd 4a 30 e0 bb da a0 01 3e
       -0.065070264 -0.06396481 -0.006841694 0.12659016
0002d0 ed b7 ec 3c fd ae a1 bd 70 93 04 be ad 0e 8d 3d
       0.028896296 -0.078947045 -0.12946868 0.06887565
0002e0 01 38 ff bd 48 ba 2a 3d 93 84 cc bc b4 15 f7 bd
       -0.12461854 0.041681558 -0.02496556 -0.120646864
0002f0 4b ab 30 3c 5b 23 f4 3d bf 5e 89 3d da 4c a8 3d
       0.010783027 0.11920806 0.067075245 0.08217783
000300 9a 56 b6 3c ff da 53 bd 35 23 32 be 04 e0 f5 3d
       0.022258092 -0.051722523 -0.17396243 0.12005618
000310 f0 e3 f8 bc 3f e3 bb bd ab 03 1b bd cc 78 1e be
       -0.030382127 -0.09174203 -0.037845295 -0.15475768
000320 f1 23 01 be 42 e6 b4 3c 71 2d 80 3d 6d 9a d8 3d
       -0.12611367 0.022082452 0.06258667 0.105763294
000330 5e 0d 16 be 71 f8 83 bd fc ab be bd d6 a4 be 3d
       -0.14653537 -0.06443871 -0.09310147 0.09308784
000340 84 d2 fe 3d 10 59 f8 bd 81 4a ad 3d f9 4f 57 bd
       0.124424964 -0.12126362 0.08461476 -0.052566502
000350 56 5c 93 3d 58 66 8d 3c a8 51 4a bd ef 07 ca bc
       0.07195346 0.017260715 -0.04939428 -0.024661986
000360 52 f2 57 3d be 71 0a be 73 c3 0e bd 93 5b 94 3c
       0.05272133 -0.13519952 -0.034854364 0.018110072
000370 d8 f1 f7 bd b4 d9 7b bc 76 d1 4c bd bd e2 9e bc
       -0.12106675 -0.015371729 -0.050004445 -0.019395227
000380 d3 03 fb bd 22 e2 bc bd 52 89 1e be 52 14 54 bd
       -0.12256589 -0.09222819 -0.15482071 -0.05177719
000390 4e 29 9a 3c 76 45 ad 3d 6a 64 e7 3b 94 ae d3 3d
       0.018818524 0.08460514 0.007061531 0.103360325
0003a0 9d 68 b9 bc c1 f3 e1 3d 1a 5e c2 bd 06 73 13 be
       -0.022632891 0.110328205 -0.09490605 -0.14399347
0003b0 d3 b1 00 bd 2a d7 12 3e 3a 5d f6 bc 21 d6 f4 3d
       -0.031419586 0.14339891 -0.03007375 0.11954904
0003c0 2c 14 b5 bd 44 b4 13 3c ce f6 59 bd dc 45 11 3d
       -0.08841738 0.009015147 -0.053213887 0.035467014
0003d0 f2 0e fc bd 00 38 e7 3b 8b d5 06 3e 2c 5a dc 3d
       -0.12307538 0.0070562363 0.13167398 0.107593864
0003e0 9d fe 45 3c c2 d1 c4 3d 07 fd 0d bd 8e 28 bc 3c
       0.01208463 0.09610321 -0.034665134 0.022968557
0003f0 06 79 ff bd 7f 33 9f 3d 4b 76 07 bd 10 8b 99 3b
       -0.12474255 0.07773494 -0.033071797 0.004685767

sequential_1/conv2d_2/Conv2D_bias f4 [32]
000000 96 5e 84 bc e2 39 b4 bc ad 1f 06 bd ab ab 28 bd
       -0.016158383 -0.022000257 -0.032745052 -0.04117934
000010 b5 f8 71 3c 54 45 84 bc 58 20 ed bc b3 63 81 bd
       0.014768769 -0.01614634 -0.028946087 -0.06317844
000020 55 8a 0b 3d ad 01 be bd d0 bc ee bb 9a e6 04 bd
       0.03406747 -0.092776634 -0.007285692 -0.03244648
000030 06 72 51 bd fa 87 a3 3c 9b 95 8b bd e2 54 9c bc
       -0.05113413 0.0199623 -0.06815644 -0.019083444
000040 5a ac c9 bd d0 e9 ca bd 04 30 b7 bc bb 44 68 bd
       -0.098473266 -0.099078774 -0.022361763 -0.05670617
000050 15 a9 11 bd d0 4a e1 b9 94 12 4f 3b 70 f2 c4 3c
       -0.03556164 -0.00042971084 0.0031596767 0.024041384
000060 e0 18 8a 3c d8 b9 af bd c6 dc bd 3a 4b 11 ee bd
       0.016857564 -0.08580369 0.0014485351 -0.11624392
000070 88 2e 8a bd 5b ef 99 bc 16 43 97 ba cd e8 cf bd
       -0.067471564 -0.018790891 -0.0011540379 -0.10151825

sequential_1/conv2d_3/Conv2D/ReadVariableOp f4 [64, 3, 3, 32]
000000 b7 60 fe bc 08 8a 4f be 70 84 8c 3d c8 85 b7 bd
       -0.031051977 -0.20267498 0.06861198 -0.089610636
000010 21 ed 02 be 4a e3 3a bc 0f 82 c4 bd 36 98 e4 bc
       -0.1278577 -0.011406729 -0.09595119 -0.027904611
000020 82 5d 24 be 9e 45 28 3d 82 17 38 3d 67 c6 d7 bb
       -0.16051295 0.041082017 0.044944294 -0.0065849307
000030 64 a4 f4 bd 70 e6 9f 3d 2b 5a 1b 3d 96 af d6 3c
       -0.119454175 0.07807624 0.037927788 0.026206773
000040 71 aa df bd 52 fa 56 bc ad 80 8b 3d 23 a7 7a bd
       -0.10921181 -0.013121204 0.06811652 -0.06119455
000050 50 65 62 bd 6a a6 90 bb 39 d2 9d bc cb d6 92 3c
       -0.0552724 -0.0044143694 -0.019265281 0.017924687
000060 97 97 12 be 4e 6d 9a 3c e6 d8 c2 bc e9 8f 32 be
       -0.1431564 0.018850949 -0.023785066 -0.1743771
000070 f2 64 1b be eb 16 0e be d0 62 b8 bc fd d4 c3 bd
       -0.15175226 -0.1387593 -0.022508055 -0.09562109
000080 e6 b5 fd 3c 12 95 91 bd 53 d6 f9 bd ec 2c 0c be
       0.030970525 -0.07108511 -0.12199082 -0.13689011
000090 3d a5 c9 bd 79 25 e3 bc a6 69 7c be 40 bc ec bb
       -0.0984597 -0.02772783 -0.24649677 -0.0072245896
0000a0 16 79 ed bd c5 2d ac bd 4a 30 49 3d 06 9a db bd
       -0.11595361 -0.08407167 0.049118318 -0.10722737
0000b0 3d 06 2b be 56 9d 1b bd 46 d2 03 be d5 5f 83 bd
       -0.16701598 -0.037991844 -0.12873182 -0.06414763
0000c0 94 20 23 3d a2 4a 37 3d 6e 92 2d be cf f8 5b bd
       0.03982599 0.04474891 -0.1695039 -0.05370408
0000d0 c5 3a a9 bc d0 7d 26 be c1 70 9e 3d d9 3c 31 3d
       -0.020657906 -0.16258931 0.0773635 0.04327092
0000e0 40 5c ba bd 8c 31 42 be f5 4f 18 bd e5 5d 4a 3d
       -0.090996265 -0.18964213 -0.037185628 0.04940595
0000f0 20 61 40 bd eb c2 b7 3d 4d a2 e4 bd 6c ce bf bb
       -0.046967626 0.089727245 -0.11163769 -0.005853465
000100 a6 29 d7 3d 63 10 9a bd 2e 89 d3 bc a2 5a 81 bd
       0.10505991 -0.07522657 -0.025822248 -0.06316115
000110 ba 15 73 3d 5d 2c 09 be 81 da 47 be 4b 49 ac bb
       0.059346892 -0.1339583 -0.19516946 -0.0052577606
000120 75 a7 80 3d 07 66 44 be a3 34 60 bb d4 ba 09 be
       0.0628194 -0.19179545 -0.0034211061 -0.13450176
000130 44 e7 29 be 08 6e 9b bc ba 4f 03 be 0d 5f 8b bd
       -0.16592127 -0.018973365 -0.12823382 -0.06805239
000140 3d be 75 bc 8e c3 32 3b 00 bc 38 bd 30 54 06 be
       -0.01499897 0.0027277204 -0.045101166 -0.13118052
000150 08 71 4a be 1d c9 35 be 63 5a bd 3d c2 e0 54 3d
       -0.1976968 -0.177525 0.092457555 0.05197216
000160 3e 62 bc 3c 5e 3d 15 bc 1d 41 88 bd bf 83 2b be
       0.022996064 -0.009108869 -0.066530444 -0.16749476
000170 ba 13 3b 3c 43 10 4c bd 4c 52 1c 3e 36 e7 11 be
       0.011418277 -0.049820196 0.15265769 -0.14248356
000180 a8 7a 8a bc bc d4 e2 bd 7f fd 0c be 29 e6 2e be
       -0.01690419 -0.11075732 -0.13768576 -0.17079987
000190 22 83 2b 3e 45 37 00 be d2 91 3b bd 0f 17 44 be
       0.16749242 -0.12521084 -0.045793362 -0.19149421
0001a0 71 a8 01 bd 8c ff 65 bd 37 f8 3b be 93 bf d9 3d
       -0.03165478 -0.05615191 -0.18356405 0.10632243
0001b0 e4 e5 04 bd 5b 01 f9 bc 6e 8e 1d be f4 51 b8 3d
       -0.032445803 -0.030396154 -0.15386364 0.09000006
0001c0 b7 9e 27 be 00 79 96 3c 79 e3 58 be 8c b5 1e bd
       -0.16369139 0.018368244 -0.21180524 -0.038747355
0001d0 10 cc 93 3d 98 bf 6b be 61 5b 05 3d 65 4c fe 3c
       0.07216656 -0.23022306 0.03255785 0.031042287
0001e0 59 27 4f bd 4a 6a cd bc 76 ce 48 bd 2f 40 0e be
       -0.050574634 -0.025075097 -0.04902502 -0.13891672
0001f0 38 8d 48 3d 9a a4 d2 bc 10 8a 07 3e 4f 53 9b 3d
       0.0489628 -0.025713254 0.1323626 0.07584249
000200 27 1b b1 bd 66 d4 3a bd 85 ac 2f bd 0d b4 bd 3d
       -0.08647757 -0.045612715 -0.042889137 0.092628576
000210 4b f3 5a 3d 45 d7 ed bd c2 aa 4e be 40 80 f3 bd
       0.05345468 -0.11613325 -0.20182326 -0.11889696
000220 47 88 6d bd d2 02 8c bd 54 9b d6 bd b7 f4 d2 bc
       -0.057991292 -0.068364754 -0.10478845 -0.025751455
000230 b4 b3 c5 3d 53 cb 33 3c 6c 40 30 3d ad aa d0 bd
       0.09653416 0.010973769 0.043030187 -0.10188804
000240 f2 f5 1e be 0e ac 95 bd a8 2b 20 bd 34 40 56 bd
       -0.15523508 -0.073082075 -0.039104134 -0.052307323
000250 ae 80 04 3d a1 fd 87 bc 17 d6 fa 3d 04 79 02 3c
       0.03234928 -0.016600432 0.12247866 0.007963423
000260 27 ff 7f bd a2 75 17 be 06 88 f4 bd 6b fb 0a be
       -0.06249919 -0.14790967 -0.11940007 -0.13572471
000270 a8 80 81 bd 9f a7 68 bd bd 54 13 3e 76 e5 9c 3d
       -0.06323367 -0.05680048 0.14387794 0.07660954
000280 87 02 06 3e 43 c1 51 3e 7f c1 d3 3d 07 26 fe 3b
       0.13086902 0.2048388 0.10339641 0.007755998
000290 00 09 e5 bd 44 c0 8b bd 9a 7a 57 3d db 63 4f bd
       -0.11183357 -0.06823781 0.052607156 -0.05063234
0002a0 3d 5d 7f 3d 50 22 b9 bd 99 c7 8c 3d c4 98 17 bd
       0.06234478 -0.09039748 0.06874008 -0.037010923
0002b0 8b f1 2e 3d f0 e0 08 3b 39 70 fe bd 7a 1b 13 be
       0.042710822 0.0020886026 -0.124237485 -0.1436595
0002c0 77 1c 6a bd be 4c 35 bd d5 3a 9f bc ec 80 75 3c
       -0.057156052 -0.04426264 -0.019437233 0.014984351
0002d0 50 0c 42 bc eb 26 57 be 61 40 b8 3c 7b 9f 51 bd
       -0.011843756 -0.2101094 0.022491636 -0.051177483
0002e0 e8 b2 ce 3d 95 e4 b0 bd c7 4f 18 3d e0 01 cc 3c
       0.100927174 -0.086373486 0.037185457 0.024903238
0002f0 80 83 14 be 08 6e 2b bc b1 9c 48 3e ef 84 ef 3c
       -0.14503288 -0.010463245 0.19591023 0.029238192
000300 5f cc ad bd e7 07 03 3e 33 1e d9 bd b2 33 aa bc
       -0.08486246 0.12795983 -0.10601463 -0.020776603
000310 a2 4c 0b be d9 05 ca bd e6 df 45 bd 1d 1b 96 bd
       -0.13603452 -0.098643966 -0.04830923 -0.0732939
000320 1d 1d d5 bd 08 62 6a bd b2 0e 85 bd f2 82 21 be
       -0.104059435 -0.057222396 -0.064969435 -0.15772608
000330 74 90 ce 3c e9 30 2a 3e c4 c8 fb bc f7 80 bb 3d
       0.025215365 0.1662022 -0.030735381 0.091554575
000340 7b 22 16 be 71 a1 7a bc 47 f2 ec bd 10 06 be bd
       -0.14661591 -0.01529728 -0.11569648 -0.092785
000350 32 be f1 bd ba 16 e8 bd 76 a7 f7 3c 0b dd ce bd
       -0.11803855 -0.1133246 0.030231219 -0.10100754
000360 9d ff 9f bd 94 e6 cb 3c 00 74 44 3d dd 8f 12 3d
       -0.07812426 0.024890222 0.04796219 0.03578173
000370 ee 87 7c 3d 76 d9 94 bd 9b 48 a4 3d 1a c5 47 bd
       0.06165307 -0.0726804 0.08021661 -0.048771955
000380 4e 5d 2d 3d 65 c5 19 be 53 17 c0 3b f3 5b 23 be
       0.04232531 -0.15016706 0.0058621555 -0.15953045
000390 f2 2f ad 3c b7 f0 ef 3c d4 77 b7 bd 0e 17 b1 bc
       0.021141026 0.029289586 -0.08958402 -0.021617439
0003a0 16 30 89 be 78 79 49 bd 80 32 42 be e0 e7 72 3d
       -0.267945 -0.049188107 -0.18964577 0.059303164
0003b0 25 56 bc bd 71 3a bb 3d a4 01 14 be 4f cb e3 3d
       -0.09196118 0.09142006 -0.14453751 0.111227624
0003c0 47 21 6a bd 6f 43 32 bd f2 f9 58 be ed 54 b4 bc
       -0.057160642 -0.04352134 -0.21189097 -0.022013152
0003d0 12 7b c2 3d dd 4f 38 be a6 6f 9a 3d 22 a0 a9 3c
       0.0949613 -0.17999215 0.075408265 0.02070624
0003e0 4c 18 0e be 9b b2 e1 bd 6c d8 f7 3d e1 0f 1a be
       -0.13876456 -0.110203944 0.12101826 -0.1504512
0003f0 95 64 45 bd da eb bd 3d b4 70 08 3d 14 75 5c bc
       -0.048191626 0.09273501 0.033310607 -0.013455648

sequential_1/conv2d_3/Conv2D_bias f4 [64]
000000 13 c2 08 3d 66 f5 d2 bd 79 d6 23 3d 8f d4 92 3c
       0.03338821 -0.10300712 0.03999946 0.017923621
000010 42 4b a4 3c 6a aa c2 bb c7 e3 0b 3d 3f eb e8 3c
       0.020055417 -0.005940725 0.034152772 0.028432487
000020 b3 b1 48 bd f6 33 94 bd 3f 8c 72 bc ac 45 8a bd
       -0.048997592 -0.07236473 -0.014803945 -0.0675157
000030 3d ad 95 bd a4 0d 75 bd 6a 77 62 bd e4 77 81 bd
       -0.07308433 -0.05982746 -0.055289663 -0.063216954
000040 df 02 b0 bc 33 9d a7 3c ab 57 cc bc 84 86 4e 3d
       -0.021485744 0.0204607 -0.024944147 0.050421253
000050 7d 85 dd bd 4b 54 69 bd fe 72 ba 3d 97 4e 86 bc
       -0.108164765 -0.056965154 0.09103964 -0.016394896
000060 92 be f2 bc 23 84 86 bd 61 0b 1d bb bd 72 7e bd
       -0.029631887 -0.06568172 -0.0023963081 -0.06212114
000070 61 e6 e8 3b ee 5a 3c bc f5 af dd 3b fd e4 71 bc
       0.0071075414 -0.011496289 0.0067653605 -0.014764068
000080 89 81 cc bc 4c 0e 05 bd 3b 20 e1 3c d7 f9 1d 3d
       -0.02496411 -0.032484338 0.027481189 0.038568344
000090 19 90 1c bd 85 0f 3e bd 2f f0 b7 3d 6b 51 14 bc
       -0.03822336 -0.04640152 0.08981358 -0.009052615
0000a0 c1 66 60 bd ba 67 5d bd 0c 9e 62 3d c1 7e c7 bc
       -0.054785494 -0.054054 0.055326506 -0.024352433
0000b0 33 d2 91 bd 5d 21 a2 bd 6c d7 81 bd ee 7a 8a bc
       -0.071201704 -0.0791652 -0.063399166 -0.01690432
0000c0 4e d0 09 3d 07 3f 00 be 81 1d 8d 3c 40 d0 f0 bb
       0.03364592 -0.12524043 0.017225983 -0.007349044
0000d0 18 eb 60 bd 30 fe 0f 3d ec 2a 55 3d 5e 0e 59 3b
       -0.054911703 0.03515452 0.052042887 0.0033120136
0000e0 8e 2f 95 bd 65 b4 91 3d dd 76 02 3c 42 31 f1 3c
       -0.07284461 0.07114486 0.0079629095 0.029442433
0000f0 64 2b 79 bd 3a 6c 7c bd fe 96 aa bd b0 e8 ff 3c
       -0.060832396 -0.06162665 -0.08329581 0.031238884

sequential_1/dense_1/MatMul/ReadVariableOp/transpose f4 [64, 2304]
000000 dc 86 a0 3c 6b 27 25 3d 64 4d be 3c 92 16 9c bd
       0.019595556 0.040320795 0.023230262 -0.076214924
000010 5e 80 32 3d 90 6d 9a 3d 5d 1e ad 3c ab 1e 54 3d
       0.04357945 0.07540429 0.021132642 0.05178706
000020 2b 83 f8 3c ba 80 17 3d 75 5e bd bb f1 1a fd bc
       0.030335983 0.036987998 -0.0057790824 -0.030896636
000030 1c dd 70 3c ba 7b 69 bc 9b 88 74 bd 12 84 4b bd
       0.014701154 -0.01425069 -0.05970059 -0.0496865
000040 6d 12 06 bd 7e d6 b0 3d 1a a1 25 3d c0 47 a7 3c
       -0.032732416 0.08634661 0.04043684 0.020419955
000050 59 4c 38 bd e3 5d 96 3d f6 92 16 3c d4 0f d5 3a
       -0.044994686 0.07342126 0.009190312 0.0016255328
000060 08 dc 09 3d db 06 fe 3c fd f0 d7 3c ef b6 80 3c
       0.033657104 0.031009128 0.02636003 0.01571223
000070 9c 1b bd 3c 80 49 b5 39 4a 3a 58 bb 00 a3 7d 3b
       0.023084454 0.00034577772 -0.0032993727 0.0038701892
000080 db fa 04 bd 88 33 6e bd 4c 61 ab bc 5f a1 29 3c
       -0.032465797 -0.058154613 -0.020920418 0.010353415
000090 f2 74 13 bd d2 85 62 3a 35 ba 21 bd bd cf 9b bd
       -0.0360002 0.00086411566 -0.03948422 -0.07607982
0000a0 17 c8 68 bd 38 ae 28 3d 86 5f 95 bd d8 8c 93 bc
       -0.056831446 0.041181773 -0.0729361 -0.018011495
0000b0 2e 89 6b 3d e5 83 49 bd 32 6a 5c bc 69 96 c2 bc
       0.05750387 -0.04919805 -0.013453053 -0.023753362
0000c0 e7 95 82 bc 30 e4 3b 3d 25 c2 32 3c af 03 82 3d
       -0.01594062 0.045871913 0.0109105455 0.06348359
0000d0 a2 f1 d3 3c 3c bb 80 bc 0e 29 35 bd c1 74 0c bd
       0.025872055 -0.01571428 -0.044228606 -0.034291033
0000e0 5e 88 e7 bc 93 6a 7b 3d 90 2a 63 3c 61 1f 4a bd
       -0.028263267 0.061380934 0.013865128 -0.04934633
0000f0 b4 8d 0e bd 1b b2 7f bd b3 c4 15 bd 10 03 7d bc
       -0.034803107 -0.062425714 -0.03656454 -0.015442625
000100 22 b1 c7 3c fe 0c a5 ba af bf 6d 3c 60 11 cf bc
       0.024376456 -0.0012592373 0.014511033 -0.02527684
000110 17 2e 36 bd ce e2 32 bd e7 4b cf bc 1d 8e 6a bc
       -0.04447755 -0.04367333 -0.025304748 -0.014316109
000120 fa ff aa bc 31 e6 cc 3b f6 6f 2f bd 67 19 8c bb
       -0.020874012 0.006253027 -0.042831384 -0.004275489
000130 5d a5 40 bd 42 85 36 bd 2f a8 07 3d 01 7a 21 3d
       -0.047032703 -0.04456068 0.033119377 0.039422993
000140 b0 a5 72 bd 1b 2c 8b 3d 65 8c 50 bc 57 25 21 3c
       -0.059240043 0.06795522 -0.012728785 0.009835563
000150 df 73 fe 3c 51 91 6d bd d5 66 11 bd fd 40 75 bc
       0.031061111 -0.057999913 -0.03549846 -0.014969108
000160 f2 28 16 bd 2b ff af 3c d7 f4 08 bd ed 85 90 3d
       -0.036660142 0.021483978 -0.033436622 0.07056794
000170 7d 62 aa bb 54 56 40 3d 21 62 db bc d1 40 2d bd
       -0.005199729 0.04695733 -0.02678019 -0.042298142
000180 2a f7 59 bb 19 56 3e 3c 4e e6 5e bd 5e 2a 33 3c
       -0.0033258894 0.011617207 -0.054418854 0.010935394
000190 5d 78 9b bd d1 b5 80 bc a0 84 27 bd f6 d4 a3 3a
       -0.07591317 -0.015711697 -0.040897965 0.001249938
0001a0 0d 2c f7 bc ad 5c bc bc b5 b7 13 bc af 7a aa b9
       -0.030172372 -0.02299341 -0.009015967 -0.00032516333
0001b0 00 fd 27 3d 30 36 f5 bc 3a 13 77 3b 30 a8 a0 3c
       0.041012764 -0.029933065 0.003770067 0.019611448
0001c0 5d fe fa 3b 41 8a c6 3c b6 a8 a8 bc 74 cb d1 bc
       0.007659717 0.024235846 -0.02058826 -0.02560971
0001d0 a4 3d 66 bd 23 a8 5a bd 51 7b 12 bd f8 30 f5 3c
       -0.05621113 -0.053383004 -0.035762135 0.029930577
0001e0 4e 7d 95 b9 9f 00 be 3b 20 ae f8 bc 5b 6b 9d bd
       -0.00028512854 0.005798414 -0.030356467 -0.07686492
0001f0 e9 00 b3 ba 39 50 e7 bc c1 06 d5 3c e0 33 69 bd
       -0.0013656887 -0.028236495 0.026004197 -0.056934237
000200 8d 10 1f 3d 67 92 5c bd 7a 65 c7 bc e5 c8 f5 bc
       0.038834143 -0.053850558 -0.02434038 -0.03000302
000210 21 92 6d bd 8c 4f 6c bc 4f 37 65 3c 79 7f 61 3c
       -0.058000688 -0.014423262 0.013990237 0.013763302
000220 92 b7 00 3d 80 2e 96 3c ae 95 ab bc 16 38 bf ba
       0.031425066 0.01833272 -0.020945396 -0.0014588858
000230 8e 71 6b 3a c0 1a dc bb 70 82 40 bb 40 7c 6c ba
       0.00089814595 -0.006717056 -0.0029374622 -0.00090212
000240 ef c1 4c 3c 45 95 9e 3c b6 c3 57 3d 6e a6 87 bd
       0.012497409 0.019358287 0.05267688 -0.06623541
000250 19 4e 58 bd 45 a7 58 bc 09 5d 03 bd 3d 34 ee bc
       -0.052808855 -0.013223474 -0.032071147 -0.029077644
000260 68 94 82 bd 29 0f 8e bb 0d 92 5e bd ee 04 96 3d
       -0.063759625 -0.0043353033 -0.054338504 0.07325159
000270 8f 91 2b 3c 7b b7 bc bc 1b 05 6a 3d 27 87 60 3d
       0.010471716 -0.023036709 0.057133775 0.05481639
000280 2b 14 19 3d a0 2a 7f 3d 6c 50 4b 3d 0f 12 84 3c
       0.03737275 0.06229651 0.049637243 0.016121892
000290 f1 30 ca bc a3 82 50 bd 24 b7 35 bd 09 a3 b3 bc
       -0.02468154 -0.050905835 -0.04436411 -0.021928327
0002a0 a2 a7 49 3c e4 bf 20 3d 4f 6b 53 bd d9 94 a1 3c
       0.012308033 0.0392455 -0.05161601 0.019724296
0002b0 4a 27 69 bc ce a4 55 3c 59 ef 4a bd ba 03 d4 bc
       -0.014230559 0.013039781 -0.049544666 -0.025880683
0002c0 51 ff a9 3c 5c 6c 3b 3d f8 64 be bc 6a 4b 96 3c
       0.020751627 0.045757636 -0.023241505 0.018346507
0002d0 15 c1 43 bd 36 bc 01 bc e2 ad a6 3c 76 08 30 bd
       -0.04779156 -0.007918408 0.020346586 -0.04297682
0002e0 6a a6 95 bd 93 1f 58 bc 04 14 89 3c 07 01 8b bd
       -0.073071316 -0.013191122 0.016733177 -0.06787305
0002f0 66 ba 24 3d 10 79 3b bd ad 4a 20 bd 03 b9 76 3c
       0.040216826 -0.04576975 -0.039133716 0.015058759
000300 94 b6 fc 3b db c7 32 bd ed da d6 3c e6 d4 0f 3d
       0.0077121947 -0.04364763 0.026227439 0.035115145
000310 74 54 a2 3c e0 38 3e 3d 9b 75 8e 3d 93 a9 14 3b
       0.019815661 0.04644096 0.06956025 0.0022684082
000320 ee 0f 87 bc 59 45 f9 bc ef d3 e2 bc e4 dd a7 bc
       -0.016487088 -0.030428575 -0.027688948 -0.020491548
000330 1d 70 a4 bd 63 b7 2c 3d 99 c9 fa bc 94 03 f2 3c
       -0.080291964 0.04216708 -0.030613707 0.029542722
000340 f8 6f 3b 3c 1c 11 b2 3d c9 93 db bc 5c 46 ac 3c
       0.01144027 0.086946696 -0.026803868 0.021029644
000350 43 1e 41 3d e2 2f 8e bd 4c 62 d5 3c 9b 42 bb bc
       0.047148 -0.06942727 0.026047848 -0.022858908
000360 95 3d 15 3d 34 31 a5 3c 41 f9 4b 3c fc ce 71 bc
       0.036435682 0.020165063 0.0124495635 -0.014758822
000370 a1 e6 50 3d 14 b2 45 3c 34 10 09 bd a5 d3 93 bd
       0.051001195 0.012066383 -0.033462718 -0.07218102
000380 a4 46 1e 3c 6c ce b0 3c b6 fb 04 bd 44 27 96 3d
       0.009660397 0.021582805 -0.032466613 0.07331708
000390 e4 74 0b 3d 28 c8 bf bc 29 4c 23 3d 0b d4 bb bc
       0.034047022 -0.023410872 0.039867554 -0.022928258
0003a0 84 95 16 3d 78 ab 08 3d b9 24 31 3b 21 81 a8 3c
       0.036763683 0.03336665 0.0027029945 0.020569386
0003b0 97 c1 70 3b 5f 90 f9 bc a6 fb 34 bd 08 85 49 bc
       0.0036736482 -0.03046435 -0.044185303 -0.0122997835
0003c0 42 45 10 bc 37 d2 b2 3b 91 e0 27 bd 20 b9 48 3c
       -0.008805575 0.0054571885 -0.040985648 0.0122511685
0003d0 7a f3 7a 3b 77 0d 90 bc 2b 61 36 bd 02 b7 2b bd
       0.0038292096 -0.017584546 -0.04452626 -0.041922577
0003e0 7e 41 10 3d c3 1a 08 bb 0c 6e 62 bc 15 75 c1 3c
       0.03521871 -0.0020767904 -0.0138201825 0.0236154
0003f0 56 87 b4 bc de 23 3e ba 47 8c 07 bc 47 e0 a5 3c
       -0.02203719 -0.00072532694 -0.008273191 0.020248545

sequential_1/dense_1/MatMul_bias f4 [64]
000000 43 69 26 bc a2 06 30 bc 71 25 14 bd 95 ea d8 bb
       -0.010156932 -0.010743769 -0.03616852 -0.006619761
000010 b3 4b 6e 3d a6 e1 69 bd 37 b9 6c bd db 0a a7 3b
       0.05817766 -0.05709996 -0.057793822 0.0050977296
000020 af 20 b6 bb 54 92 b7 bb b7 88 c5 bb bb 5a a5 bc
       -0.0055580954 -0.0056021605 -0.0060282606 -0.020184865
000030 d7 24 7f bd 3e ae ab bd 13 0a 49 bc 57 7e 06 bc
       -0.062290993 -0.083828434 -0.012270468 -0.008208833
000040 b4 6a e4 3d 77 cb f1 3d 16 ea ab bc 49 f0 bf 3d
       0.111531645 0.11806386 -0.020985644 0.09372003
000050 f1 a5 06 bc 5c fd 15 bc 7f 00 1a bc 74 b7 12 bc
       -0.008218274 -0.009154644 -0.009399532 -0.008954871
000060 74 c7 ea bb 46 61 36 bd 8f e3 a5 bd ae 82 3d 3d
       -0.00716489 -0.04452636 -0.08100044 0.046267204
000070 81 d6 d3 3c 04 5d 34 bd 0f ae fb bc e7 83 ac 3d
       0.02585912 -0.04403402 -0.030722646 0.08423596
000080 c3 fc 8e bd 33 5d e4 3d 41 cb 99 bc 86 65 3d bc
       -0.06981804 0.11150589 -0.018773677 -0.01155985
000090 58 f4 35 bd 30 09 93 bc 38 62 67 3a ef b8 6a ba
       -0.044422477 -0.017948717 0.00088265864 -0.0008953949
0000a0 65 67 b8 3d c2 3e fd bb 9c f5 d9 bb 83 4f d0 3d
       0.09004096 -0.0077284286 -0.0066515934 0.10171416
0000b0 cd c7 e8 bc c4 77 23 bd e9 a1 a3 3c 17 82 0f bd
       -0.028415585 -0.03990914 0.019974666 -0.035036173
0000c0 49 7e fc 3d b5 98 ca 3d 49 61 ee 3d 05 fb bc bc
       0.123287745 0.09892408 0.116396494 -0.023068914
0000d0 ca eb e2 bc df 69 d2 ba 8b 90 8c bc f4 28 1c bc
       -0.027700324 -0.001605328 -0.017158767 -0.009531248
0000e0 e7 f9 29 bc f8 d3 d7 3c 3f ae 22 bc 88 c6 cc bc
       -0.010374523 0.026346192 -0.009929239 -0.02499701
0000f0 14 ce 14 bd 04 99 63 bd 8c b0 ef 3d 0e 42 da 3d
       -0.036329344 -0.05556585 0.117035955 0.1065713

sequential_1/dense_2/MatMul/ReadVariableOp/transpose f4 [2, 64]
000000 9d 96 92 be 80 a9 d3 3c ba ee 54 be 10 c8 b8 3d
       -0.28630534 0.02583766 -0.20794192 0.09022534
000010 b5 1d f0 3b 8c 1e 24 3e 36 7b e3 3d 11 c9 31 3e
       0.00732776 0.16027278 0.11107485 0.17361857
000020 2f 07 38 3e 8b 02 04 3e 78 ba 92 3e 90 35 15 be
       0.1797149 0.12891595 0.2865789 -0.14571214
000030 fa e2 f2 3d 0c 32 d0 3e 1c 03 20 3d 80 9f 33 3e
       0.118596986 0.40663183 0.039065465 0.17541313
000040 15 02 e5 be 04 34 c4 be 04 0f 49 be 65 6c a2 be
       -0.4472815 -0.38320935 -0.19634634 -0.31723323
000050 0b 98 81 be 3f a4 a4 3c 4d 8f 80 be d8 4b a5 3d
       -0.25311312 0.02009785 -0.2510933 0.08071107
000060 d8 cf 69 be 0f be bc 3e 2b 3d 8d bd fb ab 1b be
       -0.22833192 0.36863753 -0.068964325 -0.15202324
000070 a6 60 69 be 29 89 61 3e 2e b4 f7 bd 5e 61 ba be
       -0.22790775 0.22024979 -0.120949134 -0.3640241
000080 45 1c 6c 3e e1 5c c6 be b4 8d d7 3d 4d 7b 37 3e
       0.23057659 -0.38742736 0.105250746 0.1791813
000090 14 ac 20 3e 8b b3 fa bd c1 dc e4 3d e2 ca 90 3e
       0.15690643 -0.12241276 0.11174918 0.28279787
0000a0 e8 94 5a be 2e 40 70 3e b8 97 8d 3e c0 ca 06 be
       -0.21345866 0.23461983 0.27654815 -0.1316328
0000b0 00 b0 aa bd aa 06 ba bd 61 78 1a be 89 60 8d bd
       -0.083343506 -0.09083302 -0.15084983 -0.06903178
0000c0 5d 1f 18 be 3c 5e 76 be ec 9e 97 bd 42 c8 dc 3d
       -0.14855714 -0.24059385 -0.07403359 0.10780384
0000d0 80 23 b6 3d 25 ae 4c be b2 59 b4 3c 10 bf 3b bd
       0.0889349 -0.19988306 0.022015426 -0.04583651
0000e0 24 96 e3 3c bb d2 05 3b 36 c5 77 bd 7b 73 90 3e
       0.027781554 0.0020419795 -0.06049081 0.28213105
0000f0 3d 8f 8b 3e d5 bf 9b 3e 29 69 2b be c3 9c b9 3c
       0.2725772 0.30419794 -0.16739334 0.022657758
000100 99 2c 00 3e 5b 23 3b be b0 c6 c7 bd b6 96 c2 bd
       0.12517013 -0.18275206 -0.097546935 -0.09501402
000110 cb 8c 7e 3e 3b 11 69 be 8c 0d a4 be 54 41 60 3e
       0.24858396 -0.22760479 -0.32041585 0.2189992
000120 47 11 20 be 83 29 7f 3e 71 c1 41 3e 0a 99 82 be
       -0.15631591 0.24918179 0.18921448 -0.25507385
000130 c4 d7 c8 be 31 7d c3 3d 02 8c ca bd 86 7d 8e be
       -0.39227116 0.09545363 -0.098899856 -0.27830142
000140 57 83 aa bd b2 b6 a9 3e d8 0a 23 be 7d 3c 43 3d
       -0.08325832 0.33147198 -0.15922105 0.047665108
000150 cd a6 63 3e d0 c3 cb 3d 39 b9 74 bd cf e7 5a 3d
       0.22231598 0.09949458 -0.059746955 0.053443726
000160 11 58 d4 3c 7b 90 a5 bd 86 57 da be d9 3c bd bc
       0.0259209 -0.08084198 -0.426449 -0.023100303
000170 89 5f 01 3e a0 09 92 be 27 4e 1d 3e 5d d0 bf bc
       0.126341 -0.28522968 0.15361844 -0.023414785
000180 40 95 94 3d f4 63 66 3d 66 86 f5 bd 80 cf 12 3e
       0.0725503 0.056247666 -0.11988525 0.14336967
000190 9f c9 b7 be 72 02 35 bc da 76 1d 3e 56 c5 97 3e
       -0.35896012 -0.011047946 0.1537737 0.29642743
0001a0 01 9c 41 3e c4 67 34 be b0 35 d8 bc 70 8b aa 3e
       0.18907167 -0.17617708 -0.026392788 0.33309507
0001b0 9a 83 b9 bd ef 28 d6 be 88 bb c8 bc 34 46 0f be
       -0.09058304 -0.41828105 -0.024503484 -0.13991624
0001c0 64 22 68 3e 4f 84 9b 3e c7 17 bc 3e c5 7b d1 be
       0.22669369 0.3037438 0.3673689 -0.4091474
0001d0 3a e4 26 3c a0 bd 87 3e e4 59 e7 bd 03 07 76 be
       0.010186249 0.2651186 -0.11296442 -0.24026112
0001e0 a9 98 6f 3c 66 4d 0f 3d 32 52 01 3e 0f 68 11 be
       0.014623799 0.034985922 0.12629011 -0.14199851
0001f0 15 07 98 3e 8d 3d fb bd 73 41 95 3e 05 36 d1 3e
       0.29692903 -0.12267599 0.29151496 0.40861526

sequential_1/dense_2/MatMul_bias f4 [2]
000000 c7 05 c4 bd c9 05 c4 3d
       -0.095714144 0.09571416
