app/src/main/ml/heart_disease.tflite (tflite, 20168 bytes, 6 tensors)

sequential/dense/BiasAdd/ReadVariableOp/resource f4 [64]
000000 00 00 00 00 d3 57 42 be 00 00 00 00 00 00 00 00
       0.0 -0.18978815 0.0 0.0
000010 00 00 00 00 00 00 00 00 00 00 00 00 00 00 00 00
       0.0 0.0 0.0 0.0
000020 00 00 00 00 00 00 00 00 00 00 00 00 00 00 00 00
       0.0 0.0 0.0 0.0
000030 00 00 00 00 03 11 2d be 00 00 00 00 88 ed 89 be
       0.0 -0.1690102 0.0 -0.26939034
000040 bc 71 40 be 00 00 00 00 3b a3 0d be 25 6c 0c be
       -0.18793386 0.0 -0.13831799 -0.13713129
000050 cb 01 07 be 50 9d 00 be 5d a7 4e be 16 ec 68 be
       -0.13184278 -0.1256001 -0.20181032 -0.2274631
000060 e4 af 26 be 00 00 00 00 00 00 00 00 00 00 00 00
       -0.16278034 0.0 0.0 0.0
000070 ad d5 17 bd 00 00 00 00 00 00 00 00 4c 96 13 be
       -0.03706901 0.0 0.0 -0.14412802
000080 00 00 00 00 00 00 00 00 32 3b 16 be 00 00 00 00
       0.0 0.0 -0.14671019 0.0
000090 00 00 00 00 27 bb 93 be 0e ca 99 be 56 ca 2f be
       0.0 -0.28853723 -0.30036968 -0.17167029
0000a0 95 a5 30 be 3c 28 88 be db 21 44 be 00 00 00 00
       -0.17250665 -0.26593196 -0.1915354 0.0
0000b0 21 f6 77 be 00 00 00 00 2a a9 7a be 42 2f 9c be
       -0.24214984 0.0 -0.24478593 -0.30504805
0000c0 f0 cf 81 be 00 00 00 00 00 00 00 00 bd a8 57 be
       -0.25353956 0.0 0.0 -0.21060462
0000d0 21 7e 88 be f9 22 5e be 88 db bd bd 00 00 00 00
       -0.2665873 -0.21693029 -0.09270388 0.0
0000e0 5e ab 73 be b0 f0 9a bd 00 00 00 00 80 cb 8d bd
       -0.2379584 -0.07565439 0.0 -0.0692358
0000f0 1e 90 33 be 00 00 00 00 00 00 00 00 84 49 92 be
       -0.17535445 0.0 0.0 -0.28571713

sequential/dense_1/BiasAdd/ReadVariableOp/resource f4 [64]
000000 4b 64 16 3e e9 95 a0 3e 3e 5a b9 3e c5 f8 2c 3c
       0.14686696 0.31364372 0.36201662 0.010557358
000010 6d 7e d3 3e 61 52 ea be f8 ca fb 3d 64 21 a5 be
       0.41307393 -0.45765975 0.122945726 -0.32252038
000020 b6 d2 15 3e 0c 1f 9c 3e 96 5d b8 3e b8 36 12 be
       0.14631161 0.30492437 0.360089 -0.14278686
000030 05 37 13 3e b8 b9 0e 3d fa 15 b5 3e 63 9e 36 3e
       0.14376457 0.034845084 0.3536833 0.17833857
000040 53 c8 8a 3e 20 45 df 3e a3 14 c4 3e 17 22 c8 be
       0.2710596 0.43607426 0.38296995 -0.39088508
000050 a3 ee 57 3e 83 24 5f be 32 1d 65 bd 82 02 ce bd
       0.21087126 -0.21791272 -0.055936046 -0.10059072
000060 46 02 e4 bd 18 e2 9c be 8a 9d 58 3e 99 d9 4c be
       -0.11133246 -0.30641246 0.21153846 -0.20004882
000070 49 9c ac 3d 62 1f b1 3e 29 aa 5b be 47 35 a4 bd
       0.084282465 0.34594256 -0.2145163 -0.08017974
000080 c7 98 ac 3e f2 e6 8c 3e 02 a2 e3 3e 7b 21 5c be
       0.3371031 0.27519947 0.4445954 -0.21497147
000090 d2 4d 8c be 9d 61 d8 3e 9a e4 ad be 19 f0 b7 be
       -0.27403122 0.42261973 -0.33963472 -0.35925367
0000a0 2f de b2 bc 92 53 58 3e fe 67 21 3d 60 3e 61 3d
       -0.021834461 0.2112563 0.039405815 0.054991126
0000b0 41 45 3e be 24 56 c7 bd 48 8a 9e be b3 a4 fe 3d
       -0.18581106 -0.09733227 -0.30964875 0.12433758
0000c0 ca bb db bc 8c 8e b2 3e 11 32 09 3f ae 20 47 3e
       -0.026822943 0.3487438 0.5359202 0.1944606
0000d0 02 4c da 3e fa 59 99 3e 69 28 9d 3e 7c 08 ab be
       0.42636114 0.2995146 0.30694893 -0.3340491
0000e0 d1 5a 6c be 76 03 ad 3e e1 d4 c7 be 22 65 f8 3e
       -0.23081519 0.33791703 -0.390296 0.48514658
0000f0 ca c5 96 be 44 3a 33 3d 3c 7e bf be a7 50 49 be
       -0.29447776 0.04375674 -0.37400997 -0.19659673

sequential/dense_2/BiasAdd/ReadVariableOp/resource f4 [2]
000000 2c 39 d5 be d3 f0 ab 3e
       -0.4164518 0.33582172

sequential/dense/MatMul f4 [64, 4]
000000 88 bb 61 be 9f e2 15 be 80 56 a6 3b c0 e4 67 bd
       -0.22044194 -0.1463723 0.0050762296 -0.056614637
000010 2a f2 69 be 91 73 2f b8 63 5d 16 bf d6 13 25 3d
       -0.22846285 -4.183088e-05 -0.58736247 0.04030212
000020 20 a1 d0 3c 00 4f 26 bb 00 23 f8 3b 40 89 61 3d
       0.025467455 -0.0025376678 0.0075725317 0.055062532
000030 d9 14 6d be f0 54 26 bd 47 f2 3d be 20 f7 52 3e
       -0.23152484 -0.040608346 -0.18549453 0.20602083
000040 ba 2f 8a be 72 b4 11 be f4 4c 7e 3e 74 ae 9d 3d
       -0.26989537 -0.1422899 0.24834043 0.0769929
000050 dc 5b 61 bd 1c c7 ee bd cf c2 95 be fc 70 b6 3d
       -0.055019245 -0.11659071 -0.2925019 0.08908269
000060 b0 07 90 3c 73 d5 1d be 00 05 4d 3c 46 0d 3d 3e
       0.01758179 -0.15413456 0.012513399 0.18462095
000070 e0 1a 89 3e 80 e9 36 bc a8 5a 67 be 20 4d 85 3e
       0.26778316 -0.011164069 -0.22593176 0.26035404
000080 30 15 7f 3d 0f 95 68 be 18 b7 88 3d 18 b9 8d 3e
       0.062276065 -0.22713111 0.06675547 0.27680278
000090 60 86 00 bc e0 f3 9f bc 4b 17 2a be ae f6 85 be
       -0.0078445375 -0.019525468 -0.16610448 -0.26164764
0000a0 1c ae 8f 3e 90 b5 21 bd e8 73 37 3e 98 38 5d 3d
       0.28062522 -0.039479792 0.17915308 0.05400905
0000b0 80 93 14 3e 00 b6 b0 bb 98 06 5b 3e d8 76 16 be
       0.14509392 -0.00539279 0.21389234 -0.14693773
0000c0 9c 89 ff 3d b0 ba 39 bd a6 ba 39 3e b0 0c 8c 3e
       0.12477419 -0.045344055 0.18137607 0.2735343
0000d0 07 fe 08 bf 7b 06 14 b9 d9 3c a3 3e ea 26 18 bf
       -0.53512615 -0.00014116794 0.3188236 -0.5943438
0000e0 d4 cf 4b bd e3 66 2e be 4a 47 42 3e 58 2c 01 3e
       -0.049758747 -0.17031436 0.18972507 0.12614572
0000f0 d9 c4 58 be c2 ff 45 b9 cd 69 d7 be 0b f1 4d be
       -0.21168841 -0.00018882661 -0.42072907 -0.20111482
000100 7c ee bf be 74 9e 09 ba 90 a3 50 be a6 95 ef be
       -0.37486637 -0.00052497466 -0.20374894 -0.4679386
000110 d2 56 4b 3e c0 b5 b8 bc f2 94 4f 3e 58 bd f1 3d
       0.19857338 -0.022547603 0.20271662 0.118036926
000120 a7 62 6f be 47 bf 82 b8 2e 47 fa be b4 5a 81 bd
       -0.23377477 -6.234511e-05 -0.4888243 -0.063161284
000130 b3 ac 38 be d5 e2 31 ba ce d3 ab be 90 c6 8e 3e
       -0.1803463 -0.0006785815 -0.33560032 0.27885866
000140 8a 8d 7d 3c 4c 6c 29 bd c0 95 c4 be a2 d2 43 be
       0.01547564 -0.041363046 -0.383955 -0.19123319
000150 7d b3 7c bc 10 df c2 bc de 3b 23 be 63 9c 59 be
       -0.015423653 -0.023788005 -0.15940806 -0.21251063
000160 c9 c5 b0 bd ee 70 0b bd ad 80 2e bd 25 2d 35 bb
       -0.086314745 -0.034043245 -0.042603184 -0.0027645316
000170 e4 cf 2b be da cd 4c ba 4d ed 24 3f ad 48 11 bf
       -0.16778523 -0.00078126567 0.6442459 -0.5675152
000180 15 f5 3e 3c b6 ba f0 b9 c5 ce a3 bd 4c 53 b7 be
       0.011655112 -0.00045915478 -0.079984225 -0.35805738
000190 76 69 20 be ae 67 bf bd d8 bc 19 be 50 02 af bc
       -0.1566523 -0.09345947 -0.15013444 -0.021363407
0001a0 ae f6 31 3e c0 ed 2d be a2 63 4f be e2 3f 89 be
       0.17379257 -0.16985226 -0.2025285 -0.2680655
0001b0 42 0e 14 3e ac ac 64 be 78 0d 05 3d 5c 6f 61 be
       0.14458564 -0.22331494 0.032483548 -0.22015136
0001c0 b3 21 64 be b2 b5 79 bc 25 34 c1 bd 6f a4 8c be
       -0.2227848 -0.015241073 -0.09433774 -0.27469203
0001d0 50 cf 9f 3c 1e d8 7d be 7f 3f 22 be 7b b3 40 be
       0.019508034 -0.24789473 -0.15844534 -0.18818466
0001e0 8b 73 4f be 36 e8 8f be 0e 47 2c 3e 60 3e 00 3d
       -0.2025892 -0.2810685 0.1682398 0.031309485
0001f0 77 e9 4b 3d 19 ea 83 b9 42 40 db 3e 6f 5c 2c bf
       0.049783196 -0.00025160683 0.42822462 -0.6732854
000200 20 eb 6a 3d 2b 49 03 be 6c d1 37 be 1a d0 b1 bd
       0.05735314 -0.1282088 -0.17950982 -0.0868227
000210 d4 e4 4c bd 06 d9 5f be 6e b5 c6 bd dc df 81 be
       -0.050022915 -0.21860132 -0.09702574 -0.25366104
000220 f8 b0 e5 bd dd 8e 92 ba a8 31 a3 3d 04 3f 15 be
       -0.11215395 -0.0011181493 0.079684556 -0.1457482
000230 15 06 83 be d6 4e a6 bd 6a aa 96 3e 60 26 cb bc
       -0.25590578 -0.081205055 0.2942689 -0.024798572
000240 b0 63 bc 3c 26 25 c7 bd c4 f5 5f 3e b8 60 5d 3d
       0.022996753 -0.097238824 0.21871096 0.054047316
000250 2c 9d 68 3d ea 9c d9 37 fd b2 28 bf aa 14 00 3e
       0.056790516 2.5941485e-05 -0.65898114 0.12507883
000260 bc 8b 34 bd 0c 6a 63 37 d5 73 5b bf b6 ff 0b 3f
       -0.044078574 1.3554945e-05 -0.8572362 0.5468706
000270 57 7e b3 be f7 00 03 b9 ac d8 9d bd 74 e8 be be
       -0.35057327 -0.00012493493 -0.077073425 -0.37286723
000280 80 37 f9 bc 23 9d c3 bd 2e da 23 be 33 e7 ce be
       -0.030421972 -0.09551456 -0.16001198 -0.40410766
000290 e8 6b f7 bd 64 45 d9 38 10 d5 2a bf c0 5d de 3d
       -0.12081128 0.00010360291 -0.6673136 0.10857725
0002a0 ad 66 a1 be 5e 54 48 b8 33 1f f3 3c bf 5b 24 bc
       -0.31523648 -4.776229e-05 0.029677963 -0.01003164
0002b0 1c d2 97 3e 8e 98 08 be 40 2d 84 3e 98 fe 87 bd
       0.29652488 -0.13339445 0.25815773 -0.06640357
0002c0 76 21 77 be 9e 11 9e b9 57 c1 15 3d 06 36 d4 be
       -0.24133858 -0.00030149234 0.036561336 -0.41447467
0002d0 df 9c 64 be c0 a5 cd bd 0c ef 1e be e4 ec 91 3e
       -0.22325467 -0.1004138 -0.15520877 0.28501046
0002e0 a0 78 bc bd f3 36 da 38 94 74 f7 be 1e 76 a5 3e
       -0.09202695 0.00010405285 -0.4833113 0.3231668
0002f0 8b 4f 39 3d 32 f0 89 39 d3 ce 8a be 85 44 75 bd
       0.045241874 0.00026309636 -0.2711092 -0.0598798
000300 c4 63 b7 3d 3e 1a a3 b9 7a 2e d6 be 86 8a aa 3d
       0.08954576 -0.00031109335 -0.41832334 0.083272025
000310 59 bd 7c be 1e 4f ca bd 19 cf 67 be 42 d1 41 be
       -0.24681605 -0.09878372 -0.22637595 -0.18927482
000320 e0 0d 87 be 8f 59 8b be a8 10 3b 3d 48 59 28 3e
       -0.26377773 -0.27216765 0.04567018 0.16440308
000330 c8 e2 31 be d5 a9 93 b9 6c aa 90 be 3a 93 8a be
       -0.17371666 -0.0002816456 -0.28255022 -0.2706545
000340 e3 1a 31 be da f3 26 ba fe fd 28 bf 3a a5 06 3e
       -0.17295413 -0.0006368734 -0.6601256 0.13148966
000350 8a 09 c3 be 2c e2 44 ba 00 17 fb be 9c c3 04 3f
       -0.38093215 -0.0007510509 -0.49040985 0.51860976
000360 09 54 e2 be 29 94 d6 ba 02 8f e7 3e 04 66 2a bf
       -0.4420474 -0.001637106 0.45226294 -0.66561913
000370 90 ad 95 3d 60 f6 72 bc 0c a6 b4 bd e0 c0 33 3c
       0.07308495 -0.014829248 -0.088207334 0.010971278
000380 7b 3b 6e be 78 83 75 38 a6 dd 5c be df 4a c9 3d
       -0.23264877 5.853499e-05 -0.21568927 0.09828734
000390 84 e9 7b be 20 6b d4 ba 16 d3 e4 be 89 c1 8f 3e
       -0.24600798 -0.0016206242 -0.44692296 0.28077343
0003a0 f0 1d e9 3d c6 91 b4 bd 20 c4 59 bc 00 52 55 3b
       0.11382663 -0.088168666 -0.013291389 0.0032550097
0003b0 15 82 1f be ad 0f 31 bd 3f 4f 1e bd bf f7 23 bd
       -0.15576966 -0.04322784 -0.038649794 -0.04003119
0003c0 c0 1a 0e be bf d5 a3 ba 47 f8 cf 3e 79 dd 26 bf
       -0.13877392 -0.0012499614 0.40619108 -0.6518169
0003d0 9c 17 35 be c5 03 7c be ee a4 4e be 5e 9a 44 3e
       -0.17684788 -0.24610813 -0.20180103 0.19199511
0003e0 1e 69 c8 bd 87 11 13 be ac 43 70 3e 4d ee 3e be
       -0.097856745 -0.14362155 0.23463315 -0.18645592
0003f0 ce 21 e0 3e 38 b5 85 b8 75 d3 9f bf 51 80 83 3f
       0.4377579 -6.375689e-05 -1.2486407 1.0273534

sequential/dense_1/MatMul f4 [64, 64]
000000 78 5f 96 3c 1e f4 95 bd 0e 40 a0 bd 44 e1 50 be
       0.01835607 -0.07321952 -0.078247175 -0.20398432
000010 50 6c 41 bc 48 74 c8 bd a2 65 cc bd 00 ea db b9
       -0.011805609 -0.09787804 -0.099803224 -0.0004194528
000020 77 d8 1e be 2e 2e 22 be 96 88 f8 bd 80 8d eb ba
       -0.15512262 -0.15837929 -0.12135427 -0.0017971247
000030 02 fd a0 3d 86 b4 1c be c0 8f 90 3c 8c 9c c1 3d
       0.078607574 -0.15303239 0.01764667 0.09453687
000040 2c 0b 47 be 3e d7 bf 3d 4e bb 25 3e 3c af 08 be
       -0.19437855 0.09367226 0.16184732 -0.13348097
000050 c2 e2 be ba 33 bf 21 be 9c b2 8c 3d d4 7a 21 be
       -0.0014563429 -0.15795593 0.068700045 -0.15769511
000060 9e ae b0 3b 7c 75 1e 3d 54 d8 47 be 87 42 41 be
       0.0053919097 0.03868626 -0.19516116 -0.18873034
000070 ff f6 2f be 9e 6a 91 bd 4b b4 11 3e ae 17 36 3e
       -0.17184065 -0.07100414 0.14228933 0.1778247
000080 f2 f2 86 3d 46 d6 ab bd ba eb 39 3e 60 7a d2 3b
       0.06589307 -0.08390479 0.18156329 0.0064232796
000090 d8 55 a3 bd c6 6b 0e 3e f7 22 04 be 08 b6 38 3e
       -0.07975358 0.139083 -0.12903963 0.1803819
0000a0 4a 4b da 3d 70 ec 0d 3e 8e 35 02 bc a7 a6 59 3e
       0.106588915 0.13859725 -0.007947339 0.21254979
0000b0 30 46 66 3e a6 f1 02 be a8 7c 33 bd f5 e1 47 3e
       0.22487712 -0.12787494 -0.043820053 0.1951979
0000c0 b1 bf 2e be d3 0b 18 3e 20 04 57 bc dd 0f 9e 3b
       -0.17065312 0.1484826 -0.013123542 0.0048236684
0000d0 d7 4a 25 be c5 e3 0e 3e 91 66 60 be de f0 bc 3d
       -0.1614183 0.13954075 -0.21914126 0.09225629
0000e0 9b 9d 42 be 04 b4 4b bd ea 1d bb 3d 70 d1 26 3e
       -0.19005434 -0.049732223 0.09136565 0.16290832
0000f0 99 ee 84 bd 00 6c 33 b9 fc 51 44 be 86 52 55 be
       -0.064908214 -0.00017111003 -0.191719 -0.20832261
000100 bb ae 4f 3e 43 59 66 3e 05 4d 42 be 66 5e e7 3d
       0.20281498 0.22494988 -0.18974693 0.11297302
000110 a0 a3 ca bd bc f0 40 bd fc 1a 12 bd d3 04 e3 bd
       -0.0989449 -0.047104582 -0.035670266 -0.110849045
000120 f0 8e e4 bc e0 f4 80 bb 1d 38 51 3e 06 35 e0 3d
       -0.02790019 -0.0039354414 0.20431562 0.109476134
000130 a2 4b d5 bd 45 f2 3d bd 98 65 b3 bd 5d 40 bf 3d
       -0.104148164 -0.046373624 -0.08759612 0.09338448
000140 59 b4 ce bd d4 ed 2a bd dd 0a 44 be 14 c5 52 bd
       -0.10092992 -0.041730717 -0.19144769 -0.05145748
000150 0a 6f 2e 3e 08 65 3a 3e 8a 80 47 3e 96 9b 7b 3d
       0.17034546 0.18202603 0.19482628 0.061427675
000160 e2 16 0f be 21 ba 12 3e e8 60 8a bd 5d ad 22 3e
       -0.13973573 0.14328815 -0.06756765 0.15886445
000170 69 69 fd bd 40 42 b9 bc 72 4e 31 be e3 07 ab 3d
       -0.12373621 -0.022614598 -0.17315081 0.08351114
000180 42 e1 af 3d 26 14 94 bd 58 0a 22 be d6 65 d1 3d
       0.085878864 -0.072304055 -0.15824258 0.10224502
000190 a6 ea 9c 3d ca 2b 97 bd 45 31 09 bd ff 53 33 be
       0.07661943 -0.07381399 -0.033494253 -0.1751251
0001a0 9a ba 26 be 84 4d 1b be a3 a5 b1 3b b8 e2 8c 3c
       -0.1628212 -0.15166289 0.0054213568 0.017197952
0001b0 b3 9e 90 bc 20 23 3a bc ba 4a 15 ba 45 f2 5b 3d
       -0.017653799 -0.0113609135 -0.0005695034 0.053697843
0001c0 f1 d6 39 3d 3c e5 4c be d7 44 1a 3e 58 99 f6 3c
       0.045371 -0.20009321 0.15065323 0.030102417
0001d0 79 e9 33 3e 13 af 8e bd fc 5b ab bd e1 1a 07 3e
       0.17569532 -0.069669865 -0.08367154 0.13193847
0001e0 3a c4 74 bb 7d 99 0a be a0 f6 80 bb e6 4c 33 bd
       -0.0037348405 -0.13535114 -0.00393565 -0.043774508
0001f0 1d e8 f3 3d a9 60 2c 3e df ae 43 3e 08 c5 09 3e
       0.119095065 0.16833748 0.19109677 0.13454068
000200 63 57 21 3e 71 8e 20 3c 03 b4 33 be 7f 7e 14 3e
       0.15755992 0.009799586 -0.17549138 0.1450138
000210 5c d3 13 be 85 c9 5b be 4a 90 8b 3d 53 8c f4 bd
       -0.14436096 -0.21463592 0.0681463 -0.11940827
000220 a0 9c 15 bc f0 f9 54 3c b6 b0 b4 3d f4 62 81 bd
       -0.009131581 0.012999043 0.088227674 -0.06317702
000230 5d e6 0c 3e 93 36 0e bc ce 86 a9 3d 1c e4 37 3e
       0.13759752 -0.008680004 0.08277665 0.1795811
000240 1e 4f 08 be c4 69 9c bd 48 9d 4f be ff fb 0d 3e
       -0.13311431 -0.07637361 -0.20274842 0.1386566
000250 fb 84 3f be 31 21 6a bc 90 8a 44 be c0 53 0c 3e
       -0.18703072 -0.01429014 -0.19193482 0.13703823
000260 89 8c 35 3c 10 73 48 be 0c 28 e5 bd 52 32 c9 bd
       0.0110808695 -0.19575143 -0.11189279 -0.09824051
000270 ca c1 05 3e b6 44 25 be f3 8e 36 3e ee 4a a1 3d
       0.13062206 -0.16139492 0.17827968 0.0787562
000280 20 64 7d 3c 18 77 2b bd ba 39 12 be d8 b7 74 bd
       0.015465766 -0.041861624 -0.14279833 -0.05974564
000290 cb 48 24 3e 19 67 ac 3d 8c fa 1b be 12 ba 32 3d
       0.16043393 0.08418102 -0.15232295 0.04363448
0002a0 8d 64 2a 3e f3 fb 3f 3e e3 4b 1d be b5 07 c1 bd
       0.1663992 0.18748455 -0.1536098 -0.09425298
0002b0 03 34 1e 3e c1 91 4b be 1c f2 25 be b2 a0 5f be
       0.15449528 -0.1987982 -0.16205639 -0.21838644
0002c0 e5 c7 ed 3b 7a 7c c6 3d fc 61 14 3d 4a ed 6f be
       0.0072564953 0.09691711 0.036226258 -0.23430362
0002d0 f8 dd 2e 3e dd 47 97 bd ad 57 79 bd 1d 54 0f 3e
       0.17076862 -0.07386754 -0.06087463 0.1399693
0002e0 29 40 ff 3d ca d7 c2 3c 0e 88 fd bd 56 08 96 3d
       0.124634095 0.023784537 -0.12379466 0.07325809
0002f0 6b 9f 2f bd dc 53 25 3d ee b8 b2 bd b9 8c 1e 3e
       -0.042876642 0.040363178 -0.08726679 0.15483369
000300 be 46 e4 3d d7 54 d5 3d 21 57 23 3e 0e db 8c 3d
       0.111463055 0.104165725 0.15951206 0.06877719
000310 80 88 af 3a 39 14 12 3e 3f db 41 3e d2 5d a7 3d
       0.0013392121 0.14265527 0.18931292 0.08172192
000320 6e f3 18 be 9a ba de 3d 5a 31 cc 3d cd 2a 52 3e
       -0.14936611 0.10875435 0.099703506 0.2052414
000330 42 49 9f 3d 29 f7 ee bd dd db 36 3e 0c 5b 3b be
       0.07777645 -0.11668236 0.17857309 -0.1829645
000340 13 52 63 bd 68 72 89 bc cf fc db bc 1c b4 b5 bd
       -0.055498194 -0.016778186 -0.026853947 -0.08872244
000350 71 78 12 be e1 2f dd ba 6d 4f 2d 3d 5e 35 3e 3e
       -0.14303757 -0.0016875231 0.042312074 0.18575045
000360 b1 ad 2c be 00 d9 f4 ba 33 bb 52 be f5 bb c3 bd
       -0.16863133 -0.0018680394 -0.20579223 -0.09557334
000370 e9 c3 9d 3d 8d eb f2 bd 64 ed 64 3d cc c6 56 bc
       0.077033825 -0.11861334 0.055890456 -0.01310892
000380 8d 76 0c be f9 e7 29 3e b8 57 1a 37 b8 88 67 bd
       -0.13717099 0.16592397 9.199539e-06 -0.05652687
000390 75 c2 3c be 19 76 58 3e 62 32 80 3d 3b b9 43 3e
       -0.18433554 0.211388 0.0625961 0.19113629
0003a0 5c 73 6a 3e d8 ab 3b be 48 ca 55 3e 51 bf 46 3e
       0.22895569 -0.18327272 0.20877945 0.19408919
0003b0 ad 8f 31 3d 96 0c b3 3d 4f 14 24 bd 50 90 ff bd
       0.04334991 0.08742635 -0.04005843 -0.12478697
0003c0 3a 08 ea bd 0e 13 1e be c2 76 dd bd f4 9e 8e bd
       -0.1142735 -0.15436956 -0.10813667 -0.06963912
0003d0 76 6d 1a be ef 6d 9c 3c f9 18 24 bd 8e 33 fb bd
       -0.15080819 0.01909539 -0.04006288 -0.12265693
0003e0 b3 a9 a7 bd fa 10 36 3e d6 97 44 be 25 25 e3 3d
       -0.081866644 0.17779914 -0.19198546 0.11091069
0003f0 aa f6 45 be bd 09 49 be c6 7b ae 3d f4 49 8c bd
       -0.19332376 -0.19632621 0.08519702 -0.06850043

sequential/dense_2/MatMul f4 [2, 64]
000000 d9 8b e1 bb 9a 02 bc bc 32 b6 b4 bd 41 71 06 be
       -0.006883126 -0.02295046 -0.088238135 -0.1312914
000010 77 ab aa bd fb cf 09 3e 85 18 f8 bc ed 79 e4 3a
       -0.083334856 0.13458245 -0.03028513 0.0017431356
000020 82 4b 93 bc af 68 b5 bc 24 8b eb bd 75 b9 45 3c
       -0.01798034 -0.022144644 -0.11501148 0.012068142
000030 91 b3 8b 3c 6b b6 d7 3d ad 95 2a bb 0a fa eb 3a
       0.017053397 0.1053284 -0.0026029155 0.0018003595
000040 3b bb 0b be ed 0f f6 bd 60 dc 0a be 06 15 8d 3c
       -0.13645642 -0.12014756 -0.13560629 0.017221939
000050 41 36 88 3b af 34 97 3d 1a d9 c1 bb 20 38 21 3d
       0.004156858 0.073830955 -0.005915773 0.039360166
000060 d8 72 9b bc c1 2c 9b 3c ea 80 1b 3d a8 d2 42 bc
       -0.01897566 0.018942239 0.03796474 -0.011891045
000070 19 29 24 bd ad 85 80 bb 2c a7 ff bb 94 51 ca 3c
       -0.040078256 -0.0039221854 -0.007801911 0.024697103
000080 c7 d6 ae bd 82 04 a4 38 d2 65 18 be 7a 0c 39 3d
       -0.08537059 7.820969e-05 -0.14882591 0.045177914
000090 95 3a c7 bb 36 24 af bd f7 85 8e 3d 62 c6 cd 3c
       -0.0060799816 -0.085518286 0.069591455 0.02511901
0000a0 a3 30 bf 3c dc 88 ea bd 45 ff 3a 3a 91 a6 cb 3d
       0.023338621 -0.11451885 0.0007133375 0.099438794
0000b0 fa a0 6f bd 75 a5 9b 3d 23 5b 24 3e d8 35 6e 3c
       -0.05850313 0.07599918 0.16050391 0.014539205
0000c0 6d 9a 53 3b e6 25 af bc 91 fb 17 bd 39 78 12 3d
       0.003228809 -0.021380376 -0.037105147 0.035759185
0000d0 ed 54 03 be 79 22 da bb 49 90 ab bc ae 29 33 3c
       -0.12825365 -0.0066569415 -0.020942824 0.01093523
0000e0 33 51 95 bc d4 e7 ff bd e0 97 ff 3d b2 b0 1f bd
       -0.018227195 -0.124953896 0.1248014 -0.03898687
0000f0 76 5c 1c 3d 9b df 11 bd 9e 67 2d 3d 67 03 bd 3c
       0.038174115 -0.035613637 0.042335145 0.023072911
000100 d3 c2 fc ba b4 58 cc b9 e9 d6 f7 3d b0 97 30 be
       -0.0019284136 -0.00038976 0.12101538 -0.17245364
000110 57 88 5b 3e 2a 11 3e be b1 a0 cd 3a 2e 21 e8 bc
       0.21438728 -0.18561235 0.0015688149 -0.028336134
000120 d7 99 cd 3b 9e d4 02 3e 7d c5 fa 3c 25 53 19 bc
       0.0062744427 0.1277642 0.030611748 -0.009358202
000130 69 3a 35 3d a4 0a 16 3e b4 79 27 3c d5 00 03 3d
       0.044245157 0.14652497 0.010221887 0.031983215
000140 64 95 fa bc 8e b5 ad 3d f7 c1 8a 3d 4c 07 f8 bd
       -0.030588813 0.084818944 0.06775277 -0.12110767
000150 2d 37 0f 3d db 49 2c 3d 14 ab f0 bb cf 30 a4 3c
       0.03496473 0.04206262 -0.007344613 0.020042805
000160 1f 14 0a bd 68 30 86 bb 44 a6 30 3e 60 cb c3 bd
       -0.033710595 -0.004095126 0.17250925 -0.09560275
000170 d3 e2 ee bc 7f 49 88 3c e8 58 a3 bc ab 68 da 3c
       -0.029160893 0.016636608 -0.019939855 0.026661238
000180 3a 27 14 bc 75 2b 30 3e 70 30 60 3d 2c 2f f4 3c
       -0.0090425555 0.17204078 0.054733694 0.02980765
000190 3e 43 de bd e3 af 17 3e 75 df 8c bc a7 69 e9 bd
       -0.10852669 0.14813189 -0.017196396 -0.11397105
0001a0 78 d1 06 3d ed ee 1f bd 4f 0a 6f 3b 1b f1 17 3e
       0.03291461 -0.039046217 0.003647465 0.14838068
0001b0 9b b4 08 be ce 61 84 3d 6e 74 d7 3c 54 38 ef 3c
       -0.13350146 0.06463967 0.026300635 0.029201664
0001c0 fd 97 c3 ba 95 e1 75 3c e4 bf a8 3b 8f 3b 2c 3e
       -0.0014922615 0.015007396 0.0051498283 0.16819595
0001d0 64 9e 96 3c 88 63 60 3e f0 5e 8e 3c b7 f6 17 bd
       0.018386073 0.21912968 0.017379254 -0.03710052
0001e0 59 34 26 bd be ea f7 3b 8f ca 2b ba b8 47 b7 3c
       -0.040577266 0.0075658252 -0.0006553316 0.022373065
0001f0 8c 1e bf bd 80 e8 f1 bc 15 26 c2 bd 48 dd 05 bc
       -0.09331998 -0.02952981 -0.0947992 -0.008170433
