app/src/main/ml/mango_model.tflite (tflite, 709292 bytes, 10 tensors)

sequential/conv2d/BiasAdd/ReadVariableOp f4 [32]
0.0025454075 -0.018032888 0.00669481 -0.0073246215 -0.012543049 -0.04066328 -0.042931844 -0.025102483
0.0109908 -0.001647112 -0.020264689 -0.007979958 -0.016384156 -0.016669566 0.009818455 0.0054550073
-0.014619355 0.022484727 -0.023506368 0.0088003 0.0080948 -0.035571568 -0.027081324 -0.013542946
-0.030640557 0.0071168235 0.017551633 0.00406465 -0.017007686 -0.02254191 -0.021730684 0.013154006
00000000: dad0 263b b5b9 93bc 2360 db3b 6103 f0bb
00000010: 5c81 4dbc 8a8e 26bd 4dd9 2fbd b9a3 cdbc
00000020: c212 343c e8e3 d7ba 2202 a6bc 5fbe 02bc
00000030: 1138 86bc 9d8e 88bc 96dd 203c ebbf b23b
00000040: 0586 6fbc e431 b83c 6d90 c0bc 222f 103c
00000050: 0da0 043c 7eb3 11bd a7d9 ddbc 3ce3 5dbc
00000060: e801 fbbc 3e34 e93b 71c8 8f3c c130 853b
00000070: b453 8bbc d0a9 b8bc 8c04 b2bc e683 573c

sequential/conv2d_1/BiasAdd/ReadVariableOp f4 [32]
-0.003651405 0.0073801363 -0.020599807 -0.013202297 -0.016123049 -0.01827794 0.014579011 -0.004846086
0.0077890498 -0.012674514 -0.015847865 0.0027504424 0.008980614 -0.00559224 0.009142973 0.016786162
0.003663443 0.013525775 -0.0052062445 0.0019197962 -0.019801253 -0.037366044 -0.029922169 0.009987772
-0.029632144 -0.01867481 -0.01233151 -0.028132819 0.0054471535 -0.0114492895 0.009174438 -0.0039635967
00000000: 694c 6fbb 12d5 f13b edc0 a8bc 724e 58bc
00000010: 7c14 84bc 9ebb 95bc cedc 6e3c eacb 9ebb
00000020: 493b ff3b c4a8 4fbc 62d3 81bc c440 343b
00000030: 6d23 133c 1c3f b7bb 69cc 153c 2283 893c
00000040: 6016 703b 369b 5d3c 2599 aabb aca1 fb3a
00000050: 3d36 a2bc 230d 19bd 561f f5bc c1a3 233c
00000060: 1cbf f2bc eafb 98bc 1a0a 4abc cc76 e6bc
00000070: 097e b23b cd95 3bbc 6250 163c 0fe1 81bb

sequential/conv2d_2/BiasAdd/ReadVariableOp f4 [64]
-0.012069103 -0.018112147 -0.0412662 -0.0545339 0.0065273237 0.05609397 -0.0273732 -0.014658218
0.027283996 0.031023107 0.02111051 -0.022028098 -0.010434233 -0.026095541 0.017510062 0.0002504684
-0.035177313 0.0020064225 -0.010630233 -0.05100934 -0.023756243 -0.009140254 -0.030410422 -0.012923894
-0.02494174 -0.02709569 0.0023865185 -0.0586469 -0.019085772 -0.016055143 -0.005539299 0.022549048
-0.0004968302 -0.019263681 -0.014258126 -0.029209686 -0.054359984 -0.008059398 -0.01624673 -0.028919403
-0.031069571 -0.03558198 0.012049718 -0.030349035 -0.007326421 0.005117557 -0.0101411445 -0.02650786
0.011594078 -0.029882358 -0.030373815 -0.011926312 -0.034920696 -0.011535236 -0.01256022 -0.06466096
-0.02716582 -0.042098746 -0.007910224 0.011028781 -0.018531179 -0.012736339 0.05420015 -0.016104067
00000000: 7dbd 45bc ed5f 94bc bf06 29bd f05e 5fbd
00000010: 29e3 d53b cac2 653d c33d e0bc 0629 70bc
00000020: b082 df3c 2c24 fe3c f3ef ac3c 4574 b4bc
00000030: 58f4 2abc 51c6 d5bc 4371 8f3c 4d51 8339
00000040: 1616 10bd 2f7e 033b 6e2a 2ebc 2bef 50bd
00000050: 749c c2bc 01c1 15bc 471f f9bc bebe 53bc
00000060: 9f52 ccbc c8f7 ddbc 2367 1c3b bb37 70bd
00000070: c459 9cbc 1386 83bc 0283 b5bb c8b8 b83c
00000080: b63d 02ba dece 9dbc ea9a 69bc 2749 efbc
00000090: 93a8 5ebd 910b 04bc dd17 85bc 62e8 ecbc
000000a0: 9d85 febc 69be 11bd 2e6c 453c 8a9e f8bc
000000b0: 7912 f0bb 2eb1 a73b 0b27 26bc 0327 d9bc
000000c0: 16f5 3d3c d9cb f4bc 82d2 f8bc 9466 43bc
000000d0: 0109 0fbd 49fe 3cbc 62c9 4dbc f76c 84bd
000000e0: db8a debc bc6f 2cbd e299 01bc 0fb2 343c
000000f0: b3ce 97bc 14ac 50bc fa00 5e3d adec 83bc

sequential/conv2d/Conv2D f4 [32, 3, 3, 3]
-0.1109342 -0.15706575 0.16389018 -0.032629468 0.096878015 0.18220945 -0.04882389 0.030545436
0.18869318 0.11503565 -0.048134424 0.12294967 -0.10689355 0.0076673934 0.05523836 -0.1248824
-0.17546675 -0.005668228 -0.033802312 -0.009205035 -0.051301625 -0.030936902 -0.122880064 0.004771534
0.058145825 0.079873316 -0.07621649 0.15625364 -0.13261837 -0.1091404 -0.06908297 0.053828392
0.121944316 -0.018844455 0.05869993 -0.09734867 0.12258518 -0.08351886 0.1384429 0.02013627
-0.057882994 0.14100192 -0.14698672 0.041347366 0.096870475 0.12107559 -0.115971215 -0.042850673
0.023885228 -0.12228854 0.10296448 -0.08615846 0.09694191 -0.15577225 0.016568135 -0.039981496
-0.005760374 -0.01290329 0.10847999 -0.16386989 0.0124356905 -0.0653919 -0.018149951 0.08851691
-0.02566884 0.048669126 0.012430499 -0.041547284 -0.07903835 0.08061004 0.12364401 -0.06269079
-0.033814594 0.08299112 0.09286305 -0.018167906 0.012728831 -0.1717261 -0.053364724 0.12552455
-0.12418176 0.0045836573 0.016581053 0.02339292 0.05386962 0.04198942 -0.11460386 0.088615194
-0.007573803 -0.11118644 0.06206706 -0.042032946 0.07183746 0.059045892 -0.029729204 0.09765608
-0.069807425 -0.058910124 -0.07282751 0.01421829 0.08182639 0.017440869 0.12897077 0.030253751
-0.10110282 0.11868563 -0.08311374 -0.089595474 0.06336149 0.11980453 -0.1360034 -0.13129869
0.068320274 -0.09732684 0.10493507 -0.056273777 0.044902522 0.09656928 0.07599881 -0.14240336
0.09354241 -0.119347565 -0.015866866 -0.12486899 -0.09216395 -0.0973553 -0.09468188 -0.13445053
0.09185143 -0.061993565 0.120719284 -0.117099404 0.05572833 -0.110235214 -0.13054568 -0.12558706
0.0925341 0.0966624 0.080318846 0.033766214 -0.050966416 -0.07341173 0.09176436 0.12174118
-0.05802863 0.091279544 0.04918101 -0.11662688 -0.082436524 0.10122444 -0.028149834 0.040283814
0.06781236 -0.14408457 -0.039132595 0.10821527 -0.025785172 0.07684372 0.15040588 -0.07560859
-0.005205823 0.098442405 0.028082408 0.03263556 0.111414835 -0.0726916 0.093054414 0.1449665
-0.04891283 0.004567988 0.1313056 -0.12426127 0.0037950007 0.016262298 -0.009384191 -0.044056922
0.14224504 -0.12451808 -0.06578877 -0.006181591 -0.031543247 0.09378389 0.11093041 0.088041216
-0.084988154 0.020243075 0.057647385 0.057095874 0.0033255257 -0.045390576 0.10246196 0.042397525
0.0021661443 0.1297291 0.0025906495 0.12542687 -0.030288354 -0.09106408 -0.047538392 0.12573273
0.009460172 -0.07723773 -0.04536635 0.003195077 -0.016281592 0.11527925 0.088399366 0.14584045
0.057435773 -0.100468576 0.08857877 0.0040638433 0.090044886 0.11855376 -0.040784366 -0.024163289
-0.10529051 -0.040102772 -0.059205424 -0.024633037 -0.072857685 -0.15164219 -0.014421168 0.07067282
-0.081934646 -0.1119431 -0.083697334 0.044789005 -0.02784303 -0.035880532 -0.024234599 0.072215155
-0.035721485 -0.10481578 0.13329434 0.14440344 0.06330235 0.12170107 0.11889224 0.029378429
0.05426124 -0.004052817 -0.12736373 -0.16238591 -0.16201606 0.035475984 0.023140617 -0.116649985
-0.1425889 0.015744623 -0.03313634 -0.08410222 -0.109417595 0.05908952 -0.07620116 -0.019208299
00000000: 7831 e3bd d8d5 20be d4d2 273e 7aa6 05bd
00000010: fb67 c63d 1d95 3a3e 8ffb 47bd 6c3a fa3c
00000020: c938 413e d097 eb3d 9a28 45bd 09cd fb3d
00000030: 01eb dabd c23e fb3b 9e41 623d 58c2 ffbd
00000040: 8ead 33be 8bbc b9bb 4b74 0abd b7d0 16bc
00000050: a721 52bd 636f fdbc 8ba8 fbbd 875a 9c3b
00000060: 512a 6e3d 9f94 a33d 6417 9cbd f400 203e
00000070: 1ccd 07be 0185 dfbd 5f7b 8dbd 297b 5c3d
00000080: f1bd f93d b05f 9abc 566f 703d bd5e c7bd
00000090: f00d fb3d f00b abbd fac3 0d3e d2f4 a43c
000000a0: b816 6dbd cf62 103e b083 16be db5b 293d
000000b0: 0764 c63d 7bf6 f73d 5182 edbd 3084 2fbd
000000c0: f4aa c33c 6a72 fabd 0bdf d23d d973 b0bd
000000d0: 7b89 c63d c382 1fbe e6b9 873c a3c3 23bd
000000e0: 85c1 bcbb 5268 53bc c22a de3d 82cd 27be
000000f0: 11bf 4b3c 30ec 85bd 35af 94bc 5b48 b53d
00000100: 7647 d2bc 4759 473d 4ba9 4b3c 7c2d 2abd
00000110: dcde a1bd e016 a53d 1239 fd3d 0764 80bd
00000120: 2c81 0abd 40f7 a93d fc2e be3d dcd4 94bc
00000130: 968c 503c f7d8 2fbe f894 5abd 8289 003e
00000140: 0253 febd 8132 963b fdd4 873c 82a2 bf3c
00000150: 64a6 5c3d 19fd 2b3d 6eb5 eabd e27b b53d
00000160: aa2d f8bb b7b5 e3bd 083a 7e3d bd2a 2cbd
00000170: 851f 933d 1bda 713d a98a f3bc e9ff c73d
00000180: 32f7 8ebd be4b 71bd 9726 95bd d5f3 683c
00000190: 9894 a73d 27e0 8e3c ea10 043e b7d6 f73c
000001a0: ff0e cfbd 7411 f33d 8937 aabd d57d b7bd
000001b0: abc3 813d 145c f53d 7a44 0bbe 2a73 06be
000001c0: 80eb 8b3d 4b53 c7bd 33e8 d63d 557f 66bd
000001d0: b5eb 373d 1dc6 c53d 44a5 9b3d 30d2 11be
000001e0: 2a93 bf3d 7f6c f4bd 3bfb 81bc 50bb ffbd
000001f0: 74c0 bcbd 3762 c7bd 93e8 c1bd 66ad 09be
00000200: 9a1c bc3d f7ec 7dbd ac3b f73d d0d1 efbd
00000210: 6443 643d 00c3 e1bd c4ad 05be e599 00be
00000220: 8582 bd3d f0f6 c53d 357e a43d 714e 0a3d
00000230: 29c2 50bd e458 96bd f4ee bb3d 7153 f93d
00000240: 6eaf 6dbd c5f0 ba3d 0772 493d 13da eebd
00000250: 7bd4 a8bd c24e cf3d 7b9a e6bc a400 253d
00000260: 35e1 8a3d e88a 13be 8049 20bd f89f dd3d
00000270: 6d3b d3bc 3e60 9d3d 0004 1a3e add8 9abd
00000280: 9c95 aabb 2c9c c93d 140d e63c ddac 053d
00000290: 762d e43d 55df 94bd 5093 be3d 1972 143e
000002a0: d258 48bd 10af 953b fa74 063e b17c febd
000002b0: 8cb5 783b 8338 853c 26c0 19bc 0875 34bd
000002c0: afa8 113e 5603 ffbd 43bc 86bd f28e cabb
000002d0: 7e33 01bd c511 c03d 7c2f e33d f44e b43d
000002e0: 450e aebd ced4 a53c aa1f 6c3d 5ddd 693d
000002f0: 10f1 593b 78eb 39bd 93d7 d13d 07a9 2d3d
00000300: dff5 0d3b b5d7 043e e3c7 293b e76f 003e
00000310: 481f f8bc ce7f babd 9eb7 42bd 15c0 003e
00000320: d6fe 1a3c d12e 9ebd 11d2 39bd 7f64 513b
00000330: f960 85bc 8717 ec3d ba0a b53d 3357 153e
00000340: c641 6b3d 78c2 cdbd c968 b53d fd29 853b
00000350: 7469 b83d 50cc f23d 820d 27bd 17f2 c5bc
00000360: 8da2 d7bd ce42 24bd 6381 72bd 39cb c9bc
00000370: 6936 95bd 1748 1bbe c346 6cbc e9bc 903d
00000380: 5acd a7bd 6d42 e5bd 8269 abbd ad74 373d
00000390: 1117 e4bc 77f7 12bd a387 c6bc 8ae5 933d
000003a0: b150 12bd a8a9 d6bd 507e 083e 7fde 133e
000003b0: aaa4 813d 693e f93d c67d f33d 08ab f03c
000003c0: 0941 5e3d 7ecd 84bb a36b 02be 7e48 26be
000003d0: 8ae7 25be 444f 113d 6491 bd3c 30e6 eebd
000003e0: d302 12be defa 803c f9b9 07bd c93d acbd
000003f0: 5516 e0bd da07 723d 5b0f 9cbd b95a 9dbc

sequential/conv2d_1/Conv2D f4 [32, 3, 3, 32]
-0.004536338 -0.13210018 0.14265591 -0.075150564 0.13074656 0.039563682 -0.033057343 0.13777934
0.0060716425 -0.094312236 0.094972774 0.02921211 -0.015981851 0.124240614 -0.09051461 -0.13444373
-0.12563846 0.12223121 0.015907874 0.11687217 0.11048501 0.04300266 -0.048869547 -0.08407814
-0.10954046 0.027485063 0.12734035 0.13469276 0.046159808 0.1968009 -0.073521115 0.085378416
-0.07479496 0.08930259 0.10801284 0.071257666 0.12899917 -0.08436237 0.07914522 0.014211827
0.0964772 -0.028728995 0.120603666 0.0475162 0.0954065 -0.042324565 0.12046264 -0.093762666
-0.13095489 -0.02558398 -0.017460868 -0.106856644 -0.12788679 0.033575803 -0.05308795 0.097997874
0.07393439 -0.092877455 0.07859714 0.06782626 0.20369312 -0.089214064 -0.08072687 0.103790976
0.15066206 -0.048385587 0.12368934 0.01603264 0.106173806 0.07593588 0.073283024 -0.056102008
-0.05460946 0.09018557 -0.06868877 0.009721605 0.16432124 0.016664773 0.017732406 -0.0283427
0.105979666 0.122977376 -0.022796454 0.051889293 0.016314223 0.1545276 -0.09218754 0.02436045
0.05772357 0.021235667 0.016303513 0.17433822 -0.053458005 -0.112731166 -0.011125752 0.050980847
-0.051208142 0.15154669 0.0481541 -0.038199726 -0.10173109 -0.056443688 -0.08561796 0.107976526
-0.045645036 0.047809172 -0.012624087 0.032738045 -0.024948433 -0.096659966 0.08414763 -0.07127768
0.06716754 -0.1289172 -0.07819997 -0.0649452 0.16813292 -0.026157992 -0.12475722 -0.01775936
-0.08160292 -0.021810966 0.16731745 -0.054562226 0.120624706 0.2096068 -0.05643324 0.0429823
0.15533605 0.015915716 -0.103118956 -0.020468628 0.072551414 0.07376537 0.003181347 -0.11787589
-0.14116237 0.09778643 -0.100097686 -0.022008423 0.0990877 -0.03234188 0.15224846 -0.10410284
0.06337312 0.09680662 0.06386275 0.077724196 -0.0754886 0.029354881 0.12214324 -0.105419725
0.023866303 0.12747748 0.0675212 -0.06268523 0.056276526 0.12746672 0.010606201 0.044707064
-0.058862098 0.14671977 -0.06884797 -0.0005973201 -0.1356907 0.0863358 0.15194923 0.15867917
-0.082855694 0.10555825 -0.042238034 0.035917375 0.11879256 0.086411566 -0.005098975 -0.06737448
0.13781445 0.022655563 0.034939628 0.079802915 -0.14144884 0.11943687 0.01596906 -0.063318096
-0.018898677 0.07115245 -0.061734352 0.054524228 0.19056801 0.0031786645 -0.010849748 0.08359571
0.035416875 -0.034596734 0.18348175 0.049728904 -0.012544159 -0.13348612 -0.10155955 -0.12165605
-0.055917498 0.010394009 -0.058335282 -0.109736145 -0.16473432 -0.13914274 -0.016531408 -0.14029925
-0.031661287 -0.025035154 0.09650065 -0.006515339 -0.056727115 0.011669561 -0.033393666 0.0664006
0.047583204 -0.04931112 0.10988432 0.0919257 0.15565298 0.01945839 -0.14549857 0.0065530604
-0.18468706 0.0052244887 -0.08043865 0.09316724 0.12639725 -0.04141745 -0.15335986 -0.038602605
-0.08363122 0.03502322 0.05288795 -0.07411818 0.08485177 -0.019629657 0.1282423 -0.104867674
0.105559796 -0.111388445 -0.1103263 -0.09625417 -0.017009534 -0.13652807 0.04672305 0.122634396
-0.05567566 -0.17140876 0.10627159 -0.03136366 -0.09022076 0.10192421 0.04763376 -0.04704725
00000000: 90a5 94bb 4545 07be 6414 123e 8ae8 99bd
00000010: 6de2 053e 870d 223d 2367 07bd 0716 0d3e
00000020: a1f4 c63b c626 c1bd 1681 c23d 3c4e ef3c
00000030: 5fec 82bc dd71 fe3d b95f b9bd 9eab 09be
00000040: 5ea7 00be 5b54 fa3d 3b51 823c ad5a ef3d
00000050: f745 e23d 8f23 303d 6f2b 48bd 2931 acbd
00000060: c056 e0bd 5b28 e13c 8265 023e e6ec 093e
00000070: 1112 3d3d 2d86 493e 3d92 96bd e1da ae3d
00000080: 1a2e 99bd 47e4 b63d d635 dd3d 8aef 913d
00000090: 5c18 043e 2ec6 acbd e416 a23d b9d8 683c
000000a0: d795 c53d 1259 ebbc 0eff f63d 59a0 423d
000000b0: 7c64 c33d 865c 2dbd 1eb5 f63d a406 c0bd
000000c0: 0a19 06be 7f95 d1bc 180a 8fbc a8d7 dabd
000000d0: c1f4 02be c886 093d c072 59bd 1cb3 c83d
000000e0: ea6a 973d 8936 bebd 8af7 a03d 7fe8 8a3d
000000f0: ee94 503e ddb5 b6bd 2154 a5bd 5d90 d43d
00000100: 2847 1a3e f72f 46bd d650 fd3d e256 833c
00000110: a771 d93d 4584 9b3d 6915 963d 38cb 65bd
00000120: 2bae 5fbd 36b3 b83d b3ac 8cbd 5e47 1f3c
00000130: d443 283e 9084 883c 8d43 913c f32e e8bc
00000140: de0b d93d 90db fb3d a1bf babc de89 543d
00000150: 68a5 853c 7c3c 1e3e d2cc bcbd 918f c73c
00000160: 8d6f 6c3d 6cf6 ad3c f28e 853c b885 323e
00000170: c8f6 5abd 99df e6bd c948 36bc 4bd1 503d
00000180: a1bf 51bd 0e2f 1b3e 3c3d 453d 5177 1cbd
00000190: 6458 d0bd 7f31 67bd 7858 afbd cc22 dd3d
000001a0: 4af6 3abd 8dd3 433d 42d5 4ebc 5418 063d
000001b0: a860 ccbc a9f5 c5bd 9855 ac3d 08fa 91bd
000001c0: 238f 893d df02 04be 4e27 a0bd fd01 85bd
000001d0: 092b 2c3e 4949 d6bc b780 ffbd 147c 91bc
000001e0: 6f1f a7bd e9ac b2bc 4455 2b3e a47c 5fbd
000001f0: 160a f73d 2aa3 563e 8b26 67bd 350e 303d
00000200: 6a10 1f3e ad61 823c 0830 d3bd d3ad a7bc
00000210: d695 943d 4c12 973d 257e 503b ea68 f1bd
00000220: de8c 10be 4044 c83d 0400 cdbd 024b b4bc
00000230: 7eee ca3d eb78 04bd 05e7 1b3e df33 d5bd
00000240: c4c9 813d 8d42 c63d 79ca 823d dd2d 9f3d
00000250: c499 9abd a679 f03c 3c26 fa3d 4ce6 d7bd
00000260: 4483 c33c 7589 023e 8e48 8a3d 1d61 80bd
00000270: 3782 663d a386 023e a2c5 2d3c c11e 373d
00000280: 6219 71bd b53d 163e 2a00 8dbd 7995 1cba
00000290: 81f2 0abe d3d0 b03d 9498 1b3e cb7c 223e
000002a0: 3fb0 a9bd ec2e d83d ca01 2dbd 191e 133d
000002b0: 8449 f33d 8cf8 b03d 4d15 a7bb a2fb 89bd
000002c0: 3b1f 0d3e 2998 b93c db1c 0f3d b66f a33d
000002d0: f7d7 10be 519b f43d 8cd1 823c ebac 81bd
000002e0: 66d1 9abc 60b8 913d 29dd 7cbd cc54 5f3d
000002f0: 4324 433e 2451 503b 24c3 31bc 3a34 ab3d
00000300: 4911 113d 4eb5 0dbd a4e2 3b3e 89b0 4b3d
00000310: 0486 4dbc 96b0 08be 74fe cfbd cf26 f9bd
00000320: bf09 65bd a24b 2a3c faf0 6ebd 58bd e0bd
00000330: 1db0 28be 6f7b 0ebe e06c 87bc 9baa 0fbe
00000340: 44af 01bd 8616 cdbc 22a2 c53d a07e d5bb
00000350: b15a 68bd b031 3f3c ccc7 08bd 0afd 873d
00000360: 9be6 423d 75fa 49bd 080b e13d 8b43 bc3d
00000370: 7f63 1f3e 3467 9f3c 94fd 14be 0ebb d63b
00000380: 9b1e 3dbe 3032 ab3b 05bd a4bd 77ce be3d
00000390: 486e 013e 58a5 29bd 5e0a 1dbe c41d 1ebd
000003a0: d846 abbd 8274 0f3d 09a1 583d 46cb 97bd
000003b0: c4c6 ad3d 60ce a0bc f351 033e ddc4 d6bd
000003c0: bc2f d83d a01f e4bd c1f2 e1bd e820 c5bd
000003d0: 9457 8bbc 04ce 0bbe ab60 3f3d be27 fb3d
000003e0: 290c 64bd c785 2fbe eba4 d93d 2e77 00bd
000003f0: a9c5 b8bd a4bd d03d 9e1b 433d 9eb4 40bd

sequential/conv2d_2/Conv2D f4 [64, 3, 3, 32]
0.12900749 0.21183899 0.11003718 0.035227604 -0.00074345927 -0.048468303 0.092863396 0.12581538
0.088095695 0.1693601 0.08346852 -0.0777082 0.10838728 -0.048428062 -0.100724086 0.13371284
0.1468136 0.12141168 -0.13305394 0.04342658 0.029129773 0.13375668 -0.015033422 -0.031136453
-0.17165507 -0.038018562 0.029884754 0.123035684 -0.046981826 0.14628701 0.15214293 0.10042809
0.087331325 0.10716048 -0.0442181 -0.00013316351 -0.039208442 0.048987057 0.2512212 0.06435674
0.065989584 0.1261143 -0.15301424 -0.10404753 0.15244508 -0.09323751 0.15973435 0.2403225
0.0013241102 -0.07724098 0.045463886 -0.068354495 0.10642189 0.005807531 0.04155637 0.20810805
-0.09514445 0.13995735 -0.09616555 0.10528654 -0.011544194 -0.11664368 0.022595031 -0.06571706
0.07163184 0.016781127 0.04553575 -0.102253586 -0.043158054 0.14726919 0.01566751 0.0905174
-0.012289487 0.1150089 0.06902596 -0.008931875 0.009825525 0.1818608 -0.036748543 0.10682663
0.05220768 -0.26349145 -0.049115315 -0.045357116 -0.08127663 0.045054484 0.002782869 0.041963942
0.121279724 -0.053865477 0.050876703 0.09921984 0.14066324 0.09899935 0.06124888 -0.08704299
0.07287864 0.17040722 0.12942258 0.062785566 -0.04203194 0.0057249153 0.2158184 -0.061577428
0.1166726 -0.035345357 0.05119935 -0.074849635 -0.007176125 0.044026416 -0.034115512 -0.029277219
0.045970324 0.015761111 -0.061275274 0.03467297 0.10546243 0.109415285 -0.06400657 0.098932624
-0.13116448 -0.08736481 -0.05447422 0.07420698 0.041980803 -0.028683897 0.042160567 -0.024952501
0.0652627 0.21855421 0.1721107 -0.1141837 -0.029010793 -0.023144761 0.044304498 -0.10889353
0.0004659701 -0.14988436 0.11083179 -0.035579655 -0.07024691 0.18357557 -0.022790551 0.035234522
-0.07983867 -0.08154652 -0.033509187 -0.012164153 0.07802901 -0.09078425 0.08527988 0.08151946
0.0034768975 -0.07353538 -0.083485745 0.04001723 -0.028573431 -0.028734758 -0.12931217 -0.08326468
0.12407973 0.09375317 -0.044808965 -0.069865234 0.16682889 0.07934393 0.081079565 0.12157073
-0.067254476 -0.07536642 0.0855854 -0.30806974 0.00849336 0.039240945 0.081614494 0.076666035
-0.031379096 -0.19596516 -0.15935242 0.026988631 -0.036430962 0.07373128 -0.07927637 -0.0032584232
0.029354779 -0.063293435 0.13550673 -0.06202514 -0.051941767 0.14757927 -0.07056948 0.1414466
0.17722905 0.15130298 -0.039960757 0.05685085 -0.027449682 0.0243792 0.23074631 -0.0914041
0.1295121 -0.0035272567 -0.04931726 -0.15983257 0.14252667 0.08096681 0.13533542 0.1541554
-0.08732035 -0.003978539 -0.14402084 -0.09368421 0.14284277 -0.055987902 0.12161491 0.011901888
-0.16785377 -0.18083064 -0.062521875 0.003132529 -0.013719225 0.12152354 -0.10540279 0.015851166
0.026640493 0.048911683 -0.10984007 -0.17471595 0.010792768 0.019427603 0.22627611 -0.092679136
-0.024823058 -0.14707251 0.08189215 -0.15539153 -0.019393643 0.033963997 -0.013455182 0.09336896
-0.10483198 -0.246425 -0.043099653 -0.12616503 -0.11132169 -0.17529725 -0.17242117 0.04216719
-0.11645452 -0.02423832 0.087386414 0.08695317 0.07105571 0.008792151 0.08962886 -0.020885948
00000000: 8a1a 043e 52ec 583e 2c5b e13d d24a 103d
00000010: b5e4 42ba b386 46bd 2a2f be3d bfd5 003e
00000020: 846b b43d bc6c 2d3e 8bf1 aa3d 7a25 9fbd
00000030: 26fa dd3d 815c 46bd 6e48 cebd 05ec 083e
00000040: 4e56 163e b0a6 f83d 4b3f 08be 12e0 313d
00000050: 90a1 ee3c 83f7 083e be4e 76bc e011 ffbc
00000060: 59c6 2fbe 5ab9 1bbd dfd0 f43c 22fa fb3d
00000070: 0470 40bd 43cc 153e 5bcb 1b3e 3ead cd3d
00000080: c4da b23d f476 db3d 0a1e 35bd cfa1 0bb9
00000090: 0899 20bd a7a6 483d 11a0 803e 77cd 833d
000000a0: 8c25 873d 1b24 013e c4af 1cbe df16 d5bd
000000b0: 901a 1c3e 4ff3 bebd 6791 233e 1a17 763e
000000c0: c48d ad3a 8530 9ebd 5738 3a3d 71fd 8bbd
000000d0: b8f3 d93d 1a4d be3b 0337 2a3d 471a 553e
000000e0: 18db c2bd fb50 0f3e 72f2 c4bd 78a0 d73d
000000f0: dc23 3dbc e2e2 eebd 3719 b93c aa96 86bd
00000100: b7b3 923d 9378 893c b283 3a3d 546a d1bd
00000110: 80c6 30bd bccd 163e 2659 803c 3061 b93d
00000120: d859 49bc c989 eb3d 7c5d 8d3d 0057 12bc
00000130: 3dfb 203c b839 3a3e a485 16bd ecc7 da3d
00000140: b8d7 553d 5ae8 86be 242d 49bd 62c8 39bd
00000150: 5d74 a6bd 0d8b 383d cb60 363b 62e2 2b3d
00000160: 8161 f83d 0ca2 5cbd 1764 503d c533 cb3d
00000170: 060a 103e 2cc0 ca3d 1be0 7a3d 9843 b2bd
00000180: 6541 953d 3b7f 2e3e 5a87 043e b895 803d
00000190: af29 2cbd 1298 bb3b 80ff 5c3e 9d38 7cbd
000001a0: 0bf2 ee3d 4bc6 10bd 69b6 513d c44a 99bd
000001b0: b325 ebbb 0b55 343d b5bc 0bbd c7d6 efbc
000001c0: 614b 3c3d 721d 813c c8fb 7abd 3f05 0e3d
000001d0: b0fc d73d 1f15 e03d e015 83bd 309d ca3d
000001e0: fb4f 06be 52ec b2bd 5c20 5fbd d4f9 973d
000001f0: 10f4 2b3d 7efa eabc 8fb0 2c3d 3069 ccbc
00000200: 73a8 853d adcc 5f3e ca3d 303e 25d9 e9bd
00000210: 0ba8 edbc 159a bdbc a278 353d 9203 dfbd
00000220: 734d f439 497b 19be c7fb e23d f9bb 11bd
00000230: 9ddd 8fbd 3cfb 3b3e 40b3 babc 1352 103d
00000240: 7582 a3bd dd01 a7bd ee40 09bd 284c 47bc
00000250: accd 9f3d 18ed b9bd 38a7 ae3d adf3 a63d
00000260: a9dc 633b b899 96bd 93fa aabd 1be9 233d
00000270: d412 eabc 2865 ebbc 696a 04be ac86 aabd
00000280: 831d fe3d a901 c03d 9b89 37bd 8115 8fbd
00000290: 31d5 2a3e 127f a23d 0b0d a63d 13fa f83d
000002a0: b7bc 89bd b659 9abd 6647 af3d 51bb 9dbe
000002b0: bc27 0b3c 1dbb 203d 8025 a73d 1503 9d3d
000002c0: 5e87 00bd 17ab 48be 482d 23be 4317 dd3c
000002d0: a238 15bd 6d00 973d a65b a2bd 458b 55bb
000002e0: 6f79 f03c fd9f 81bd 47c2 0a3e 130e 7ebd
000002f0: e4c0 54bd 051f 173e bb86 90bd 61d7 103e
00000300: 887b 353e 2bef 1a3e e4ad 23bd 70dc 683d
00000310: 28de e0bc e3b6 c73c c348 6c3e 1332 bbbd
00000320: d29e 043e 8c29 67bb e500 4abd 26ab 23be
00000330: 83f2 113e edd1 a53d 5e95 0a3e eada 1d3e
00000340: 03d5 b2bd 675e 82bb 337a 13be 82dd bfbd
00000350: 6045 123e 9253 65bd 3d11 f93d 2300 433c
00000360: dce1 2bbe ab2b 39be 780b 80bd 1e4b 4d3b
00000370: 9ac6 60bc 55e1 f83d 6bdd d7bd 4eda 813c
00000380: 2a3d da3c 9e57 483d d5f3 e0bd bde8 32be
00000390: 26d4 303c a326 9f3c edb4 673e 8fce bdbd
000003a0: ba59 cbbc 2d9a 16be 12b7 a73d f51e 1fbe
000003b0: 6bdf 9ebc d51d 0b3d 2073 5cbc 3a38 bf3d
000003c0: 26b2 d6bd d656 7cbe 4389 30bd 6831 01be
000003d0: a0fc e3bd 1f81 33be 2d8f 30be 81b7 2c3d
000003e0: b57f eebd 718f c6bc a6f7 b23d 8114 b23d
000003f0: a885 913d f40c 103c 568f b73d 0219 abbc

sequential/dense/BiasAdd/ReadVariableOp f4 [64]
-0.005046625 -0.0040759295 -0.0063872645 -0.0064294464 -0.006005078 -0.031028928 -0.030469615 -0.02731763
-0.00600514 -0.0060053566 -0.006005098 -0.0060052155 -0.0060036294 0.07313529 -0.0229993 -0.005265735
-0.028429482 -0.00758606 -0.024099903 -0.0060044844 -0.021918138 -0.006042043 -0.006004617 0.083718106
-0.005384723 -0.015895808 -0.03223353 -0.007901507 -0.0060052695 -0.006005253 -0.021839732 -0.005558262
-0.0053738025 -0.027664 0.063127324 -0.02831766 -0.030116398 -0.025655782 0.061534528 -0.02509281
0.08065467 -0.0051253755 -0.005267789 -0.0030296566 -0.019346418 -0.03293317 -0.009173373 -0.0051087593
-0.006004522 0.07477323 -0.038622137 -0.022268564 -0.0055556153 -0.031613663 -0.0054746317 -0.029698899
-0.011970745 -0.006004911 0.06959 -0.0051848637 -0.02763535 -0.0060052294 -0.023216031 -0.021375313
00000000: 295e a5bb 608f 85bb 424c d1bb 1bae d2bb
00000010: 3fc6 c4bb 6130 febc 6a9b f9bc 39c9 dfbc
00000020: c4c6 c4bb 95c8 c4bb 6ac6 c4bb 66c7 c4bb
00000030: 18ba c4bb f4c7 953d 0769 bcbc 308c acbb
00000040: f2e4 e8bc 7c94 f8bb 296d c5bc 44c1 c4bb
00000050: ab8d b3bc 55fc c5bb 61c2 c4bb 6674 ab3d
00000060: 5572 b0bb ed37 82bc 4e07 04bd 5375 01bc
00000070: dac7 c4bb b7c7 c4bb 3de9 b2bc 1522 b6bb
00000080: b916 b0bb 9d9f e2bc e648 813d 70fa e7bc
00000090: aab6 f6bc 132c d2bc a10b 7c3d 708f cdbc
000000a0: 472e a53d c4f2 a7bb 6b9d acbb 348d 46bb
000000b0: 617c 9ebc efe4 06bd ea4b 16bc 6167 a7bb
000000c0: 95c1 c4bb b522 993d 3f32 1ebd 906c b6bc
000000d0: e10b b6bb 547d 01bd 8a64 b3bb 1b4b f3bc
000000e0: f220 44bc d8c4 c4bb 3485 8e3d cae5 a9bb
000000f0: 8863 e2bc 84c7 c4bb 8c2f bebc 481b afbc

sequential/dense_1/BiasAdd/ReadVariableOp f4 [2]
-0.1996404 0.19964036
00000000: 886e 4cbe 866e 4c3e

sequential/dense/MatMul f4 [64, 2304]
0.03484452 -0.018914143 0.017068882 0.008297739 0.027735723 0.024183514 0.01403749 -0.028781788
-0.010414802 0.031993795 0.03971332 0.04472255 -0.009136278 -0.021665625 0.0058453265 -0.047534388
-0.048205137 -0.052365746 -0.02562266 0.03685457 0.048489176 0.034573153 0.015488374 -0.003194686
-0.0118922405 0.034415707 0.0152543485 0.02305231 0.008430235 0.02051883 -0.052045047 -0.05244662
-0.008743979 0.023848496 -0.004510875 0.004148517 -0.00972121 0.027951837 -0.05173198 0.048412897
-0.0038744695 -0.054342926 0.037908107 0.038365044 -0.04128283 0.020711683 -0.025611768 -0.01940976
0.019110471 -0.001397416 -0.049508605 0.04767859 -0.012899507 -0.03013911 0.021486327 0.020593306
-0.018596886 -0.023546474 -0.006517999 -0.028278476 0.02111343 -0.026848065 0.04290522 -0.000717139
-0.035232875 -0.030677631 -0.0037063635 -0.046412174 -0.015443117 0.02573672 0.018978097 0.034230974
0.009764386 0.020552997 0.001365725 -0.02051402 0.023915485 -0.025313769 0.040428508 0.0031173266
0.0022912612 -0.054193564 0.016058588 0.02255257 0.038133636 0.0074410336 0.0003782822 -0.026078103
-0.053714614 -0.037329573 -0.039435264 0.0418635 -0.052569043 0.0023644825 -0.050767057 0.00846002
0.0051090294 -0.008729052 -0.002217918 0.02875653 0.014975106 -0.040397763 0.0269656 0.015523352
-0.037962392 -0.028307915 -0.040981967 0.0071093533 -0.057912443 0.014565632 -0.036677692 -0.0044443584
0.049408503 0.008604317 -0.046015706 -0.00788964 0.035632633 0.019180954 -0.031195996 -0.017331975
0.004768335 -0.017682973 0.03462848 0.008030221 0.015141986 -0.0016121715 0.037035834 0.009375621
0.022855908 -0.0173632 0.031059122 -0.036640637 0.00985847 -0.013670705 0.03719356 0.02137623
0.007292285 0.042233054 -0.025267977 -0.04636882 0.006222911 0.032063846 -0.015209957 -0.045783218
0.040315755 -0.0077950433 -0.016669435 0.035964657 -0.027620582 0.009684975 0.032075234 -0.043641184
-0.004695081 -0.046916652 0.029478021 0.022692379 0.0031671727 0.022703998 0.005692081 0.040851846
0.025840435 -0.0190561 0.021328278 -0.002231218 -0.0445522 0.018240869 -0.024540074 0.01282008
-0.02288396 -0.03573293 -0.049262363 0.02486504 0.016327513 -0.041333534 -0.017533064 0.013654121
0.020233266 0.0071392125 -0.016558183 -0.03040467 -0.024964212 -0.040248312 -0.013489676 -0.03061807
0.02563753 0.018371202 0.01381629 -0.021789929 -0.005461041 0.047480024 0.0090404665 -0.021573408
0.02241484 0.025311261 0.019937327 -0.038888138 0.04004701 -0.03753924 -0.031451717 0.022373728
-0.049788166 -0.03464677 0.01323473 -0.009575307 0.044644125 0.036988176 -0.038731385 0.021061897
-0.05840203 -0.047284767 0.007150507 -0.054862063 0.0065904036 -0.053861257 -0.03782083 0.039107352
0.04010143 -0.024795346 -0.03591074 -0.011791392 0.011857943 -0.039761674 -0.015193165 0.028523693
-0.053115644 0.026157044 -0.055778645 0.0293895 -0.04818558 0.025217362 -7.95422e-05 -0.032525405
0.04520189 -0.052628063 -0.033859536 -0.039856266 0.025026191 -0.032636568 -0.03472614 -0.045808155
-0.011493098 -0.013225353 -0.029563362 -0.00791603 0.020123072 -0.013079155 -0.00659224 -0.026453802
-0.050988223 0.036208678 0.009999622 -0.048311967 -0.012971931 0.046861887 0.0055922116 -0.008609106
00000000: 21b9 0e3d d5f1 9abc 0ad4 8b3c 3df3 073c
00000010: 0736 e33c 811c c63c 80fd 653c c9c7 ebbc
00000020: d8a2 2abc ed0b 033d 6faa 223d fe2e 373d
00000030: 54b0 15bc 1c7c b1bc 278a bf3b 6bb3 42bd
00000040: c072 45bd 777d 56bd 9de6 d1bc d1f4 163d
00000050: 969c 463d 949c 0d3d f3c2 7d3c f05d 51bb
00000060: acd7 42bc 7cf7 0c3d 60ed 793c 33d8 bc3c
00000070: f81e 0a3c 1b17 a83c 302d 55bd 44d2 56bd
00000080: e842 0fbc ec5d c33c f6cf 93bb 48f0 873b
00000090: b645 1fbc 40fb e43c eae4 53bd 9a4c 463d
000000a0: d0ea 7dbb b096 5ebd 8845 1b3d aa24 1d3d
000000b0: 2f18 29bd 8cab a93c c5cf d1bc 3801 9fbc
000000c0: 908d 9c3c 8029 b7ba 89c9 4abd a04a 433d
000000d0: 7458 53bc 4be6 f6bc 1804 b03c 4bb3 a83c
000000e0: 7f58 98bc 89e4 c0bc f094 d5bb 43a8 e7bc
000000f0: 12f6 ac3c 79f0 dbbc 62bd 2f3d 62fe 3bba
00000100: 5950 10bd a84f fbbc 76e6 72bb b11a 3ebd
00000110: 2105 7dbc d0d5 d23c f477 9b3c c735 0c3d
00000120: cefa 1f3c c25e a83c 2002 b33a 050d a8bc
00000130: 68ea c33c d25e cfbc 5d98 253d 104c 4c3b
00000140: fc28 163b 12fa 5dbd 4d8d 833c 2bc0 b83c
00000150: 0432 1c3d ead3 f33b 2d54 c639 bfa1 d5bc
00000160: db03 5cbd e5e6 18bd df86 21bd 1079 2b3d
00000170: a352 57bd 6ff5 1a3b 1ef1 4fbd e59b 0a3c
00000180: a569 a73b 4c04 0fbc 7d5a 11bb d092 eb3c
00000190: 265a 753c 2078 25bd f6e6 dc3c a855 7e3c
000001a0: 747e 1bbd 00e6 e7bc b5dc 27bd 94f5 e83b
000001b0: 9935 6dbd b0a4 6e3c 593b 16bd fba1 91bb
000001c0: 9260 4a3d 1ff9 0c3c f77a 3cbd 8c43 01bc
000001d0: 86f3 113d 6021 9d3c bf8e ffbc c9fb 8dbc
000001e0: b13f 9c3b e2db 90bc 98d6 0d3d 3091 033c
000001f0: 1816 783c 804f d3ba e3b2 173d 349c 193c
00000200: 503c bb3c 453d 8ebc b36f fe3c 7e14 16bd
00000210: 6c85 213c 18fb 5fbc 4658 183d 341d af3c
00000220: 1ff4 ee3b 91fc 2c3d cafe cebc 3bed 3dbd
00000230: 90e9 cb3b 6155 033d 2f33 79bc 2f87 3bbd
00000240: 2222 253d 906d ffbb 578e 88bc ad4f 133d
00000250: 8f44 e2bc bbad 1e3c 5261 033d 19c1 32bd
00000260: 32d9 99bb ad2b 40bd e47b f13c 5ee5 b93c
00000270: 5790 4f3b bcfd b93c a384 ba3b 4454 273d
00000280: 52af d33c 8a1b 9cbc a4b8 ae3c a039 12bb
00000290: 5e7c 36bd e06d 953c 4408 c9bc 500b 523c
000002a0: 2477 bbbc b15c 12bd 55c7 49bd c5b1 cb3c
000002b0: 47c1 853c 5a4d 29bd 80a1 8fbc 89b5 5f3c
000002c0: 3cc0 a53c 0ef0 e93b 07a5 87bc 3713 f9bc
000002d0: bf81 ccbc 6adb 24bd cd03 5dbc bfd2 fabc
000002e0: cc05 d23c 347f 963c b85d 623c cb80 b2bc
000002f0: 88f2 b2bb 6a7a 423d 771e 143c b7ba b0bc
00000300: 549f b73c 9059 cf3c 9b53 a33c 2b49 1fbd
00000310: 5508 243d bfc2 19bd 84d3 00bd 1c49 b73c
00000320: adee 4bbd c6e9 0dbd 7bd6 583c c0e1 1cbc
00000330: c2dc 363d ea80 173d cda4 1ebd 008a ac3c
00000340: f836 6fbd acad 41bd cd4e ea3b 0bb7 60bd
00000350: 50f4 d73b 9f9d 5cbd 04ea 1abd 082f 203d
00000360: 6641 243d 9c1f cbbc 2417 13bd af30 41bc
00000370: d147 423c 23dd 22bd c1ec 78bc 85aa e93c
00000380: ca8f 59bd 4c47 d63c 2678 64bd 40c2 f03c
00000390: 3e5e 45bd a494 ce3c e5cf a6b8 5c39 05bd
000003a0: 9e25 393d 8690 57bd 4cb0 0abd 5340 23bd
000003b0: ba03 cd3c ecad 05bd ff3c 0ebd 55a1 3bbd
000003c0: 8c4d 3cbc 27af 58bc dd2e f2bc 3cb2 01bc
000003d0: 24d9 a43c f449 56bc b803 d8bb a5b5 d8bc
000003e0: 07d9 50bd 8d4f 143d 74d5 233c c5e2 45bd
000003f0: 3988 54bc 40f2 3f3d df3e b73b 350d 0dbc

sequential/dense_1/MatMul f4 [2, 64]
0.0037451978 -0.054866783 -0.040086113 -0.28232405 -0.15625452 0.31094962 0.19534583 0.06007811
-0.05306876 -0.07956237 -0.070659354 -0.2568101 0.076791234 -0.3036828 0.12310021 0.02292335
0.30185914 0.13221584 0.2658544 -0.082595944 0.106621936 0.120337255 -0.11777517 -0.37989372
-0.2784143 0.28285664 -0.035869982 0.085772656 -0.17971724 -0.2563713 0.045393486 0.23013036
-0.29187328 0.0437044 -0.1850143 0.111118555 0.107257985 -0.031031625 -0.36525962 0.21165669
-0.23278712 -0.110137105 -0.20375001 -0.28330567 0.27908427 0.30636573 -0.06801234 -0.15716575
-0.25714484 -0.43112803 0.1474968 0.20965004 0.16479425 -0.0925312 0.117391944 0.055488504
-0.19819523 -0.19092831 -0.13020839 -0.19847184 0.24873906 -0.17598368 0.09575405 0.17702627
0.17146717 0.066071644 -0.029942872 0.082038745 0.020778421 0.13499938 -0.016110575 -0.2829666
0.14717579 0.25685558 0.028138712 -0.113449 0.15016067 0.15727064 -0.27421963 0.10347536
-0.08118026 -0.15616363 -0.25484177 0.20343857 -0.095637634 -0.19843356 -0.0796144 -0.107924744
0.113120906 0.037637692 -0.118769996 0.025269508 0.030247098 -0.09226707 -0.24872468 -0.16117531
-0.028523987 -0.25587958 0.2592737 -0.13946652 -0.14000851 -0.27758375 0.28250104 -0.03169218
0.13487765 0.18953685 0.04705109 -0.29671454 -0.2768509 0.06220878 -0.21188092 -0.09917155
-0.108742274 0.0013955018 -0.028379254 -0.33737695 0.24772625 -0.24721973 0.27431688 -0.22185926
0.18166722 0.07344013 0.34460846 -0.1130363 -0.23657514 0.10100034 -0.22718287 -0.2470287
00000000: fe71 753b febb 60bd 5631 24bd c78c 90be
00000010: 2f01 20be ca34 9f3e bd08 483e 7714 763d
00000020: a15e 59bd 99f1 a2bd dab5 90bd 9d7c 83be
00000030: b944 9d3d 507c 9bbe f71b fc3d c0c9 bb3c
00000040: 488d 9a3e 9763 073e 111e 883e 1028 a9bd
00000050: 9a5c da3d 6173 f63d 1c34 f1bd 6e81 c2be
00000060: 528c 8ebe 96d2 903e 67ec 12bd 93a9 af3d
00000070: cc07 38be 1943 83be 85ee 393d 4ba7 6b3e
00000080: 6a70 95be 6303 333d 6374 3dbe 2092 e33d
00000090: 13aa db3d 0936 febc 4f03 bbbe 88bc 583e
000000a0: bf5f 6ebe 908f e1bd d8a3 50be 710d 91be
000000b0: 22e4 8e3e f8db 9c3e 0e4a 8bbd 0ff0 20be
000000c0: 7da8 83be d0bc dcbe 6709 173e 80ae 563e
000000d0: d3bf 283e ff80 bdbd 306b f03d ea47 633d
000000e0: b1f3 4abe b682 43be 5955 05be 343c 4bbe
000000f0: 74b5 7e3e 1135 34be b31a c43d 6046 353e
00000100: 1795 2f3e 9250 873d c14a f5bc ee03 a83d
00000110: 8237 aa3c 473d 0a3e 53fa 83bc 00e1 90be
00000120: 40b5 163e 9382 833e 2883 e63c f357 e8bd
00000130: b8c3 193e 8e0b 213e 8466 8cbe e4ea d33d
00000140: d641 a6bd 5ce9 1fbe 9f7a 82be 3352 503e
00000150: aadd c3bd 2b32 4bbe e00c a3bd a607 ddbd
00000160: efab e73d fb29 1a3d af3d f3bd 0002 cf3c
00000170: c3c8 f73c 85f6 bcbd afb1 7ebe 240b 25be
00000180: 23ab e9bc a602 83be 86bf 843e 50d0 0ebe
00000190: 645e 0fbe 751f 8ebe faa3 903e a9cf 01bd
000001a0: 5e1d 0a3e f315 423e a5b8 403d f8ea 97be
000001b0: 67bf 8dbe a2ce 7e3d 50f7 58be 741a cbbd
000001c0: 45b4 debd 45e9 b63a 9c7b e8bc acbc acbe
000001d0: f3ab 7d3e 2b27 7dbe 4373 8c3e 132f 63be
000001e0: f906 3a3e c767 963d 8570 b03e 937f e7bd
000001f0: c140 72be 44d9 ce3d a0a2 68be 17f5 7cbe
