app/src/main/ml/model.tflite (tflite, 707912 bytes, 9 tensors)

sequential_1/conv2d_1/Conv2D/ReadVariableOp f4 [32, 3, 3, 3]
0.056368392 0.059257712 0.16988026 -0.065700874 0.15371558 -0.08365995 0.22593315 0.14493684
0.02672687 -0.011193441 -0.16878402 -0.1650159 -0.123381734 0.039661396 -0.11165487 -0.17132041
-0.106581375 -0.17103006 -0.0122979935 0.0074518425 -0.030354409 -0.22772585 -0.16385035 -0.018722894
-0.0075543993 0.020205688 -0.07940814 0.09154135 0.15671273 0.20178737 -0.265689 -0.22687311
-0.19808422 0.018681234 0.048567656 0.13137688 -0.08434112 0.0068582194 -0.06144224 0.075980045
-0.124401286 -0.020954015 0.08881598 0.0815831 -0.046669368 -0.09424461 -0.0374637 0.07679666
0.06792897 0.048686113 0.014155751 0.088731825 0.07901562 0.05307127 -0.09369852 -0.16896024
-0.029354287 0.10264222 0.10070152 -0.03506271 0.19842045 0.0625155 0.24392445 -0.06631494
-0.030892788 0.13234705 0.2524647 0.22802071 0.26342192 0.19065958 0.22215603 0.1544365
-0.054535754 -0.002038778 -0.17481013 -0.2964011 -0.21212214 -0.2654321 0.044056144 0.10517541
-0.008156937 0.1882865 -0.044698913 0.1713266 0.04455885 0.19746308 0.039519195 -0.07950725
-0.1467511 -0.19771588 0.069428906 0.065239616 0.14734088 -0.03541055 0.16284226 0.2015732
0.07765159 -0.12403761 -0.002293978 -0.05004104 -0.13439363 -0.085416086 -0.07620431 0.123766154
0.09649754 -0.19824776 -0.12030676 0.034162905 -0.07290459 0.04365253 0.1704579 -0.062758185
-0.0036115795 0.057186987 0.093783334 -0.059198298 0.04284774 0.12781185 -0.03422008 0.19782214
-0.12316462 0.12496853 -0.04296031 -0.15125197 -0.032190178 -0.0744681 -0.084833115 0.021210017
-0.11385573 -0.08242177 -0.099060595 -0.17578344 0.055066288 -0.068212934 -0.10453102 0.024592549
-0.08323556 0.11653228 0.06810249 0.059717674 0.2141234 0.13411605 0.22539064 0.20201652
-0.09962527 0.10388886 0.03803622 -0.15632382 -0.114359714 -0.16284111 0.06707428 -0.20162864
-0.14674364 0.09479176 -0.11037705 -0.12712486 0.037098 0.106866494 -0.019290771 -0.1921306
-0.16564634 -0.0613856 0.05633417 0.083297834 -0.104590215 -0.15385947 -0.13417351 -0.20568419
0.12865219 0.1505258 0.09237685 0.012445777 0.03768719 -0.024479004 -0.19603004 -0.12598601
-0.11980116 0.13121915 0.18366468 0.06294702 0.046716433 -0.07386365 0.14705785 -0.19793326
0.031899218 -0.17741151 -0.042582117 0.116813 -0.022607872 0.030795708 0.052638166 0.022212591
-0.0828609 0.038211014 -0.16584556 0.1596738 0.0059202076 0.1647845 -0.13241091 0.019602247
-0.020069724 -0.12954642 -0.1572288 -0.06925035 0.18637858 0.053923823 0.1923271 -0.012986726
0.021291483 0.11729087 0.096502624 -0.085208654 0.13330224 0.18660462 0.08241166 0.21544197
-0.24471143 -0.2171814 -0.086374596 0.098014586 -0.13785182 -0.07851192 0.012072662 -0.03993103
0.07957447 0.037557594 0.12832078 0.045467924 -0.047577374 0.005232646 0.18161725 0.12914284
0.12441433 0.1843927 -0.08554535 0.15798424 0.16679025 0.09477555 -0.07350276 -0.05282405
-0.060053837 0.00965914 -0.11909706 -0.037299406 0.044343624 -0.11607926 0.06980788 0.19087851
0.05444406 -0.11163948 0.100630835 -0.13178106 -0.10260648 0.07791312 -0.028462065 -0.26699963
00000000: 8be2 663d 37b8 723d 17f5 2d3e 2e8e 86bd
00000010: 9e67 1d3e e855 abbd 055b 673e 536a 143e
00000020: 4ff2 da3c b264 37bc b8d5 2cbe eef9 28be
00000030: 90af fcbd fd73 223d 4fab e4bd 9e6e 2fbe
00000040: 5647 dabd 8122 2fbe 867d 49bc 962e f43b
00000050: cfa9 f8bc f730 69be 63c8 27be c160 99bc
00000060: e58a f7bb 6686 a53c bca0 a2bd 087a bb3d
00000070: 4d79 203e 59a1 4e3e 6308 88be 6d51 68be
00000080: 97d6 4abe 6309 993c e1ee 463d a987 063e
00000090: 0abb acbd eaba e03b dcaa 7bbd 6d9b 9b3d
000000a0: 1ac6 febd c1a7 abbc 27e5 b53d 0a15 a73d
000000b0: 6128 3fbd 5103 c1bd 8973 19bd 9147 9d3d
000000c0: 581e 8b3d 176b 473d 86ed 673c 08b9 b53d
000000d0: f1d2 a13d 4361 593d 02e5 bfbd ea03 2dbe
000000e0: 6778 f0bc 1636 d23d 993c ce3d eb9d 0fbd
000000f0: bb2e 4b3e 2008 803d 55c7 793e 21d0 87bd
00000100: df12 fdbc fc85 073e 0e43 813e 437e 693e
00000110: 3ddf 863e 443c 433e df7c 633e 9a24 1e3e
00000120: e260 5fbd 059d 05bb 6d01 33be e3c1 97be
00000130: 8c36 59be b7e6 87be 3774 343d 3566 d73d
00000140: aca4 05bc 2dce 403e 3516 37bd 3d70 2f3e
00000150: 5783 363d c333 4a3e e1de 213d b2d4 a2bd
00000160: ec45 16be 0876 4abe be30 8e3d 599c 853d
00000170: 87e0 163e a70a 11bd 1fc0 263e 3469 4e3e
00000180: cc07 9f3d 6e07 febd 9056 16bb d5f7 4cbd
00000190: 7c9e 09be a1ee aebd 0111 9cbd 1c79 fd3d
000001a0: 81a0 c53d 7601 4bbe 6463 f6bd 67ee 0b3d
000001b0: 004f 95bd ffcc 323d 848c 2e3e 5d87 80bd
000001c0: 40b0 6cbb e73c 6a3d 7a11 c03d ea79 72bd
000001d0: 1d81 2f3d 1ce1 023e 5b2a 0cbd e391 4a3e
000001e0: bb3d fcbd 80ef ff3d 26f7 2fbd cce1 1abe
000001f0: d9d9 03bd bb82 98bd fcbc adbd a1c0 ad3c
00000200: 312d e9bd bfcc a8bd 48e0 cabd 9300 34be
00000210: 308d 613d 39b3 8bbd 5c14 d6bd 5076 c93c
00000220: 6877 aabd 7aa8 ee3d 5179 8b3d 859a 743d
00000230: 2a43 5b3e b855 093e cecc 663e 6bdd 4e3e
00000240: 5508 ccbd afc3 d43d decb 1b3d 5a13 20be
00000250: 6d35 eabd d2bf 26be 3d5e 893d bd77 4ebe
00000260: f743 16be 2f22 c23d 5d0d e2bd 052d 02be
00000270: 13f4 173d d2dc da3d ae07 9ebc e2bd 44be
00000280: 329f 29be 786f 7bbd a9be 663d 0e98 aa3d
00000290: 6533 d6bd 568d 1dbe c864 09be e09e 52be
000002a0: 66bd 033e 6f23 1a3e 1330 bd3d 5fe9 4b3c
000002b0: e25d 1a3d 3188 c8bc 19bc 48be 7a02 01be
000002c0: 505a f5bd 505e 063e 9812 3c3e 5eea 803d
000002d0: bb59 3f3d d345 97bd 5596 163e 04af 4abe
000002e0: c1a8 023d 5dab 35be 966a 2ebd a73b ef3d
000002f0: 2534 b9bc 4847 fc3c 1e9b 573d 2ef7 b53c
00000300: fab2 a9bd 2783 1c3d 6bd3 29be 8781 233e
00000310: 4dfe c13b 45bd 283e ba96 07be e494 a03c
00000320: 4369 a4bc d1a7 04be 9600 21be 21d3 8dbd
00000330: 07da 3e3e 3adf 5c3d 65f1 443e 47c6 54bc
00000340: 7a6b ae3c 3236 f03d 2ba3 c53d e081 aebd
00000350: 6280 083e 4815 3f3e 72c7 a83d d29c 5c3e
00000360: a295 7abe cd64 5ebe 2ae5 b0bd dfbb c83d
00000370: 0729 0dbe dcca a0bd 6acc 453c b88e 23bd
00000380: f1f7 a23d fed5 193d 8666 033e 933c 3a3d
00000390: 7ee0 42bd 9e76 ab3b dff9 393e 053e 043e
000003a0: f1cc fe3d 71d1 3c3e 6732 afbd 9fc6 213e
000003b0: 10cb 2a3e af19 c23d 9d88 96bd 085e 58bd
000003c0: 03fb 75bd 5f41 1e3c 29e9 f3bd 43c7 18bd
000003d0: a9a1 353d f7ba edbd 6ff7 8e3d a875 433e
000003e0: bc00 5f3d 3da3 e4bd 8a17 ce3d 9df1 06be
000003f0: 5923 d2bd ea90 9f3d 4729 e9bc 2db4 88be

sequential_1/conv2d_1/Conv2D_bias f4 [32]
0.081856035 -0.008139887 -0.041997638 -0.022985056 0.07555332 0.021126602 0.059568904 -0.068240665
-0.0241017 -0.0019023544 -0.08100527 0.07222324 -0.010513422 -0.0053676693 0.030558642 -0.04189772
0.020962823 -0.083199516 0.013180138 -0.026429117 0.014601117 0.017026199 -0.004738328 0.04570802
-0.03717248 -0.0066045243 0.004662335 0.06948144 -0.054578334 0.0025656123 0.038970582 -0.023608493
00000000: 23a4 a73d 295d 05bc b705 2cbd 284b bcbc
00000010: b3bb 9a3d b211 ad3c 86fe 733d c3c1 8bbd
00000020: ee70 c5bc 6c58 f9ba 17e6 a5bd c7e9 933d
00000030: 7d40 2cbc 46e3 afbb 1e56 fa3c f29c 2bbd
00000040: 3aba ab3c 8264 aabd 81f1 573c e081 d8bc
00000050: 8639 6f3c 877a 8b3c fa43 9bbb 5538 3b3d
00000060: 2c42 18bd c46a d8bb 80c6 983b 494c 8e3d
00000070: 888d 5fbd d523 283b 9e9f 1f3d 9966 c1bc

sequential_1/conv2d_2/Conv2D/ReadVariableOp f4 [32, 3, 3, 32]
-0.10417314 -0.09378369 -0.1844537 0.023965929 0.05870169 -0.0014512746 -0.19631702 -0.07927589
0.05645586 -0.10592781 -0.06812935 0.07913899 -0.11754468 -0.20386636 -0.17114039 0.015873006
-0.020232126 0.123904616 0.09562342 -0.12613672 0.054445405 -0.11769582 0.051918253 -0.15219404
-0.08873522 -0.07865071 0.04135258 -0.266477 0.109004654 -0.0893217 -0.14855272 0.09454098
-0.12062078 -0.057944562 -0.1821085 -0.1214957 -0.11726095 0.0699799 -0.09245086 0.119094275
0.005927595 0.05689102 0.083239704 -0.08872391 -0.0377718 -0.14319651 -0.03786965 -0.20622048
-0.10852195 -0.060295463 -0.18653059 -0.111838505 0.11487125 -0.16238128 0.045400765 -0.15125363
0.09886207 -0.031855043 -0.039624847 -0.1231428 0.047922198 0.06814376 0.11518968 0.04924561
0.072714 -0.0021992105 -0.2547512 0.02995864 -0.11143492 -0.09105229 -0.18900874 -0.038135275
-0.17556997 0.009356381 -0.1679326 -0.08250006 -0.25387746 -0.006181719 0.14250794 -0.16555525
0.11570504 -0.09879514 -0.12354404 -0.030091474 -0.030298233 0.03298237 0.04097479 -0.03914784
-0.023248492 -0.11575541 -0.13635033 -0.23612171 0.024191462 -0.0337204 0.055705797 -0.060188923
0.013262848 -0.08736143 0.119127326 0.06595915 -0.03298657 -0.119364016 0.021652773 0.07773453
0.026883157 0.1519891 -0.018156212 -0.07632246 -0.0317491 0.011456358 -0.09479689 0.047732707
-0.04026181 0.08653942 -0.038153484 0.022359652 0.13754927 0.0044924673 -0.0764608 0.086424485
0.10512704 0.063639894 -0.09356458 -0.17182676 -0.10528964 0.16763149 -0.23722127 -0.15462074
-0.02940035 -0.062120713 0.091965616 -0.030307319 -0.02312625 -0.057064082 0.110422485 0.07466037
0.054232914 -0.20582873 -0.12737967 -0.25600657 -0.025208369 0.14184478 -0.18444835 0.020932917
0.081272505 0.10763601 0.22061792 0.11351822 -0.16935204 -0.07296033 0.1437311 0.064307906
-0.056358922 0.03872496 -0.012707581 -0.1717176 0.033538092 -0.17413908 0.03287338 0.07492057
-0.121868156 0.047151975 0.09271178 0.21846578 0.031132126 0.14303389 -0.010104028 0.06633249
-0.16156538 0.028256025 0.043622993 0.1371067 0.117541805 0.05637967 0.2069534 0.07229363
-0.22998777 -0.04158043 -0.06331214 -0.018592149 0.010743872 0.20839907 -0.053492002 0.18207079
0.019850254 0.09136986 0.2228034 -0.24296 0.032078158 0.1291436 0.19753416 -0.13101627
0.0668978 -0.029053582 0.21359868 -0.18896088 -0.025523432 0.049983323 -0.09726502 0.06777252
0.059349425 -0.16302344 0.090295896 -0.01307337 -0.059233505 -0.08254777 -0.009517931 0.08640908
-0.109687194 -0.15957981 -0.04217253 0.08155707 0.13156947 -0.016356528 -0.19605893 -0.11255129
-0.029385442 0.11983434 0.19633333 -0.04038164 0.13441175 0.07285682 0.0890341 0.0046490375
0.060207486 -0.08204096 0.16626307 0.14762935 0.12631752 0.062841356 0.07166943 0.054861102
0.18531741 0.09797594 -0.06567404 0.03727163 0.21755691 0.08998007 0.052908868 0.029425476
-0.036181238 -0.06453571 0.18201299 0.1648635 0.015428644 0.17890967 0.012114076 0.16933864
0.090254635 0.21299846 -0.060324926 0.09049123 0.07081461 0.16862847 0.17602132 -0.09312255
00000000: ba58 d5bd aa11 c0bd 6ee1 3cbe 3254 c43c
00000010: 2f71 703d b238 beba 5407 49be 665b a2bd
00000020: 433e 673d aef0 d8bd 6787 8bbd 9f13 a23d
00000030: 44bb f0bd 58c2 50be 6d3f 2fbe 1b08 823c
00000040: d8bd a5bc b4c1 fd3d 36d6 c33d fc29 01be
00000050: 2502 5f3d 820a f1bd 3ca8 543d c1d8 1bbe
00000060: d0ba b5bd a013 a1bd 5361 293d ac6f 88be
00000070: d53d df3d 4cee b6bd 341e 18be b49e c13d
00000080: 0708 f7bd 4757 6dbd a77a 3abe bdd2 f8bd
00000090: 8226 f0bd 9f51 8f3d e056 bdbd b3e7 f33d
000000a0: 453c c23b 8f06 693d 9479 aa3d e2b4 b5bd
000000b0: 9ab6 1abd 1ba2 12be 351d 1bbd 762b 53be
000000c0: c240 debd 60f8 76bd e001 3fbe 960b e5bd
000000d0: 9e41 eb3d 4747 26be 27f6 393d 3be2 1abe
000000e0: 3278 ca3d 6f7a 02bd aa4d 22bd 4b32 fcbd
000000f0: 114a 443d f58e 8b3d 91e8 eb3d c4b5 493d
00000100: 14eb 943d a120 10bb c06e 82be d26b f53c
00000110: fe37 e4bd 9f79 babd 828b 41be bc33 1cbd
00000120: 9dc8 33be 824b 193c 86f6 2bbe cbf5 a8bd
00000130: 3afc 81be 0490 cabb 9aed 113e 5187 29be
00000140: c4f6 ec3d 1b55 cabd a804 fdbd 6582 f6bc
00000150: 0034 f8bc 8618 073d 2ed5 273d 7c59 20bd
00000160: 9f73 bebc 2c11 edbd 6c9f 0bbe e4c9 71be
00000170: 2c2d c63c 671e 0abd c32b 643d a988 76bd
00000180: 6b4c 593c 8dea b2bd 07f9 f33d 9715 873d
00000190: ed1c 07bd 1f75 f4bd 2861 b13c 4833 9f3d
000001a0: 113a dc3c 08a3 1b3e 56bc 94bc f34e 9cbd
000001b0: 580b 02bd 73b3 3b3c df24 c2bd 5f83 433d
000001c0: 91e9 24bd 943b b13d d446 1cbd 972b b73c
000001d0: b7d9 0c3e 8c35 933b 7b97 9cbd 52ff b03d
000001e0: d84c d73d a255 823d c99e bfbd 5bf3 2fbe
000001f0: 18a2 d7bd 97a7 2b3e 22ea 72be e654 1ebe
00000200: 01d9 f0bc 4a72 7ebd 7858 bc3d 0e47 f8bc
00000210: 4373 bdbc 07bc 69bd 2f25 e23d 89e7 983d
00000220: 5523 5e3d c4c4 52be d16f 02be 4b13 83be
00000230: c881 cebc c23f 113e 07e0 3cbe 827b ab3c
00000240: 3372 a63d 4570 dc3d aae9 613e 3e7c e83d
00000250: 9f6a 2dbe 3a6c 95bd 3f2e 133e ddb3 833d
00000260: 9dd8 66bd 109e 1e3d 7533 50bc bdd6 2fbe
00000270: 3d5f 093d 8451 32be 3da6 063d f56f 993d
00000280: 0396 f9bd 6e22 413d acdf bd3d 7eb5 5f3e
00000290: cd08 ff3c 7a77 123e 5d8b 25bc 54d9 873d
000002a0: 6571 25be 2e79 e73c 06ae 323d b365 0c3e
000002b0: c2b9 f03d 5eee 663d 98eb 533e af0e 943d
000002c0: ea81 6bbe 3e50 2abd cca9 81bd 904e 98bc
000002d0: 1107 303c 9166 553e 6e1a 5bbd c470 3a3e
000002e0: 009d a23c 1f20 bb3d 9326 643e 82ca 78be
000002f0: 6364 033d 383e 043e 6546 4a3e 2129 06be
00000300: b701 893d c701 eebc 9db9 5a3e f67e 41be
00000310: 8416 d1bc 50bb 4c3d e232 c7bd 52cc 8a3d
00000320: 6218 733d 9eef 26be 0eed b83d b031 56bc
00000330: d59e 72bd ce0e a9bd 19f1 1bbc 3ef7 b03d
00000340: aea3 e0bd e468 23be 1abd 2cbd 6507 a73d
00000350: 26ba 063e 20fe 85bc acc3 48be 4a81 e6bd
00000360: bdb9 f0bc b56b f53d 9b0b 493e 3867 25bd
00000370: 3ca3 093e f535 953d 8357 b63d f456 983b
00000380: 209c 763d 1705 a8bd de40 2a3e 262c 173e
00000390: 6159 013e f8b2 803d 6cc7 923d 09b6 603d
000003a0: d9c3 3d3e 9ca7 c83d 1c80 86bd 23aa 183d
000003b0: 3dc7 5e3e 7947 b83d f8b6 583d b20d f13c
000003c0: c732 14bd 4c2b 84bd 9d61 3a3e fad1 283e
000003d0: 6cc8 7c3c 1934 373e 1e7a 463c 1c67 2d3e
000003e0: 6cd7 b83d 451c 5a3e 4517 77bd 7753 b93d
000003f0: 4007 913d f1ac 2c3e ef3e 343e 09b7 bebd

sequential_1/conv2d_2/Conv2D_bias f4 [32]
-0.041738678 0.030685937 -0.052448463 0.010997593 0.033118013 -0.03145968 0.0104487855 0.01656245
-0.07083639 -0.031400885 0.032765705 -0.028471833 0.00989589 -0.031775095 -0.0050092563 -0.023475945
-0.040706243 -0.019550985 -0.022802573 -0.0392044 0.013212025 -0.018992092 0.00449855 -0.013181104
-0.00705137 0.013419004 -0.010431891 0.04374876 -0.028865287 -0.04473543 -0.029992897 0.014809328
00000000: 2df6 2abd 1361 fb3c 33d4 56bd 402f 343c
00000010: c1a6 073d dedb 00bd 6231 2b3c faad 873c
00000020: ab12 91bd 379e 00bd 5535 063d c33d e9bc
00000030: 5f22 223c 9a26 02bd b024 a4bb a050 c0bc
00000040: 97bb 26bd 6329 a0bc 76cc babc cb94 20bd
00000050: 4077 583c 4e95 9bbc 9368 933b 8ff5 57bc
00000060: 2e0f e7bb 62db 5b3c 86ea 2abc e631 333d
00000070: e576 ecbc 803c 37bd aab3 f5bc d3a2 723c

sequential_1/conv2d_3/Conv2D/ReadVariableOp f4 [64, 3, 3, 32]
0.046575975 -0.13549395 -0.0956831 -0.07435111 0.101351224 -0.08713095 -0.10182648 -0.10326822
-0.12677145 0.08441245 0.030121246 0.07089983 0.0007759736 -0.0036060323 -0.068328016 0.0027236498
0.022878274 -0.17938372 -0.10431805 0.0043745586 -0.04679441 -0.021760093 -0.05932927 -0.031264022
0.012104038 0.057601057 0.031452272 -0.13078311 -0.0012576159 -0.10212897 -0.06968048 0.045012902
-0.123008385 -0.15488853 0.07981941 0.11184493 0.048646864 -0.17915559 -0.023599235 -0.036069103
-0.15946558 -0.12494782 -0.03464242 0.08382728 -0.055612974 -0.050031897 0.015168573 -0.13294862
0.017782876 -0.092827395 -0.016999472 -0.09798161 0.10700437 0.08207894 -0.058061615 0.076210886
-0.043245215 0.06980695 -0.15967919 -0.003899356 0.01571633 -0.053386446 -0.016952788 -0.02049043
-0.1733962 0.11718459 -0.13714427 -0.10275387 0.061212454 0.031715933 0.031517282 0.14439946
-0.17178738 0.014964369 0.10654008 -0.09438583 0.073496446 0.0058048386 0.084805384 0.006695301
-0.14307049 0.12568952 0.09423291 0.0036177326 0.03428461 -0.04587161 -0.1600748 -0.018902991
0.014838494 0.11079299 0.00684478 0.038601864 -0.07079038 -0.11415818 -0.00086903805 -0.03542279
-0.17080238 -0.022354873 0.043007024 -0.1113887 -0.11482818 -0.09890918 -0.002821272 0.02786968
0.13552 0.12626949 0.07973178 0.053788505 -0.03360782 0.08974002 -0.12345013 0.039231017
-0.07573584 -0.040836386 0.09082883 -0.07671458 -0.026462467 -0.11619052 -0.052463647 -0.14565708
-0.12222217 0.06946416 0.067457184 0.11227811 0.084890254 -0.05390159 -0.046870507 -0.07113628
-0.025766505 -0.06453508 0.018176435 0.080586426 -0.01028462 0.018657053 -0.015225521 0.07997166
-0.1359561 -0.116927475 0.047015525 0.15487453 -0.024970874 0.045049127 -0.033024814 0.08844984
0.0620475 -0.029311568 -0.024514101 0.09835416 0.14699677 -0.13856888 -0.13738304 0.120080404
-0.110644735 -0.06690608 -0.1376723 -0.08653519 -0.021270711 -0.16296114 -0.15300846 -0.1407964
0.00097318355 0.09486439 0.12647404 -0.009719163 -0.084248476 -0.009131555 0.041206714 0.07933697
-0.038238276 0.16375677 -0.06265885 -0.0034071875 0.060835302 -0.008734202 -0.08276936 0.122763924
0.08547612 -0.033258025 -0.062875524 -0.08169962 0.015878623 0.029048726 0.037613794 -0.09678752
-0.08815882 -0.122537516 0.12976882 0.11253829 -0.10728108 -0.018767329 0.031506818 0.08997471
0.12426439 0.07586237 0.06906883 -0.08923247 -0.036500953 0.11958637 -0.012049706 -0.044972353
-0.095693074 -0.13241355 0.07234094 0.012838634 0.023141868 -0.06025252 0.07952997 0.061748326
0.096666224 -0.13315263 0.118316226 0.0756776 0.11953519 0.052433427 0.13862158 -0.119546525
-0.14416267 0.15049551 0.006372084 0.07934755 0.036909577 -0.06759322 -0.11787449 -0.010492259
-0.07397529 -0.011221248 0.08302674 0.022949502 -0.12618951 -0.13082246 -0.19443569 -0.07768602
-0.1361572 -0.054882146 0.101815395 0.118811384 -0.08988482 0.08175772 -0.067527086 0.00027770086
0.12781696 -0.09079163 0.024767924 0.06265224 -0.09878601 0.13241692 -0.13614634 0.11121516
-0.09867056 0.019896718 0.06315458 0.05373218 -0.12772836 0.13108395 -0.033521403 -0.088431776
00000000: 73c6 3e3d edbe 0abe 80f5 c3bd 6545 98bd
00000010: 3b91 cf3d b671 b2bd 678a d0bd 4a7e d3bd
00000020: 60d0 01be 6fe0 ac3d d5c0 f63c ee33 913d
00000030: b56a 4b3a 2f53 6cbb 8fef 8bbd 437f 323b
00000040: 386b bb3c 5eb0 37be b4a4 d5bd 7558 8f3b
00000050: 7fab 3fbd 3942 b2bc 4003 73bd b40e 00bd
00000060: 0450 463c 16ef 6b3d 19d4 003d 02ec 05be
00000070: 96d6 a4ba fe28 d1bd a4b4 8ebd 735f 383d
00000080: d2eb fbbd 199b 1ebe 5c78 a33d f40e e53d
00000090: ef41 473d 9074 37be 2f53 c1bc 32bd 13bd
000000a0: f24a 23be a5e4 ffbd 36e5 0dbd a3ad ab3d
000000b0: 6eca 63bd 3fee 4cbd 9b85 783c af23 08be
000000c0: 65ad 913c 4a1c bebd 7a42 8bbc 95aa c8bd
000000d0: 1b25 db3d 0119 a83d 04d2 6dbd 7414 9c3d
000000e0: e521 31bd f2f6 8e3d f182 23be 568c 7fbb
000000f0: 88bf 803c bfab 5abd 93e0 8abc 8cdb a7bc
00000100: c68e 31be 79fe ef3d 8c6f 0cbe 9f70 d2bd
00000110: e9b9 7a3d 91e8 013d 4418 013d 74dd 133e
00000120: 08e9 2fbe 1d2d 753c af31 da3d 5c4d c1bd
00000130: 4e85 963d 8436 be3b 72ae ad3d 4164 db3b
00000140: 1281 12be c1b4 003e 2ffd c03d 7b17 6d3b
00000150: 056e 0c3d dfe3 3bbd a6ea 23be 72da 9abc
00000160: 281d 733c 6fe7 e23d 2d4a e03b fd1c 1e3d
00000170: 8cfa 90bd c4cb e9bd 28d0 63ba 7d17 11bd
00000180: d2e6 2ebe 9121 b7bc 2228 303d c21f e4bd
00000190: 092b ebbd e590 cabd 17e5 38bb f54e e43c
000001a0: c1c5 0a3e ca4c 013e 6a4a a33d 5651 5c3d
000001b0: 5aa8 09bd 9ec9 b73d 6cd3 fcbd b4b0 203d
000001c0: 641b 9bbd 0e44 27bd 7704 ba3d 891c 9dbd
000001d0: d1c7 d8bc 4cf5 edbd 1fe4 56bd 2127 15be
000001e0: 9e4f fabd 3a43 8e3d fe26 8a3d 11f2 e53d
000001f0: f1da ad3d eac7 5cbd 4afb 3fbd e6af 91bd
00000200: 4714 d3bc f82a 84bd bfe6 943c 7f0a a53d
00000210: d380 28bc add6 983c 7774 79bc 2fc8 a33d
00000220: 1338 0bbe ac77 efbd 5a93 403d 6e97 1e3e
00000230: b88f ccbc 6f85 383d 0745 07bd 3125 b53d
00000240: 8525 7e3d d01e f0bc ccd1 c8bc e86d c93d
00000250: 5286 163e 00e5 0dbe 24ae 0cbe b7ec f53d
00000260: b599 e2bd 0e06 89bd f8f9 0cbe 5d39 b1bd
00000270: ea3f aebc 49df 26be 40ae 1cbe ee2c 10be
00000280: 3e1d 7f3a 4348 c23d 6982 013e 203d 1fbc
00000290: 778a acbd 859c 15bc 5fc8 283d 6c7b a23d
000002a0: bd9f 1cbd dbaf 273e 4853 80bd 1f4b 5fbb
000002b0: 702e 793d e619 0fbc fb82 a9bd a76b fb3d
000002c0: 1b0e af3d 9139 08bd e2c4 80bd 2152 a7bd
000002d0: e313 823c 98f7 ed3c ec10 1a3d 8938 c6bd
000002e0: 9d8c b4bd f3f4 fabd 1ee2 043e 7a7a e63d
000002f0: 2fb6 dbbd f1bd 99bc 4b0d 013d a944 b83d
00000300: 547e fe3d bb5d 9b3d f573 8d3d 83bf b6bd
00000310: 0682 15bd b3e9 f43d 216c 45bc ee34 38bd
00000320: bbfa c3bd 6b97 07be 7d27 943d 2259 523c
00000330: 0494 bd3c 59cb 76bd 9ce0 a23d d0eb 7c3d
00000340: f1f8 c53d 2a59 08be c74f f23d dcfc 9a3d
00000350: dece f43d 6fc4 563d d1f2 0d3e cfd4 f4bd
00000360: 619f 13be 7f1b 1a3e eacc d03b f880 a23d
00000370: 7f2e 173d 506e 8abd 2e68 f1bd b9e7 2bbc
00000380: 5b80 97bd 53d9 37bc ec09 aa3d 9800 bc3c
00000390: d337 01be 53f6 05be 261a 47be d919 9fbd
000003a0: cb6c 0bbe 1acc 60bd 9784 d03d 6253 f33d
000003b0: 8815 b8bd 9770 a73d a44b 8abd 6198 9139
000003c0: 73e2 023e f6f0 b9bd 1ae6 ca3c d14f 803d
000003d0: 5250 cabd 4d98 073e f269 0bbe c6c4 e33d
000003e0: ca13 cabd 71fe a23c 3057 813d 4616 5c3d
000003f0: 39cb 02be df3a 063e bd4d 09bd b81b b5bd

sequential_1/conv2d_3/Conv2D_bias f4 [64]
-0.022317166 -0.0012649299 0.020546691 0.0022783575 -0.0249677 0.015153125 0.00583697 0.009399045
0.0090107955 -0.019510062 0.008831937 0.070465796 0.015446409 -0.022431709 0.016248556 0.023312578
0.042563353 0.029568912 0.038776778 0.03703295 0.021227492 -0.041083984 0.009615877 -0.012254542
0.033968426 0.031612173 -0.022971656 0.0017259668 0.010554269 0.026272183 0.0090846205 0.03970852
0.04691104 -0.056601595 0.03712813 0.018999321 -0.041040923 0.0020398211 0.020872554 -0.0068103885
0.0082202 0.056904323 -0.008098324 0.0074888766 0.0033989262 0.02744545 -0.02308709 0.047580704
0.011339104 0.012386382 0.031232288 0.031429768 -0.011955369 -0.013583622 0.0046773823 -0.045105066
0.013697911 -0.016963815 -0.017480042 0.012819372 0.0027674579 -0.029348545 -0.0043970104 0.00092820474
00000000: 7dd2 b6bc 01cc a5ba 8951 a83c 7f50 153b
00000010: 1089 ccbc d044 783c 0e44 bf3b 74fe 193c
00000020: 04a2 133c 91d3 9fbc d4b3 103c 5f50 903d
00000030: ef12 7d3c b4c2 b7bc b11b 853c 05fa be3c
00000040: e956 2e3d 813a f23c 66d4 1e3d ddaf 173d
00000050: 47e5 ad3c ae47 28bd e98b 1d3c 46c7 48bc
00000060: 7a22 0b3d c47b 013d 0e2f bcbc d639 e23a
00000070: d0eb 2c3c c338 d73c a9d7 143c 67a5 223d
00000080: ca25 403d 13d7 67bd ab13 183d 77a4 9b3c
00000090: 871a 28bd 85ae 053b ebfc aa3c ae29 dfbb
000000a0: 05ae 063c 8214 693d d5ae 04bc 4065 f53b
000000b0: 85c0 5e3b 48d5 e03c 2321 bdbc fce3 423d
000000c0: a6c7 393c 40f0 4a3c dbda ff3c 80bc 003d
000000d0: 74e0 43bc d78d 5ebc ba44 993b 17c0 38bd
000000e0: 346d 603c b3f7 8abc 4e32 8fbc 5808 523c
000000f0: 3d5e 353b 5c6c f0bc cc14 90bb c452 733a

sequential_1/dense_1/MatMul/ReadVariableOp/transpose f4 [64, 2304]
-0.01784821 0.044420794 0.044272028 -0.009753576 0.009351242 -0.01617755 -0.029290011 -0.04681753
0.042599738 -0.008427481 -0.038520485 0.03910388 -0.047401715 0.02950721 -0.00068339496 -0.044305004
-0.039335318 0.027559508 -0.0007147412 0.013886313 -0.031869285 -0.028916603 -0.01492674 0.015907142
-0.025664782 -0.008332263 0.029407525 0.040928602 0.011070453 0.031348266 -0.003861277 0.019998133
0.004129026 0.0072608604 0.019912904 -0.044686288 0.011467859 0.039071698 0.008787735 -0.0047391052
0.033371318 0.023599662 0.02816676 -0.0055802907 0.05450195 -0.054702017 -0.0033041723 -0.025801012
-0.031189071 0.022012448 -0.009377978 0.0132799605 -0.027850648 -0.036417257 0.038685 -0.044518843
-0.0014253221 -0.018102366 0.031441502 0.010458493 -0.026879523 -0.043018915 -0.024026496 0.004314534
0.00014540525 -0.01275772 -0.014806762 0.0026725754 0.030946285 -0.031736575 0.030039258 0.04827203
-0.014452734 -0.037668098 0.04033274 0.0076332004 0.0016634903 0.016765766 0.037261434 -0.030725786
0.019266745 -0.022618528 0.035069767 -0.010659543 0.041642606 -0.013004817 -0.04607727 0.016326476
-0.017974325 0.017964741 0.03161062 0.035958 -0.015288934 0.043237016 0.02907811 0.005599233
-0.042642977 0.022862073 0.03585796 -0.04618737 -0.011294217 0.036672 -0.009272966 0.041570276
-0.007772815 0.013986424 -0.016660476 -0.009823878 0.034775514 -0.047662456 0.04280948 -0.029704755
0.018501066 0.004661327 0.009260733 -0.023377676 0.044475492 0.04259547 0.04400184 -0.026180377
-0.022426017 -0.016998867 -0.041782577 -0.05298797 -0.025625076 0.0024444547 -0.03436972 0.0048527713
-0.04102022 -0.039411247 -0.0055154674 0.028258888 0.039064042 -0.00024833102 -0.015625715 -0.032490216
-0.04248179 0.01632079 0.011256099 0.047059383 0.038696792 0.018956773 -0.018060563 -0.039055955
0.006156329 -0.039453074 -0.05221835 0.028597446 0.040233117 0.0050243796 0.0005027421 0.009885212
0.038800195 -0.02438994 0.016653426 0.024600178 0.033537142 0.028289733 -0.006485287 -0.02527593
0.04391939 0.0057306485 0.021325752 0.01821059 0.019925117 0.042711478 -0.043307092 -0.022171771
0.031822264 0.048064627 -0.003991671 -0.038794592 -0.05089669 -0.035112973 -0.035439737 -0.00880257
0.027853688 0.013467197 0.043275192 0.03000088 0.012543862 -0.027415818 -0.04431398 -0.027498282
0.030881189 -0.018320726 -0.02119479 0.04033005 -0.016274935 0.007380695 -0.04665914 -0.0111050755
-0.012106736 0.041187678 0.036529787 -0.039376475 -0.035366137 -0.011996957 0.028206147 -0.0334657
0.0007798064 0.026065309 -0.037289508 -0.020010727 -0.021135923 0.0443698 0.0060362923 -0.004667856
-0.0030981712 -0.007315154 -0.022724697 -0.051568072 -0.029087476 0.035342433 -0.008931549 0.020634748
-0.0404901 0.032064997 -0.029844297 -0.016171638 -0.021988176 0.026884522 -0.018377015 -0.004115008
0.023861136 -0.0015902082 0.035451047 0.034143202 0.035560157 -0.023079997 -0.01908937 -0.04827641
0.023025585 -0.015509229 -0.05302972 0.03576935 -0.037011877 -0.02014138 -0.018266242 -0.047892433
0.014742116 -0.019035432 -0.023185665 0.039266206 -0.020822678 0.01877328 0.020762932 -0.04881975
-0.0021327585 -0.033107035 0.026024876 -0.050891843 -0.011220378 -0.026458606 0.024614396 -0.017375212
00000000: 6936 92bc 94f2 353d 9656 353d 76cd 1fbc
00000010: f435 193c c886 84bc 9bf1 efbc bdc3 3fbd
00000020: 107d 2e3d 6b13 0abc a8c7 1dbd 642b 203d
00000030: 4d28 42bd 1bb9 f13c dc25 33ba 2a79 35bd
00000040: 121e 21bd 7ac4 e13c 785d 3bba 6b83 633c
00000050: 5e89 02bd 83e2 ecbc 498f 74bc b24f 823c
00000060: f33e d2bc 0b84 08bc 0de8 f03c c0a4 273d
00000070: d860 353c 0a67 003d 7a0d 7dbb 20d3 a33c
00000080: c84c 873b 83ec ed3b 6320 a33c f808 37bd
00000090: b0e3 3b3c a509 203d 6ffa 0f3c 7f4a 9bbb
000000a0: 5db0 083d 1454 c13c fabd e63c dfda b6bb
000000b0: 703d 5f3d 390f 60bd d08a 58bb a55c d3bc
000000c0: 3980 ffbc 7353 b43c 17a6 19bc 3194 593c
000000d0: 0b27 e4bc 432a 15bd 2a74 1e3d 6459 36bd
000000e0: e0d1 baba 6a4b 94bc cec8 003d 195a 2b3c
000000f0: 7232 dcbc 9a34 30bd 37d3 c4bc ef60 8d3b
00000100: ed77 1839 c205 51bc 1098 72bc 6026 2f3b
00000110: 1083 fd3c 36fe 01bd e414 f63c e4b8 453d
00000120: 29cb 6cbc dd49 1abd f133 253d ed1f fa3b
00000130: 7909 da3a 5c58 893c 729f 183d a5b4 fbbc
00000140: 4bd5 9d3c 7e4a b9bc 51a5 0f3d 5da5 2ebc
00000150: 7091 2a3d 2812 55bc 85bb 3cbd 1abf 853c
00000160: e43e 93bc cb2a 933c 237a 013d b248 133d
00000170: 707e 7abc 4c19 313d 3735 ee3c c579 b73b
00000180: 67aa 2ebd 3e49 bb3c ccdf 123d f82e 3dbd
00000190: 610b 39bc 6135 163d a3ed 17bc 9845 2a3d
000001a0: 19b3 febb 5027 653c 8d7b 88bc 55f4 20bc
000001b0: c570 0e3d b539 43bd fe58 2f3d 6357 f3bc
000001c0: 8c8f 973c 0cbe 983b 54ba 173c 8a82 bfbc
000001d0: ef2b 363d 9678 2e3d 463b 343d 3b78 d6bc
000001e0: c4b6 b7bc 3541 8bbc 3524 2bbd ea09 59bd
000001f0: aeeb d1bc 2533 203b 43c7 0cbd ff03 9f3b
00000200: d104 28bd b06d 21bd 18bb b4bb 2f7f e73c
00000210: 9e01 203d 6d32 82b9 8001 80bc 7614 05bd
00000220: 6301 2ebd 2db3 853c 806b 383c 57c1 403d
00000230: 8780 1e3d 3c4b 9b3c bff3 93bc 23f9 1fbd
00000240: 08bb c93b 8c99 21bd e9e2 55bd 3145 ea3c
00000250: 7bcb 243d 8da3 a43b 74ca 033a 96f5 213c
00000260: f4ec 1e3d 69cd c7bc c46c 883c 5086 c93c
00000270: 3e5e 093d dfbf e73c 8882 d4bb 780f cfbc
00000280: d1e4 333d 2ac8 bb3b 58b3 ae3c 602e 953c
00000290: 003a a33c 3bf2 2e3d c762 31bd 93a1 b5bc
000002a0: 1058 023d 6adf 443d 90cc 82bb 14e7 1ebd
000002b0: 0c79 50bd 9fd2 0fbd 4229 11bd a838 10bc
000002c0: 6b2d e43c 85a5 5c3c 5441 313d 68c4 f53c
000002d0: c584 4d3c 2397 e0bc 9382 35bd 1444 e1bc
000002e0: 8cfa fc3c 5915 96bc b2a0 adbc 1f31 253d
000002f0: 0353 85bc c2d9 f13b a81d 3fbd 10f2 35bc
00000300: 555b 46bc 69b4 283d 42a0 153d 3a49 21bd
00000310: 15dc 10bd e28e 44bc 9410 e73c 5413 09bd
00000320: ec6b 4c3a ea86 d53c e2bc 18bd 89ed a3bc
00000330: 3e25 adbc 1bbd 353d 17cc c53b d0f4 98bb
00000340: b00a 4bbb f6b3 efbb 2529 babc 0b39 53bd
00000350: dc48 eebc 3ac3 103d a255 12bc 340a a93c
00000360: f2d8 25bd 9656 033d 077c f4bc 627a 84bc
00000370: 8c20 b4bc ee3c dc3c 658b 96bc 30d7 86bb
00000380: 6e78 c33c 886e d0ba 1e35 113d bed9 0b3d
00000390: 87a7 113d 4312 bdbc 4f61 9cbc 7cbd 45bd
000003a0: 27a0 bc3c 6c1a 7ebc b135 59bd e282 123d
000003b0: c499 17bd 89ff a4bc 16a3 95bc db2a 44bd
000003c0: eb88 713c 32f0 9bbc ddef bdbc 9ad5 203d
000003d0: 5294 aabc 6cca 993c 0617 aa3c 38f7 47bd
000003e0: c0c5 0bbb 3e9b 07bd 1f32 d53c f773 50bd
000003f0: add5 37bc b8bf d8bc 21a4 c93c 7656 8ebc

sequential_1/dense_1/MatMul_bias f4 [64]
-0.005863156 -0.006900821 0.018999476 -0.009528126 -0.008073259 -0.0041041775 -0.008655897 -0.0060990257
-0.018244099 0.00042057582 -0.019157475 0.0018440384 -0.008093682 0.017967913 -0.011566608 0.022916047
-0.021081869 -0.01725426 -0.005862922 -0.013198214 -0.017956952 -0.0117248865 0.019003388 -0.010627086
-0.0001338913 0.006632231 -0.0058632283 -0.0055048116 -0.010096052 0.016315725 -0.005580267 0.01411281
-0.0162595 -0.011672232 0.0379438 -0.014693008 0.022551402 -0.02550916 -0.005863406 -0.010007224
0.01981305 -0.01962094 -0.0058633843 -0.0010518372 -0.0057458016 -0.0103054205 -0.0042551714 -0.015364648
-0.0033906328 -0.007118313 -0.013600626 -0.009479103 -0.006187548 0.0224969 -0.0054488815 -0.0056531513
-0.0017662804 -0.0059576808 -0.005824879 -0.008635098 0.020992303 -0.0025280088 -0.009478273 0.011257418
00000000: b81f c0bb 4820 e2bb caa4 9b3c db1b 1cbc
00000010: b445 04bc 567c 86bb 77d1 0dbc 56da c7bb
00000020: a674 95bc bb80 dc39 23f0 9cbc a9b3 f13a
00000030: 5d9b 04bc 7231 933c df81 3dbc 6fba bb3c
00000040: e2b3 acbc ce58 8dbc c11d c0bb 523d 58bc
00000050: 751a 93bc bd19 40bc feac 9b3c 3b1d 2ebc
00000060: 2c65 0cb9 3053 d93b 5320 c0bb b561 b4bb
00000070: e969 25bc 8ea8 853c acda b6bb 6a39 673c
00000080: a532 85bc e43c 3fbc f56a 1b3d f1ba 70bc
00000090: b8bd b83c 96f8 d0bc d121 c0bb 57f5 23bc
000000a0: fa4e a23c 18bc a0bc a221 c0bb cddd 89ba
000000b0: 4747 bcbb 11d8 28bc f76e 8bbb 01bc 7bbc
000000c0: 6135 5ebb bd40 e9bb 29d5 5ebc 3d4e 1bbc
000000d0: eac0 cabb 6b4b b83c 888c b2bb 123e b9bb
000000e0: 8982 e7ba a638 c3bb a0de bebb 3a7a 0dbc
000000f0: 0df8 ab3c f3ac 25bb c24a 1bbc 0971 383c

sequential_1/dense_2/MatMul/ReadVariableOp/transpose f4 [1, 64]
0.07968656 0.03905251 0.4024995 0.0045777685 0.0809261 -0.12663497 -0.008132679 -0.0004265607
0.17774501 -0.2288898 -0.091935836 -0.28023875 0.18140411 0.3568473 -0.30670112 0.19416597
-0.2702524 -0.16501412 0.20020616 -0.2681084 0.24967407 0.117872 0.20719641 -0.18772939
-0.24263215 -0.3310681 0.26937476 0.17369191 -0.2652284 0.34279755 -0.28664184 0.23154785
0.21368974 -0.20668484 0.15932381 0.02693805 0.1866997 -0.13545647 0.30642647 -0.08240154
0.2041261 -0.13051766 0.1617477 -0.39043117 0.08328687 -0.1927928 -0.2329843 -0.25584832
0.16815169 -0.001111714 0.20107396 -0.14478767 -0.27967224 0.22910227 0.22199059 -0.0026885958
-0.20713353 0.17634268 -0.23834717 -0.24766017 0.18427305 -0.18753964 0.2338353 0.3303089
00000000: b532 a33d 86f5 1f3d 6a14 ce3e 1b01 963b
00000010: 95bc a53d 99ac 01be ee3e 05bc 02a4 dfb9
00000020: ca02 363e 1662 6abe db48 bcbd 747b 8fbe
00000030: 00c2 393e b0b4 b63e ee07 9dbe 72d3 463e
00000040: 865e 8abe 76f9 28be d802 4d3e 8145 89be
00000050: 8faa 7f3e e066 f13d 4c2b 543e 223c 40be
00000060: 9074 78be c281 a9be 7deb 893e 4bdc 313e
00000070: 04cc 87be 2983 af3e b8c2 92be e11a 6d3e
00000080: 7cd1 5a3e 31a5 53be c825 233e 2fad dc3c
00000090: 352e 3f3e 1ab5 0abe eee3 9c3e 23c2 a8bd
000000a0: 6f06 513e 6ca6 05be 30a1 253e 98e6 c7be
000000b0: 4e92 aa3d 7a6b 45be 7093 6ebe 8dfe 82be
000000c0: f52f 2c3e efb6 91ba 55e6 4d3e 3843 14be
000000d0: 3331 8fbe c999 6a3e 8051 633e 2733 30bb
000000e0: d01a 54be 2d93 343e 4811 74be a19a 7dbe
000000f0: 13b2 3c3e 640a 40be 8572 6f3e 401e a93e
